10 Predictions with sound classifier/feedforwardnet.pth (torch, 494811 bytes, 10 tensors)

conv1.0.weight f4 [16, 1, 3, 3]
000000 5f 7a 48 3e a9 4f 44 3e 1e 66 5b be da 93 8a 3c
       0.19577931 0.19171013 -0.21425673 0.016916204
000010 95 4d 28 3e 59 72 91 3e 5c 0b 17 3d c4 1e 62 be
       0.16435845 0.28407553 0.036876068 -0.22082049
000020 2f c1 34 bd d2 ad 25 be db 38 8c 3c 91 2b 6c bd
       -0.044129547 -0.16179588 0.017116955 -0.057658736
000030 17 d0 01 bd 0a d0 fc bd e0 28 dc bd 78 c1 46 3e
       -0.03169259 -0.12344368 -0.10749984 0.1940974
000040 03 fd 35 3e 8b 3e 6d bd 8d b2 c7 bb 5d 26 f6 3d
       0.17772298 -0.057920974 -0.006094283 0.12019036
000050 77 32 46 be 3f 50 d6 bd 48 1f 20 be 77 bd 4b be
       -0.19355188 -0.104645245 -0.15636933 -0.19896494
000060 46 82 0a bd 90 f8 a9 3d 25 37 99 3e ed 61 47 bd
       -0.033815645 0.08299363 0.29924884 -0.048677374
000070 1e 52 4f bc 61 c7 90 3c a9 2a 90 3e 2d ea 60 be
       -0.012653856 0.017673196 0.28157547 -0.21964331
000080 d1 7a d4 bd 63 fb bf bd a8 eb 1f be e0 d0 91 be
       -0.10374988 -0.0937412 -0.1561724 -0.2847967
000090 0a 1f fd 3d 6d c4 97 3c 5c cc 14 3e eb 3c 85 3d
       0.12359436 0.01852628 0.14531082 0.0650576
0000a0 45 fc a3 bc 2b b2 90 3e 29 d4 88 3e 8c 5d 1a 3d
       -0.020017752 0.2826093 0.26724365 0.03768687
0000b0 49 c5 3d 3e 0c f4 9a be 8e 56 83 3e 69 03 73 3e
       0.1853229 -0.30264318 0.25651973 0.2373177
0000c0 9f a3 bd bd b2 02 3b 3d b7 0f a5 be ff 01 84 3e
       -0.09259724 0.045656867 -0.32238552 0.25782773
0000d0 b8 67 6a 3d 6d d5 28 3e 7f 34 9d be 11 37 82 be
       0.05722782 0.16487665 -0.30704114 -0.25432637
0000e0 72 a9 54 3d 0b 1d 49 be 43 86 fd 3d 37 96 3c be
       0.05191941 -0.19639985 0.12379124 -0.18416677
0000f0 00 00 41 be 3c bc 12 be 4f ab c0 3d 42 3a 44 3e
       -0.18847656 -0.14329618 0.094076745 0.19162849
000100 6c b6 73 3e 6c c6 a1 be 24 55 27 3e 84 64 7e be
       0.23800057 -0.31596696 0.16341072 -0.24843031
000110 b2 ab 97 3e 4a 16 23 be 9f 76 86 3e 01 9d d5 bd
       0.2962318 -0.15926471 0.26262376 -0.10430337
000120 7a 25 5d be fc 51 85 3c 80 8b 8c 3d 27 28 a3 be
       -0.21596327 0.016274445 0.06862545 -0.3186657
000130 93 06 9b be 34 eb a8 bd ff 47 95 be 9f 4d 1d 3e
       -0.30278453 -0.082479864 -0.2915649 0.15361641
000140 65 1d 3a be 64 36 8a 3e 28 16 d2 3d 72 52 48 3d
       -0.18175276 0.26994622 0.10258132 0.04890675
000150 53 4e a7 3d a1 e6 4c be 34 86 0f 3d 75 8c 8a bd
       0.08169236 -0.20009853 0.035040095 -0.06765071
000160 c1 e7 70 3d a1 52 82 be 4c b7 8f be e3 9f 69 3e
       0.058814768 -0.25453666 -0.28069532 0.22814898
000170 d8 1c 79 3e 23 76 97 be 41 f0 ce bd c9 6a 4a be
       0.2432741 -0.2958232 -0.101044185 -0.19767298
000180 b9 b1 9e 3d e8 92 31 be d8 0f 07 bd d7 ff 09 be
       0.07748742 -0.17341197 -0.032974094 -0.13476501
000190 80 8e a9 3e 39 13 b6 bd e2 23 50 3d aa bb 48 be
       0.3311653 -0.08890385 0.05081547 -0.19602838
0001a0 d3 9f d5 bd a6 89 bc 3a 00 e0 7c bd f6 c6 07 be
       -0.10430875 0.0014384284 -0.06173706 -0.13259491
0001b0 aa ef 7e 3e fe 10 0a bd 8a 18 c1 3d 98 d5 a1 bd
       0.24896112 -0.03370761 0.094285086 -0.07902068
0001c0 d0 88 40 be 35 fb 9e 3e 52 0f 1e be 29 d0 6e 3d
       -0.1880219 0.3105103 -0.15435532 0.058303986
0001d0 57 91 47 3e e8 fe c6 bd 64 06 90 3e a9 2f 21 be
       0.19489037 -0.09716588 0.28129876 -0.15740837
0001e0 86 11 79 3d 34 02 53 bc 76 4a 40 be 5d 3c 95 3e
       0.060807727 -0.012878943 -0.18778405 0.29147616
0001f0 93 f4 85 be 17 c3 90 be 77 13 e1 3d 9e a7 3e 3d
       -0.26163158 -0.28273842 0.10990041 0.04654657
000200 0f 0e 3c be 1c d2 53 3e e5 bf 37 3e d7 db b0 ba
       -0.18364738 0.20685619 0.17944296 -0.0013493252
000210 30 4f 9a 3e ec 67 65 bd 47 e2 9d be e3 59 9c bc
       0.3013854 -0.05600731 -0.30836698 -0.01908583
000220 d5 2a d9 3d 00 57 03 be 5f f7 94 be 40 b9 92 3e
       0.10603873 -0.12826157 -0.2909498 0.2865696
000230 4c fd b8 3d 7e a0 b0 3d af 30 34 3d 9e 12 a1 3e
       0.090326875 0.086243615 0.04399174 0.31459516

conv1.0.bias f4 [16]
000000 ba 24 19 be dc ca 9d 3d 31 36 ac be 0f 11 f1 3c
       -0.14955416 0.07704708 -0.33635095 0.02942708
000010 cc 46 71 be c0 51 0a be 49 07 7a be 96 9b 8b 3d
       -0.23562163 -0.13507748 -0.24416842 0.06816785
000020 8b 1e 82 3e 71 2e ce 3d 73 b7 0a 3e 66 00 9f 3d
       0.25413927 0.10067452 0.13546543 0.07763748
000030 8a e5 0c bd 4a 98 84 3e 23 18 06 bd a4 1f 1a 3e
       -0.034398593 0.25897437 -0.032737862 0.15051132

conv2.0.weight f4 [32, 16, 3, 3]
000000 22 b2 c3 3c 6d f9 64 bd e1 30 0e 3c 84 ae 93 bc
       0.023888651 -0.055901933 0.008678646 -0.018027551
000010 88 0b 97 bd 50 76 78 3d 4e e6 38 bd 47 a1 76 3c
       -0.07375246 0.060659707 -0.04514151 0.0150531
000020 b9 83 30 3d b2 ba 6f bc 98 ab 0a 3c d8 dc a7 3d
       0.04309437 -0.014631914 0.008463763 0.081964195
000030 36 81 7f 3d 57 76 0b 3a 28 8a 23 3d 5c 8c 89 bd
       0.062379085 0.0005320063 0.039926678 -0.067162246
000040 f1 ef 80 3d b7 5c ae 3c aa 29 56 3a ff 9b df 3c
       0.06295765 0.021284444 0.00081696606 0.027296064
000050 cf 7c 7b 3d af d2 22 3b 7f c4 de bc 62 cb 94 bd
       0.061398324 0.0024844815 -0.027193306 -0.07265355
000060 60 32 a3 3d 54 c4 91 3d c9 9e 27 3b 68 7d 8f bd
       0.07968593 0.07117525 0.002557682 -0.07006341
000070 be 77 67 3d 89 3e 0d 3c d9 04 75 bd ce f6 2e bc
       0.05651068 0.008620867 -0.059819076 -0.01067896
000080 4d 7c 20 3d d2 7b 8d bc b6 d9 6f 3c bc 16 62 3c
       0.039181042 -0.017270956 0.014639309 0.013799366
000090 fe 48 37 3d 1b 85 ac 3c c6 1a 7e bc 69 3e 56 3d
       0.044747345 0.021059563 -0.015509313 0.052305613
0000a0 c0 7b ab bc 33 71 a1 bd 81 e1 6d 3d e2 32 3f 3d
       -0.020933032 -0.07882919 0.058076385 0.046679385
0000b0 92 2a 36 bd 13 bb 90 3c 62 27 1f bd 9d 08 2b 3d
       -0.044474192 0.017667329 -0.038855918 0.04175626
0000c0 1b fb 8b bd 5b 9e 71 bd 54 25 b3 3b 0e 5a a9 bd
       -0.06835004 -0.05898891 0.0054670963 -0.0826913
0000d0 3a b7 52 bb 9a 7c 7a bd 8a 34 97 bd dd 94 92 3d
       -0.0032152669 -0.061153986 -0.07383068 0.071573
0000e0 0f ca 7a 3d e6 62 49 bd 2c 39 cb 3d fe cd 0e bd
       0.061227854 -0.049166583 0.09923014 -0.03486442
0000f0 15 c4 18 bd 21 3f 5c bd e5 83 9a bd fb c8 11 bd
       -0.037296373 -0.053771142 -0.07544688 -0.03559206
000100 c4 fa d7 bc 36 a0 ae bd 70 41 37 bd 1e 02 34 bd
       -0.026364692 -0.085266516 -0.04474014 -0.04394733
000110 ea 62 34 bd ce 62 d8 3c aa 7a 89 bd fc 3b 29 3d
       -0.044039644 0.026414301 -0.067128494 0.04131697
000120 2b fc ab bd 2a ca 64 3c a9 de 65 3d 1a c0 07 bc
       -0.083977066 0.013964215 0.05612055 -0.008285547
000130 79 5f 2a 3d be cd 37 bd 89 78 b0 3c d7 6b ce bd
       0.041594956 -0.044873945 0.02154185 -0.100791626
000140 a6 0d 32 b9 d7 7a 52 3c bd c9 92 3d 66 e9 c2 bd
       -0.00016980487 0.01284667 0.07167385 -0.095171735
000150 f0 dc 17 bd 7f 77 1b 3d af 45 74 3d 34 bc 36 3d
       -0.037075937 0.037955757 0.059636768 0.04461308
000160 bd df 3b bc ce bc 14 3d d5 00 06 3d 55 b1 27 bd
       -0.011466918 0.03631287 0.032715637 -0.0409406
000170 db 0e 9a b9 5b b9 a4 bd a5 b7 6b bc 2f c1 0b bd
       -0.00029384237 -0.08043166 -0.014387046 -0.03411978
000180 cf bc 12 3c 94 e6 8a 3d 7d 7a 24 3d 3a 3d e8 bc
       0.008956148 0.067822605 0.040155876 -0.028349508
000190 23 a0 b7 bc d1 fa 36 3d e0 2f 25 bd ef 0f 88 3d
       -0.022415226 0.04467279 -0.04032886 0.06643664
0001a0 ce 94 b7 bc d9 66 11 bd 9a 81 b4 bd 06 91 76 3d
       -0.022409823 -0.035498474 -0.08813782 0.0601969
0001b0 e5 4c d8 3c 33 30 25 bd bb eb 2a bc 18 f6 b0 bd
       0.026403854 -0.04032917 -0.010432179 -0.08640689
0001c0 25 28 ca 3a 2c c4 76 bd cb 52 9d bd 93 a8 b9 3d
       0.0015423341 -0.060245678 -0.07681807 0.09065356
0001d0 d6 ce 40 bd 73 85 ad 39 82 18 cb bb b8 5a 16 3c
       -0.047072254 0.0003309656 -0.00619799 0.0091769025
0001e0 32 4d 1c bc 8d 4b fa bc 74 0c 6d 3c b2 d5 b4 3b
       -0.009539889 -0.030553604 0.014468301 0.0055186385
0001f0 0e 53 60 3d d5 0d 72 bb 23 40 04 bd 0b 4a 4c bc
       0.054766707 -0.0036934514 -0.032287728 -0.012468825
000200 5b 2e a3 3d d3 29 17 bb 0d 16 89 3d bb 5e 6b 3d
       0.07967826 -0.00230657 0.06693659 0.05746339
000210 24 f8 02 3c d1 96 42 bc a0 7a 14 3d b8 5c 88 bb
       0.007993732 -0.011876778 0.036249757 -0.0041614436
000220 60 c5 96 3d f5 8b 1d 3d 38 81 18 ba 30 10 7c bd
       0.07361865 0.03846355 -0.0005817595 -0.061538875
000230 dd f8 d3 3b 54 10 9d bd 13 e4 64 3c b7 c8 4a bd
       0.006468876 -0.0766913 0.013970393 -0.049507823
000240 d0 a1 87 3c ec 67 53 3d 56 79 1e 3d f5 94 01 3d
       0.01655665 0.05161278 0.038689934 0.031636197
000250 47 c7 34 3d 44 5c 9a 3d 5c 27 89 3d 15 18 26 bd
       0.04413536 0.075371295 0.0669696 -0.04055031
000260 79 c1 24 bb 8d ef 1e bd b4 f5 3e bc 15 f6 6b bb
       -0.0025139733 -0.038802672 -0.01165526 -0.003600483
000270 9c 66 9b bd 8f 70 89 bd 52 2b 2f bd ca dc 13 3d
       -0.075879306 -0.06710922 -0.042765923 0.036099233
000280 68 c0 fc bc f6 36 bf 3c 38 21 9e bc 6a 7e 83 3d
       -0.030853465 0.023341637 -0.01930295 0.06420596
000290 60 e2 95 3c a3 d8 bb bb 16 ea c3 b8 6f 53 a0 b9
       0.01829642 -0.005732612 -9.3419265e-05 -0.0003057974
0002a0 d9 d3 7e bd 55 47 d4 bb 2a a2 93 bc 96 78 a1 bc
       -0.062213752 -0.00647823 -0.018021662 -0.01971082
0002b0 03 40 48 3d 32 7e a8 3d 77 36 30 bd 65 6e 0a 3c
       0.04888917 0.08227195 -0.04302069 0.008449172
0002c0 0d 0c 1f bc 30 44 4e bd eb 85 bd 3b dc 2d 4a 3d
       -0.009707463 -0.050357997 0.0057837865 0.04936014
0002d0 78 94 8c 3d 6f cc 9f 3d a6 49 9e bd a8 b6 3b 3d
       0.06864256 0.078026645 -0.07728891 0.04582849
0002e0 fc 9b 0d bd 1d f2 86 bc f7 29 a8 3c 84 37 62 3d
       -0.034572586 -0.01647287 0.020527823 0.055228725
0002f0 9d b4 85 3c 76 58 a4 bc 85 a1 f7 bc 28 1e 8d 3d
       0.016321475 -0.020061713 -0.030228386 0.068905175
000300 1a bd a3 3d d0 7f 8a bd 0a d7 87 bc 76 af 01 3b
       0.07995053 -0.067626595 -0.01658203 0.001978842
000310 b7 15 9a bd ef 80 63 bd fc 55 89 3d 6c 02 01 3d
       -0.07523673 -0.055542883 0.06705853 0.03149645
000320 f5 37 fc bc bb 7e d6 3c d2 2c 93 3d 82 86 a9 3d
       -0.030788401 0.026183477 0.07186283 0.082776085
000330 6d 80 a6 bd 16 39 0c bc 9a 38 65 3d a5 63 a8 3d
       -0.08129964 -0.008558532 0.055962183 0.08222131
000340 85 94 70 bd 63 19 51 bd 0a 7a 81 bc 33 3c a6 3c
       -0.05873539 -0.0510496 -0.015805263 0.020292377
000350 81 88 a3 bd 66 44 c5 3b d1 36 57 3d 83 bb 38 bd
       -0.079850204 0.0060201166 0.05254251 -0.0451007
000360 63 aa 88 3d af ac 85 3c 13 71 0d bd 4b 3e 91 3d
       0.06673124 0.016317694 -0.034531664 0.070919596
000370 77 1e 2b 3d 49 56 36 bb fd 44 81 bc c5 39 67 3d
       0.0417771 -0.0027822426 -0.015779966 0.056451578
000380 5e e1 2b 3b b8 60 32 3c fd 27 fe b8 fd ba 89 bd
       0.0026226859 0.010887317 -0.00012119112 -0.06725118
000390 06 2f 16 bc b4 53 a1 3d 35 5d 92 3d 63 47 8b bc
       -0.009166485 0.07877293 0.07146684 -0.017001813
0003a0 92 73 63 3d 12 5d c8 bc 6e 3d 9e bb ba 04 f9 bc
       0.05553014 -0.024458442 -0.0048291003 -0.030397762
0003b0 ba 91 0e 3c 42 e1 93 bc 6b bc 59 3d aa 5e 08 bd
       0.008701736 -0.018051747 0.053158205 -0.033293404
0003c0 06 b0 20 3d 90 f6 cd bc 38 16 3b bd 6f 05 11 bd
       0.03923037 -0.025141984 -0.045675486 -0.035405573
0003d0 d2 0a 31 bd 03 ea 94 3d 30 df 50 3b 86 03 26 3d
       -0.04322321 0.07271197 0.0031871311 0.040530704
0003e0 d9 08 df bc 3d 21 cb 3c 3b 9c 18 3d 8c 6b 19 bd
       -0.027225899 0.024796123 0.037258368 -0.03745608
0003f0 9e 3d 4e 3d 2f 45 4b bd 1f 85 23 bd d4 42 c0 3c
       0.05035173 -0.049626525 -0.039921876 0.023469366

conv2.0.bias f4 [32]
000000 bd a9 dd bc 9e 2d 02 3d 74 9b 4c 3d da 35 63 3d
       -0.027058477 0.031781785 0.04995294 0.05547128
000010 9e 2a d0 bc 50 25 d9 3b f6 a4 35 3d 79 14 c4 bb
       -0.025410946 0.0066267624 0.044346772 -0.005983886
000020 f9 a4 48 bd ea 27 13 3d f9 a7 93 bd 4f 50 c0 bc
       -0.048985455 0.035926737 -0.072097726 -0.023475794
000030 e3 9a aa 3b d7 ae 7b bd a2 e8 b9 bd 96 bc 3b 3d
       0.005206452 -0.061446037 -0.09077574 0.045834146
000040 f3 fd 9f 3c ce 4b 0e 3d 23 03 23 bd 91 5a cd 3c
       0.019530272 0.03474026 -0.039797913 0.0250676
000050 ae a1 88 bb 05 ca 9f bd 96 f5 f8 bc ec b2 0f 3d
       -0.0041696643 -0.07802204 -0.030390542 0.035082743
000060 69 df c1 bc 01 01 61 3c 05 b9 54 bd b1 50 cd 3c
       -0.0236661 0.0137331495 -0.05193426 0.02506289
000070 cc 07 54 3d 05 3a 53 bb 56 e5 33 bc 32 96 c7 bd
       0.05176525 -0.0032230627 -0.010979971 -0.09745444

conv3.0.weight f4 [64, 32, 3, 3]
000000 e2 00 1f b9 91 4d cd 3c 47 48 1b bd 7f db a1 3b
       -0.0001516375 0.0250614 -0.037910726 0.004939496
000010 90 c4 bb bc ac 47 c7 bb a3 52 02 3d 66 dc 3b bc
       -0.022920877 -0.006081542 0.03181709 -0.011466121
000020 71 56 8a 3c d2 86 16 bd 3e d9 14 bb ac d3 39 bc
       0.016886922 -0.03674967 -0.0022712494 -0.01134197
000030 89 c3 4d bd 51 fa 63 bd 1a 72 25 3d ab 8a e9 3c
       -0.050235305 -0.055658642 0.04039202 0.028508505
000040 d0 21 47 3d 9f 4c 0e bd e0 34 d1 bc 36 87 40 3d
       0.04861623 -0.03474104 -0.025537908 0.047003947
000050 06 62 7e 3b 4e 76 19 3d 67 40 23 3c c1 f6 61 bc
       0.003881575 0.03746634 0.009964085 -0.013791741
000060 23 0e ee 3c 02 c5 b1 3c a6 f0 4e 3d a0 50 c2 3c
       0.029059475 0.021700386 0.05052247 0.023720086
000070 91 bf 1e bd 92 f9 fd 3c 00 65 c5 3c 78 45 e0 bb
       -0.03875691 0.031002793 0.024096012 -0.006844219
000080 e5 95 a2 3c 03 11 cc bc fa ca 89 bc ce 56 1d bd
       0.019846866 -0.024910456 -0.01682042 -0.03841286
000090 bf fd 5d bc ed f7 13 bc 29 9a 10 3d 66 e7 4f 3d
       -0.013549267 -0.009031278 0.03530327 0.050757788
0000a0 07 23 46 bd 80 60 c3 bc f8 40 3a bd 68 1a aa 3c
       -0.04837325 -0.023849726 -0.045472115 0.020764545
0000b0 55 70 91 3c 31 b0 2c 3d 1c c7 b7 3c 83 96 10 bd
       0.01775376 0.042160217 0.02243381 -0.03529979
0000c0 5b 1a fb 3c 96 e3 65 bd 29 c1 30 bd ce bb 55 3c
       0.030652216 -0.056125246 -0.043152962 0.013045264
0000d0 22 e7 49 bd 11 85 7f bd 60 6c 01 3d ef e7 4e bd
       -0.04929269 -0.06238276 0.031597495 -0.050514158
0000e0 0e 38 81 3d 5b 5a 65 bd f6 e8 63 bd 70 eb 41 bd
       0.0630952 -0.055994373 -0.05564209 -0.04734367
0000f0 3c f5 05 bc 61 fb b5 bb dc 37 df bc 40 6d c6 3c
       -0.008176144 -0.0055536483 -0.027248316 0.024222016
000100 76 7d 53 bc 0d 32 43 3c 69 7e a2 bb 0f fe f1 bc
       -0.01290833 0.0119137885 -0.004958917 -0.02954009
000110 ea 95 46 3b b5 28 56 3b e4 77 e3 bc 67 4d 47 3d
       0.0030301758 0.0032678072 -0.02776713 0.0486578
000120 08 8c 62 3d 79 cd 9c bc 32 18 b8 3c ec 81 94 bc
       0.055309325 -0.019140946 0.022472475 -0.018128358
000130 24 93 15 3d 72 bb 32 bd 64 c4 9b bc 71 ef 5d bc
       0.036517277 -0.043635793 -0.019014545 -0.013545857
000140 8d 41 9f bb f5 5e 32 3d 54 2d dd 3c f9 cf f0 3c
       -0.004860109 0.04354759 0.026999153 0.029396044
000150 a6 1f 7f 3c 46 1e e0 3c ba b3 34 bc 9d 36 9c 3c
       0.01557151 0.027358185 -0.011029178 0.01906901
000160 74 01 57 3d 17 94 2d 3d db f8 05 bd 3c f5 2c bc
       0.05249162 0.042377558 -0.03270803 -0.010556515
000170 93 02 6f 3c f5 7e 93 bd 35 cd 8f bc be 46 24 3d
       0.014588016 -0.072019495 -0.017553905 0.040106528
000180 02 a9 d0 3c d9 d2 9a 3c a2 75 7d bd f9 f8 4e 3d
       0.025471214 0.018899368 -0.06187976 0.050530408
000190 bf 98 6e 3d 7f 82 0c bd fd 72 cf 3b fe d2 13 bd
       0.05825114 -0.03430414 0.0063308463 -0.03608989
0001a0 cc a4 18 bd e9 ea 5c bd 2f 48 58 bc 06 f7 76 bc
       -0.037266538 -0.053934965 -0.013200804 -0.015073543
0001b0 1d df 71 bc c4 bd 79 bc f1 a1 5e 3d 1c b5 36 3d
       -0.014762667 -0.015242998 0.054353658 0.044606313
0001c0 6a c0 4f bc 2e 6d 0d 3d dc a6 4b bd bc 27 bd bc
       -0.012680152 0.03452795 -0.049719676 -0.023090236
0001d0 84 0f 9a 3c e3 cc 04 bc e4 28 0a bd 9c c6 59 3c
       0.018806227 -0.008105489 -0.033730403 0.013291981
0001e0 ad 8f df bc b6 48 39 3d 1f 18 b0 bc 6d 1b 2f 3d
       -0.02729019 0.04523536 -0.021495877 0.042750765
0001f0 80 c7 41 3d c6 8d b8 3b 87 fc c5 3c 5d 93 17 3d
       0.0473094 0.005632135 0.024168266 0.03700577
000200 36 b4 56 bd 3d 8d b6 3c 56 e5 74 bd 54 ad 47 bd
       -0.052417956 0.022284145 -0.059789024 -0.048749283
000210 32 9d 42 3d d4 0b 52 bd b8 2e c3 bc e4 be dc bb
       0.047513194 -0.05128081 -0.023825988 -0.006736623
000220 4a e8 99 3c 90 cd 81 3c 43 6a d9 bc 00 e5 9b 3c
       0.018787522 0.01584509 -0.026539927 0.019030094
000230 63 77 92 3c bd b5 34 bc b2 c8 ce 3c 29 bc 48 bd
       0.017879194 -0.011029658 0.025242183 -0.04900757
000240 10 31 a2 3b e9 fd 47 bd b4 35 c1 39 b7 58 b3 3c
       0.0049496964 -0.048826132 0.0003685184 0.021892888
000250 9a 52 24 bd 82 d8 eb 3c 83 f0 3f bd 4c 6c b5 bc
       -0.040117837 0.028789762 -0.04686023 -0.022146367
000260 f2 2f 25 bc af ef 39 3d 29 41 1b bd f3 38 0a bd
       -0.010082232 0.045394596 -0.03790394 -0.033745717
000270 0f 7c 2c 3d 4b b9 6a bd c0 a1 e9 bc 3a 3e 95 bc
       0.0421105 -0.057305615 -0.028519511 -0.018218148
000280 c7 aa d2 3b 8a fd c4 bc 70 1b 11 bd e0 ab 74 3d
       0.0064290497 -0.024046678 -0.035426557 0.059734225
000290 06 27 9c 3c d3 f7 4c bd 1f 3e 45 bd 44 02 f3 3a
       0.019061577 -0.05004103 -0.048154946 0.0018540104
0002a0 8b e5 31 3c 49 5d 72 bd e7 94 0f bb 8a b2 cc bb
       0.01085795 -0.059170995 -0.002190882 -0.0062468695
0002b0 b6 27 1f 3d 1b db 2f bd e7 6f 6c bd fa fa f1 3c
       0.03885623 -0.042933565 -0.057723906 0.02953862
0002c0 1f 75 46 3c ea 5f 71 bc 2b c4 d7 bc d4 ae fd bb
       0.012112885 -0.01473234 -0.026338657 -0.0077417884
0002d0 67 46 78 bd 5a 2d 26 bc 7c ac 0c bc 2f cc 1b 3d
       -0.060614016 -0.010142649 -0.008586045 0.03803652
0002e0 77 81 23 3d 52 3b c0 3c db 98 51 bd e8 61 ea bc
       0.03991839 0.023465786 -0.051171165 -0.028611138
0002f0 6c c1 20 3d 28 ce ae 3c 0e f6 c7 bc f9 a9 51 bc
       0.03924696 0.021338537 -0.02440932 -0.012796872
000300 b3 da 5e 3d 3e ae 60 3d cc 8b e8 3c 04 ea 38 bd
       0.054407787 0.05485367 0.028386973 -0.04514505
000310 5c 29 b8 3c f0 99 dd bb 52 a0 1a 3d 24 ac 39 bd
       0.02248066 -0.0067627355 0.03775055 -0.04533018
000320 2e 95 e7 3c b5 13 bd 3c 35 44 f8 3c 69 f9 18 3d
       0.028269377 0.023080686 0.030305961 0.03734723
000330 21 b5 13 3c b7 de 48 bd de 7a 9b 3c 8d b7 d9 3c
       0.009015352 -0.049040522 0.018979486 0.026576782
000340 d5 a0 b1 bb 23 7f 1e 3d 76 0c 28 bd 15 08 65 bd
       -0.005420784 0.038695466 -0.04102751 -0.05591591
000350 5b d4 be ba cb d8 5c bc 6c c5 47 bb c5 f1 8e 3c
       -0.0014559136 -0.013479422 -0.0030482663 0.01744927
000360 0a 3a c4 bc a1 e8 a7 bb 76 ce 1d 3d f5 42 3b 3d
       -0.023953456 -0.005124167 0.038526975 0.045718152
000370 ff 2b 39 bd 1f d5 2d 3d d6 aa 3a bd bd a5 5d 3c
       -0.045207974 0.042439576 -0.045573078 0.013528285
000380 a1 d8 9c 3c a3 60 7a 3d dd 67 47 bd 26 2b 24 3d
       0.019146265 0.061127316 -0.048683036 0.040080212
000390 a7 09 37 bd cf ba 9a bb 86 af 7c 3c 9e b8 17 bd
       -0.04468694 -0.0047219764 0.015422707 -0.0370413
0003a0 3b b5 5e bd 6e d8 f5 bc 6b 14 be 3c d2 57 d3 bb
       -0.054372054 -0.030010428 0.023203095 -0.006449678
0003b0 af f1 47 bd 89 ee 44 bd d0 34 30 bd 52 a0 86 3b
       -0.04881447 -0.048079047 -0.043019116 0.004108467
0003c0 1d 27 2d 3c 92 48 05 3d ae 10 c3 3c 06 b2 1f 3d
       0.010568407 0.03253991 0.023811664 0.038988136
0003d0 4e a3 13 bd 77 8a 4b bd 43 a5 01 3d d1 7f 8d 3c
       -0.03604441 -0.049692597 0.031651746 0.017272862
0003e0 33 0b 8b 3b e2 46 76 bd af fc aa bc a0 2d d3 bb
       0.0042432784 -0.060126193 -0.020872442 -0.006444648
0003f0 88 01 62 3d 7b e2 56 3d 47 d5 f3 bc 01 b6 7e 3b
       0.05517724 0.052462082 -0.029764785 0.0038865807

conv3.0.bias f4 [64]
000000 6f 8b 56 bd e8 fc 0d bd 30 ff 20 3d 0a 7f 82 3c
       -0.052379068 -0.03466502 0.039305866 0.015929718
000010 8f 95 42 3d 22 93 ab 3c 5b ed 87 bd 63 06 25 bb
       0.04750591 0.020944182 -0.06637069 -0.0025180809
000020 8a d4 32 bb c4 65 d4 3c 9d 81 56 3b f3 4c 4c 3c
       -0.0027287328 0.025927432 0.0032731064 0.012469518
000030 42 94 1e 3c 37 17 b7 bc 2f 73 9e bb 05 d2 86 3d
       0.009678902 -0.022349937 -0.0048355083 0.06583027
000040 f4 84 cd 3b 4d 2d 83 bd d3 32 cc 3a e2 67 d0 3a
       0.0062719528 -0.06405125 0.0015579112 0.00159001
000050 10 ba e0 bc 70 66 c5 bc 0e 3a 4a 3d d3 e4 3f 3c
       -0.027432472 -0.024096698 0.04937177 0.011712271
000060 f3 77 b4 3c 5a 7b 97 3c 8b 8e 45 3d c9 b0 b8 bc
       0.022029852 0.018491436 0.048231643 -0.022545235
000070 9f 66 af 3c 75 8f 0e 3d 86 0f 4e 3d d6 ee f1 3c
       0.021411238 0.03480478 0.050307773 0.029532831
000080 d6 cb bb 3c 18 54 80 3c 86 7b 90 3b 93 d1 3d 3d
       0.022924345 0.015665099 0.0044092564 0.046342444
000090 1e cf 3f bd 8e fc bd bd 94 4e bd bb e8 80 2a 3c
       -0.04682838 -0.092766866 -0.0057771895 0.01040671
0000a0 b1 82 73 3d 0c b1 18 3b 99 af 1a 3d f4 cd 96 3c
       0.05945081 0.0023298888 0.03776512 0.018408753
0000b0 8b 2c 3c 3d 64 93 b8 bc e2 0e 9f bc 0c 7f 7e bb
       0.045940917 -0.022531219 -0.019416276 -0.003883305
0000c0 29 50 33 bc 4e e4 ba 3b cb 31 53 3c 3e 69 b2 bc
       -0.010944405 0.0057034856 0.01289029 -0.021778699
0000d0 60 cf 31 3d a4 ca d5 bb ba a2 fd bc 49 0d 84 bc
       0.04341066 -0.006524401 -0.030961383 -0.016119616
0000e0 16 f1 63 3d b8 56 7c ba 59 b6 8b 3d 4b 4c 0a 3b
       0.05564984 -0.0009625959 0.068218894 0.0021102603
0000f0 ad 05 99 3c ad 61 08 bd e5 24 2a 3d 7f 6d 7d 3c
       0.018679464 -0.033296276 0.04153909 0.015468

conv4.0.weight f4 [128, 64, 3, 3]
000000 60 81 29 3d 53 17 17 3d a7 be a0 3a 84 4c aa bb
       0.041383147 0.036887478 0.001226385 -0.0051971097
000010 9f 64 0e 3d e0 b0 06 3d ea 60 16 bd 89 33 28 3d
       0.03476393 0.032883525 -0.03671352 0.041064773
000020 c1 a4 af bc 54 3d 1a bc bc 72 92 bc a7 8d a6 bc
       -0.021440865 -0.009414036 -0.017876975 -0.020331217
000030 3b c2 2e bc 9a 87 c9 bc 79 d6 03 3d 3b 76 32 3c
       -0.010666425 -0.024600793 0.03218696 0.010892446
000040 1f 6f 28 3d 0f 2a 17 bd 21 d9 2a bd 66 5d fc bc
       0.0411216 -0.036905345 -0.041710977 -0.030806255
000050 8b 26 91 3c 79 61 a7 bc 40 32 19 3d c6 98 27 bd
       0.017718574 -0.02043222 0.037401438 -0.04091718
000060 77 6d 63 bc 7b 1d e6 ba 63 80 30 3b c8 d2 5c 3c
       -0.013881079 -0.0017556393 0.0026931993 0.013477989
000070 7c 09 90 bc 5e 10 44 3c f1 75 99 3c 2c b6 a6 bb
       -0.017582648 0.011966793 0.018732997 -0.0050876345
000080 a8 af 81 bc 84 0d 18 bc 03 d6 dd 3c d9 ec ce 3c
       -0.01583083 -0.009280566 0.027079588 0.025259422
000090 fe 76 ef bc 01 b7 62 3c 63 93 31 3c a5 0a 15 3b
       -0.029231545 0.013837577 0.010838362 0.002274194
0000a0 cf e5 05 bd 1b d7 83 bc f3 5c 64 3d 02 6b 44 3d
       -0.032689866 -0.016093781 0.055752706 0.047953613
0000b0 f4 93 9f ba 09 72 11 3d 44 7b 58 bc 21 45 8f bc
       -0.0012174831 0.035509143 -0.013212983 -0.017489018
0000c0 ba b2 1e 3d 24 e3 a3 3c 25 e9 2f 3d 2d 13 06 3d
       0.038744666 0.02000577 0.042946953 0.03273313
0000d0 73 22 22 3c 35 a7 2f 3d eb 89 80 3c da 19 b0 3b
       0.009895909 0.04288407 0.015690764 0.0053741755
0000e0 2c 23 b8 39 2e e3 bd bc 1f 3f 04 3d 57 2a 43 3d
       0.0003512142 -0.023179617 0.03228676 0.0476478
0000f0 b1 56 2f 3d 36 74 ff 3c 50 59 53 bc 4f 71 43 bd
       0.042807285 0.031183343 -0.012899712 -0.04771548
000100 7b 9b 60 bb 5d 29 58 bd c3 f0 0f 3d 17 06 e3 3c
       -0.003427236 -0.052773822 0.035141718 0.027712865
000110 85 f9 1b 3c ac c8 a2 3c cb c8 05 bd 5e 53 1b 3d
       0.009519939 0.019871078 -0.032662194 0.037921302
000120 b2 eb 57 bd a2 ab c9 bc 62 32 6c bd f9 80 72 bc
       -0.05271501 -0.024617974 -0.057665236 -0.014801257
000130 60 49 a7 bc a6 5d 26 3d 2f 94 32 3d 0c 33 ad bc
       -0.02042073 0.040616654 0.04359835 -0.021142505
000140 ee ab 0d bd f3 88 db 3c f7 9a e6 3c 38 cd d0 3c
       -0.034587793 0.0267987 0.028150065 0.02548848
000150 46 e4 9e bc 43 c6 2f 3d 26 5b 7d bc 8b 7b 0a 3d
       -0.019395959 0.042913686 -0.015463626 0.033809226
000160 7c 08 b7 3b fb 30 51 3c dd bc 57 bd c3 5c 66 3c
       0.005585728 0.0127680255 -0.05267035 0.014060202
000170 42 d8 bb 39 89 03 5e 3d a4 cf e5 3c 0f 75 40 3d
       0.00035828544 0.05420259 0.028053112 0.046986636
000180 a6 78 cd ba 43 b1 bc 3c cc be 1c 3d 55 55 97 bc
       -0.0015676215 0.023033744 0.038267896 -0.018473307
000190 85 b2 71 bb 76 65 d1 3b 07 18 8f 3c 13 18 b2 3a
       -0.0036880088 0.006390269 0.017467512 0.0013587497
0001a0 62 78 08 bb 1a c1 43 3d 94 d3 f1 bb f7 7d c5 bc
       -0.0020823707 0.047791578 -0.0073799584 -0.024107916
0001b0 ba e0 91 bc a2 17 f3 bb 6e e2 38 3c f0 aa 8e bc
       -0.017807353 -0.0074185887 0.011284454 -0.017415494
0001c0 0f 75 d8 bc b4 b3 b4 bb f1 5f fb bc d1 bd 60 3c
       -0.026423005 -0.0055145863 -0.030685397 0.013717131
0001d0 f4 3a 84 bb fa 08 90 bc e3 06 89 3c 89 f2 da bc
       -0.004035348 -0.017582405 0.016726917 -0.026726978
0001e0 15 a1 76 bb dc 27 b5 bb d4 ea 0b bd 83 a0 1c 3d
       -0.0037632633 -0.0055284332 -0.034159496 0.038239013
0001f0 fc 37 de bc e8 7c fd 3c 7f 3c 00 3c 49 0f 0a bd
       -0.027126305 0.030943349 0.007826923 -0.033705983
000200 38 df 60 bc 4c d7 a7 bc 30 0d c5 3c dc b8 9f bc
       -0.0137250945 -0.020488404 0.02405414 -0.019497328
000210 87 a0 8d 3a 42 e9 4b 3d c1 31 db 3b 77 c0 09 bd
       0.0010805287 0.049783 0.0066892807 -0.033630814
000220 da dc ff 3c fe 42 0c 3d 1b 2c 1d 3c cd 7b 20 3c
       0.03123324 0.034243576 0.009593035 0.009795141
000230 63 39 a9 3a c4 bf f5 3c d2 5e 14 bd f1 9e 95 bb
       0.0012910779 0.029998668 -0.03622324 -0.0045660664
000240 99 8c ca 3b e6 db f2 3c 48 50 33 3c b4 62 ac 3c
       0.0061813113 0.029645871 0.0109444335 0.021043159
000250 da c1 dd 39 dc a8 6c bc 29 ac 08 3c b8 6b 0a 3d
       0.00042296835 -0.014444556 0.008341827 0.033794135
000260 4e b1 31 3d ae 5d ef 3c b9 24 86 bc d3 f3 c9 bc
       0.04338198 0.029219475 -0.016374933 -0.024652397
000270 be ba 08 3d b9 5b 86 3c 4d b8 9a 3c 9d 05 f4 bc
       0.033381216 0.016401159 0.01888671 -0.029787833
000280 67 2c 4b 3c 77 b2 25 3d b4 32 aa bc a8 e0 8b 3c
       0.012400723 0.0404534 -0.02077613 0.017074898
000290 b7 b9 39 bd 3c 54 da 3c bf 82 bd 3c 20 c0 04 bd
       -0.045343127 0.026651494 0.023133634 -0.032409787
0002a0 e7 a4 31 3d 80 93 9f bb f9 9c d4 3c c0 82 a0 ba
       0.043370154 -0.0048698783 0.025953757 -0.0012245998
0002b0 06 b1 c2 bc 35 64 f6 ba a0 1c fd 3c b6 5f a6 3c
       -0.023766052 -0.0018798175 0.030897439 0.02030931
0002c0 ea e9 ff 3c a3 6f 9a 3c b2 08 02 bd f2 10 9a 3c
       0.031239469 0.01885206 -0.031746574 0.018806908
0002d0 a4 9d 93 3c 73 b5 15 bc 85 a0 3c bd 80 2c 37 3d
       0.018019505 -0.009137499 -0.04605152 0.044720173
0002e0 8b c4 35 3c 65 70 ef bc c9 72 03 3d 99 14 16 bd
       0.011094223 -0.029228399 0.03209189 -0.036640737
0002f0 0a e3 e6 3c 54 a0 00 bd 0c 35 5e bc e2 d3 d6 3c
       0.028184433 -0.0314029 -0.013562452 0.02622408
000300 9b f1 03 bc c9 26 54 3d c9 27 1f 3d 16 3a ae bb
       -0.008053209 0.0517948 0.0388563 -0.005316983
000310 5b 37 94 bc 46 5b b0 3c b6 7a e4 bc 37 78 ba 3b
       -0.018092802 0.021527898 -0.027890544 0.0056906003
000320 d9 0a e1 3b 1c 5b 09 bd df d0 53 bc 55 4d 24 3d
       0.006867748 -0.033534154 -0.012928217 0.040112812
000330 37 8b 53 bc 20 cb 57 bc c9 7e 05 bd e2 a1 6a 3a
       -0.012911609 -0.013170987 -0.032591615 0.0008950514
000340 8c b0 c4 3c 53 91 04 3d 07 dc f5 bc 0f fe a8 3c
       0.024009965 0.032365154 -0.030012144 0.020628957
000350 ea 89 86 bc 2e 72 16 bc f1 96 ab 3c cc f0 81 3c
       -0.016423184 -0.009182496 0.020945998 0.015861891
000360 ff ef 2f 3c 5c 21 19 3b f5 1e 24 3d 05 5e 17 3c
       0.010738372 0.002336583 0.040068585 0.009238725
000370 27 54 03 bd 87 7a 3a 3d 39 2b 0d 3d 66 59 52 3c
       -0.032062676 0.045527007 0.03446505 0.012838697
000380 04 a6 f2 b8 ef 52 0d 3c b8 92 13 bd d1 e2 0b 3d
       -0.00011570382 0.00862573 -0.036028594 0.034151856
000390 bf 5d 96 bc 6f 9e 1d 3d c6 ac 95 bb df 83 d1 bb
       -0.018355248 0.038481172 -0.0045677153 -0.006393894
0003a0 08 be 9d bb 9a 4b e2 bc 2d 13 02 3d 19 3f 31 3c
       -0.0048139133 -0.02762394 0.03175657 0.010818266
0003b0 4f d0 45 bc 91 1f ab 3c 4e 72 c8 3b 2c ad d4 bc
       -0.01207359 0.020889075 0.006117142 -0.025961481
0003c0 94 05 b8 bb 46 23 41 3b f7 76 2b 3d a6 e0 29 3c
       -0.0056158993 0.0029470487 0.0418615 0.010368502
0003d0 bd d6 8a 3c 0e 29 9b bd 23 52 1a bd f8 e8 81 3c
       0.016948098 -0.0757619 -0.037675988 0.015858158
0003e0 fe 02 4c 3b b8 24 08 3d 84 e1 f7 bc 88 2d 26 3d
       0.0031129713 0.033238143 -0.030258901 0.040570766
0003f0 e3 11 b2 bc 31 c8 f4 bb 0c 00 9a bc 13 0d cc bb
       -0.021737045 -0.0074701537 -0.01879885 -0.0062271445

conv4.0.bias f4 [128]
000000 3d f8 bc 3c 28 c2 5f bc c7 69 14 3d a9 bb 82 bc
       0.023067588 -0.01365713 0.03623369 -0.015958624
000010 eb 0f 13 3d be 7d b3 3d 83 a6 80 3a 4c dc 91 bb
       0.035903852 0.08764218 0.0009815249 -0.0044513103
000020 78 96 34 3d 7f c4 0d 3d 85 18 d2 3c f1 2e 87 3c
       0.04408881 0.03461122 0.025646457 0.016501876
000030 d0 6f da 3c bf 0f eb ba bb b8 9c bc 01 90 bd bc
       0.026664644 -0.001793377 -0.019131055 -0.023139955
000040 45 2c 86 3d a6 9a 5f 3d 88 17 45 3d aa 75 27 bc
       0.065514125 0.054590844 0.048118144 -0.010220924
000050 2c 81 15 3d 1f 0f d9 3b d0 04 b6 ba 31 9e f5 3c
       0.03650014 0.006624117 -0.0013886932 0.029982658
000060 a3 c4 5d 3d 29 82 51 bd 1e 77 70 3d 0f 50 e8 bc
       0.054142606 -0.05114952 0.05870735 -0.028358487
000070 d3 76 17 3b 98 dc 41 bd af 15 9c 3b 60 70 87 3d
       0.0023111596 -0.047329515 0.004763327 0.06613231
000080 3d d9 05 3d 73 99 36 3d 2b 90 bf 3b 23 19 71 3b
       0.032677878 0.044579934 0.0058460436 0.0036788664
000090 59 f2 62 bd 63 fe 4e 3c 34 6a 70 3c 4a 9a 7a 3a
       -0.055406902 0.012633893 0.014673758 0.0009559734
0000a0 a0 82 13 bd 55 e4 e4 bb a1 98 b3 3b 26 2c 21 bd
       -0.036013246 -0.006985227 0.0054808413 -0.039348744
0000b0 64 a8 ac 3c da 77 75 bb 8e cf d0 3b d1 1a 86 3d
       0.021076389 -0.003745547 0.0063723987 0.065480836
0000c0 10 81 30 bd e0 d7 86 bc 1e 54 71 3c 0f da 2b bd
       -0.043091834 -0.01646036 0.014729528 -0.041956004
0000d0 10 c4 f6 bc c1 67 de bc 3b ea 30 bd 58 c3 32 3b
       -0.030122787 -0.027149083 -0.04319213 0.0027277078
0000e0 81 8f c8 bc 0a 63 b3 bb 97 e9 03 bb bd ae 78 3d
       -0.02448249 -0.005474453 -0.0020128244 0.06071352
0000f0 27 1b ca 3c 6a c3 23 3d 6d a0 50 bd f9 23 59 bb
       0.02467115 0.039981283 -0.050934244 -0.0033133014
000100 e7 5c 8a 3d 75 45 41 3d 2c 55 8d bc 53 51 63 bd
       0.06756001 0.04718538 -0.017252527 -0.05549748
000110 3a 1f 36 bd 00 d9 76 bc d0 9c ad 3c 56 cf 34 3b
       -0.044463374 -0.015066385 0.021192938 0.0027589402
000120 d7 a6 29 bd 4d fd 24 bc 6f 15 4b bc f1 15 87 3c
       -0.041418876 -0.010070157 -0.012395247 0.016489955
000130 d6 65 45 3d 67 4a 31 3c 24 2a 9b 3d 85 c8 f5 3c
       0.04819282 0.010820962 0.07576397 0.030002842
000140 ee f6 54 3d 61 80 88 3d 0d 3e 1b 3c ad 9d 89 bd
       0.051993303 0.06665111 0.009475243 -0.067195274
000150 1f 15 99 3d aa 18 13 bd 6b c5 0d bd 4b 15 0b bd
       0.07474732 -0.035912193 -0.0346121 -0.033955853
000160 5f d6 78 bb b9 37 27 bd 5c 83 12 3b 46 43 55 3d
       -0.0037969572 -0.040824626 0.0022356128 0.05206611
000170 bf 4f 9d 3c f2 53 07 bd cd 07 5e 3d 08 2f 53 3d
       0.019203065 -0.03303904 0.05420666 0.051558524
000180 0c 39 ab bc ef ff d7 3b 23 4a 84 3d 8d 4d 18 3d
       -0.020901226 0.006591789 0.06459453 0.037183333
000190 b9 23 32 3d fb 9d f8 bc 55 82 99 3c 4a 23 64 bd
       0.0434911 -0.030348768 0.018738905 -0.055697717
0001a0 66 4b 31 3d 5c fe 3d bd 57 6e aa 3c 9d 3d 84 3d
       0.043284796 -0.046385154 0.020804567 0.06457064
0001b0 10 03 09 3c f1 f5 50 3d c4 d7 e9 3c d4 46 80 3d
       0.008362547 0.051015798 0.028545268 0.062635094
0001c0 20 9e b5 bc e7 73 dd bc ec 07 52 3c f6 df 3e 3d
       -0.022170126 -0.027032806 0.012819272 0.046600305
0001d0 93 a6 47 3d 8f 1e 47 3a d7 95 34 3d 4b f0 3e 3d
       0.048742842 0.0007595801 0.04408821 0.04661588
0001e0 79 fa ab bc c6 13 42 3c b4 7e bc 3c 59 6a 70 3d
       -0.020993458 0.011845535 0.023009636 0.05869517
0001f0 a3 a9 d2 bc fd 8e 3e 3d a2 43 01 3c f4 07 67 bc
       -0.025715655 0.046523083 0.00788966 -0.014101017

linear.weight f4 [10, 2560]
000000 73 a0 74 bc d7 18 58 3c 2a c6 01 3c e6 88 33 bc
       -0.014930832 0.013189516 0.007920781 -0.010957932
000010 d0 a4 90 bc 37 c6 d6 bc 30 9f 81 bc 37 39 e4 bc
       -0.017656714 -0.026217563 -0.015822977 -0.027859313
000020 1f 7a b2 bb be 39 6c 3c 69 dd 0e bc 72 c6 f0 3b
       -0.005446687 0.014418064 -0.0087197805 0.0073478753
000030 8c b1 52 3c 74 ed 24 3c 85 e7 f5 3c d0 05 9c 3c
       0.012859713 0.010066379 0.030017624 0.01904574
000040 9c d4 9d bb cf 31 71 3c d7 19 a2 3c a2 31 4f 3c
       -0.004816605 0.014721348 0.019787712 0.012646111
000050 15 7a c8 3c e6 70 43 bc 1f 8b d2 3a 2a 0d 87 3c
       0.024472276 -0.011928773 0.001606319 0.01648577
000060 5f d3 5d bc 21 90 dc 3b 47 e6 ec bb 59 55 1b 3c
       -0.013539164 0.0067310487 -0.0072295996 0.009480798
000070 19 d7 65 3c 5a 82 80 bc 5d 04 09 3b af 07 c2 bc
       0.014028334 -0.015687156 0.0020907142 -0.023685304
000080 c5 5b 73 bc 3c e7 c7 bc 23 54 25 bc 62 f7 35 3c
       -0.0148534225 -0.024402253 -0.010090861 0.011106344
000090 ab 5e 77 3b ba e2 fd 3c 74 ce d5 3c c6 74 0c 3d
       0.0037745635 0.0309919 0.026099421 0.03429105
0000a0 a3 42 62 3c 02 d0 91 3c 70 f4 c4 bc 7c d0 44 3b
       0.013809833 0.017799381 -0.024042338 0.0030031493
0000b0 a9 68 cb 3b 04 13 75 bb 99 9d 95 3b 81 01 f5 3b
       0.006207545 -0.0037395367 0.0045659062 0.007476986
0000c0 dd 76 4a 3c d7 a8 e8 3a 57 05 30 3c 9e 5e cb 3a
       0.012357441 0.0017750514 0.010743461 0.0015515869
0000d0 03 72 a2 bc dd a0 8d bc 2d e7 f6 bb f6 99 90 3b
       -0.019829756 -0.01728862 -0.0075348825 0.004412885
0000e0 53 5c 38 3c 54 11 63 3b 72 81 38 3c 45 b4 1c bb
       0.011252481 0.003464778 0.011261331 -0.002391116
0000f0 32 f4 69 3c 70 0a 8d bb 68 8a 74 3b 5a 92 8c bc
       0.014279412 -0.0043042228 0.0037313942 -0.01715963
000100 01 cd a5 3c 59 44 80 bb 6f ad 8f bc c8 33 18 3c
       0.020239355 -0.0039143977 -0.017538754 0.009289689
000110 2f eb 3b bc 93 cc 03 3c 06 9f b7 3a 18 3b 25 3b
       -0.011469646 0.00804438 0.0014009185 0.0025212225
000120 1b 8b 08 bb b8 5c 28 bc a4 24 ae 3c f9 62 d9 bb
       -0.0020834866 -0.010276012 0.021257706 -0.006634113
000130 d0 17 c7 3c 87 6b 54 bc 4a 2a 3a 3c 27 e0 6a bb
       0.024303347 -0.01296509 0.011362622 -0.0035839172
000140 75 83 3c bc d8 ad d4 bb 16 b8 c3 bc cf 71 5b bc
       -0.011505951 -0.0064904504 -0.02389149 -0.013393833
000150 64 bf 9e bb f7 0a 0a ba 61 3d d0 bc 2f a1 76 bc
       -0.004844593 -0.0005265916 -0.025419893 -0.015053078
000160 86 19 7d bc f4 18 87 bc 31 6c 94 bb 15 fe 7e bc
       -0.01544798 -0.01649139 -0.004529499 -0.015563508
000170 99 15 05 3c 2f ee 67 bc e7 31 95 bc 08 56 6e 3c
       0.008122825 -0.0141559085 -0.018212272 0.014546879
000180 3c 48 96 bc 30 09 8d bc 17 ce 19 bc ae c4 52 b9
       -0.01834499 -0.017216295 -0.009387515 -0.0002010043
000190 2a f4 97 bc b3 df 74 bd 56 e2 4c bd e9 12 40 bd
       -0.018549044 -0.05978365 -0.05002054 -0.046893034
0001a0 4c 4a 93 3b 6e 4d f6 bc 06 2e 52 bc 96 0f 04 3c
       0.004494941 -0.030066218 -0.012828356 0.008060357
0001b0 47 ce 4e bb 00 eb 20 bc 57 ec 24 3c dc 72 d4 3b
       -0.0031556056 -0.009821653 0.010066113 0.006483419
0001c0 ed 87 d1 3b db 06 ce bb d2 b1 4d 3a e0 91 79 bc
       0.0063943774 -0.0062874383 0.00078466267 -0.015232533
0001d0 29 c4 e3 bc ae da 3f bd 7d 80 59 bd 6d 29 25 bd
       -0.027803497 -0.04683941 -0.05310105 -0.04032271
0001e0 a0 22 8b 3b 98 ef f7 3b d7 a0 4f bc 5e b3 47 bb
       0.004246071 0.0075664036 -0.012672625 -0.0030471901
0001f0 b7 9a 03 3c 68 df 01 3c 07 52 55 bc 9b 34 07 3a
       0.008032492 0.007926799 -0.013020045 0.000515768
000200 69 c5 3a 3c cf 80 6f 3c c6 8d a6 3b fa 99 79 bc
       0.011399605 0.014618113 0.0050828187 -0.015234465
000210 17 f8 b0 3c 89 56 03 3b e4 44 89 3c d0 aa 99 3c
       0.021602673 0.0020040593 0.016756482 0.018758208
000220 2b 98 44 bc 5b 37 94 3b 89 b4 e8 ba 54 ab 13 bc
       -0.01199917 0.0045232004 -0.0017753999 -0.009013016
000230 6e 93 5b 3c a2 7f 42 bc de c6 c3 bb b8 e7 f1 ba
       0.013401849 -0.01187125 -0.0059746346 -0.0018455898
000240 d3 17 75 bb 48 6a 5f 3c 3a 5a 62 3c 21 58 2e bc
       -0.0037398234 0.013636179 0.013815457 -0.010641129
000250 12 c3 40 3c 81 27 a0 bc 77 af 22 3c 41 b1 c4 bc
       0.011765258 -0.019550087 0.009929529 -0.024010302
000260 0b 7d 70 bb 3a 6e 6d bc cf 86 2b bb bc ee cd bc
       -0.0036695625 -0.014491612 -0.0026172881 -0.025138251
000270 99 8d af 3c 4b 0b 8c 3c ff 5b 48 3c be 51 0f 3c
       0.021429824 0.017095229 0.012228965 0.008747516
000280 9d 5c 38 bc dd 13 70 3c a6 30 11 bc a1 cb 0d bb
       -0.0112525495 0.014653173 -0.008861696 -0.0021636265
000290 df 69 05 bb d7 95 22 bc ce eb a2 3c 9b 60 84 3c
       -0.0020357294 -0.00992342 0.019887831 0.016159346
0002a0 4b 61 64 3b a9 70 8f bb 78 ed c9 3b 17 d2 8b 3b
       0.003484803 -0.004377444 0.0061623417 0.004266988
0002b0 cd d9 c5 bb 99 94 b4 3b 10 5a 01 3c b0 c7 39 3c
       -0.0060379268 0.0055108783 0.007895008 0.011339113
0002c0 aa d8 95 bb 4a 5c fd bb a4 67 de bc 22 db 61 3b
       -0.0045729475 -0.007731949 -0.02714903 0.0034462889
0002d0 21 dc 80 3c 6a ec f7 3b 44 8f 5e bc a1 d4 23 3c
       0.015729966 0.0075660245 -0.013583962 0.009999425
0002e0 fb e6 89 bb 44 ef 44 3c 80 cb 85 3c d9 bf db bb
       -0.004208443 0.012019936 0.016332388 -0.0067062196
0002f0 88 7f c6 3a 32 29 4b bc db a2 b1 bc 69 60 4a 3b
       0.0015144208 -0.012399958 -0.0216841 0.003088022
000300 3e 57 ae bb 2a 54 74 3c 6f ad 78 bc 42 24 4c 3c
       -0.0053204587 0.014912644 -0.015178069 0.012459816
000310 26 3d 5e 3c dc 17 52 3c 2f 3c d2 3c ee 56 9b 3c
       0.013564384 0.012823071 0.025663463 0.01896235
000320 9f 13 ac 3c bd bf b0 b6 fc 70 a0 3b 01 98 88 3b
       0.02100545 -5.26753e-06 0.0048962813 0.004168511
000330 7e a2 07 bc 95 8f 59 3c 59 bb 5b 3b 3f 7e 87 3c
       -0.008278487 0.0132788615 0.0033528416 0.016539691
000340 84 a5 35 3c d3 86 35 3c b0 72 c4 bc 6d 8d 2a 3c
       0.011086825 0.011079508 -0.023980469 0.010409695
000350 ed 0b 03 3c 4d 15 14 3b df 8c 3d bc 98 80 a1 3b
       0.007998449 0.0022595704 -0.011569231 0.0049286596
000360 3d 98 d1 bc e1 0e 2c bb df d4 95 bc 21 31 2e bb
       -0.025585288 -0.0026253986 -0.018289981 -0.0026579576
000370 f7 d9 32 bc 65 ec 4c bc ee 04 35 3c 99 9e fc bb
       -0.010916225 -0.012507533 0.011048539 -0.007709336
000380 e3 ba de 3b eb 61 b4 3b 68 ce b9 bc f4 eb 47 3c
       0.006797181 0.005504837 -0.02268143 0.012202252
000390 ff 65 0a bc b8 53 cf bc da 48 ca bb d7 d5 0f bc
       -0.008447169 -0.025308475 -0.0061732354 -0.008779011
0003a0 03 c9 fc bc 07 8d c0 b8 8d d3 84 bc 32 0b 9e 3c
       -0.030857569 -9.181542e-05 -0.016214157 0.019292448
0003b0 5e c5 bc 3c 0e 07 6f 3c 3b 2a a4 3c 8e 90 f1 3c
       0.02304333 0.014589084 0.020039668 0.029487874
0003c0 7a 5f 12 bc 3a 37 9d 3c 4d 02 27 3c a3 94 6e 3c
       -0.008933896 0.019191373 0.01019342 0.014561805
0003d0 6b 58 d3 3b da 90 73 3c a4 5d c5 bb d6 6f af 3b
       0.006449749 0.014866078 -0.0060231257 0.005353908
0003e0 fe 9a 17 3b b1 51 cd ba b8 95 b4 bc 5a ce 25 bc
       0.0023133154 -0.0015664605 -0.022044048 -0.010119999
0003f0 e9 59 50 3c a3 98 c4 3b ce b0 95 3b dc 38 ae 3c
       0.012716749 0.005999641 0.004568196 0.021267347

linear.bias f4 [10]
000000 7a 63 9e bb e6 e5 34 bd dc c7 01 3d 81 30 9d 3c
       -0.004833636 -0.04416456 0.03168474 0.019188168
000010 ed a6 4a bd 4f 3a c8 bb 0c f0 2d bd 95 7b 13 bd
       -0.0494756 -0.0061104666 -0.042465255 -0.03600653
000020 b5 1c ab bb cc f8 91 bc
       -0.005221928 -0.01781883
