project/feedforwardnet.pth (torch, 494811 bytes, 10 tensors)

conv1.0.weight f4 [16, 1, 3, 3]
0.20724052 -0.017377187 -0.052101526 0.028823445 -0.19370365 -0.31833968 -0.18153094 -0.24364337
0.09265557 -0.29940647 -0.2539298 -0.26969168 -0.17928773 0.24324141 0.21377395 0.1067575
-0.17942813 0.052395113 0.30992204 -0.021780403 -0.2684583 0.0841738 0.023054628 -0.12089504
0.15809451 0.12974936 -0.17918892 0.17858338 0.17321542 0.034783803 -0.042833306 -0.19603878
-0.11574539 0.23051552 -0.0059116893 0.038097117 -0.087074414 0.33895808 -0.1319445 -0.07618962
0.20828116 0.13068523 -0.24315664 0.09440142 -0.29982626 -0.14950818 -0.22926384 -0.06000179
0.15875828 0.29499418 -0.15974766 0.11989974 -0.117909126 -0.1562768 0.30418983 0.15472142
0.2036613 0.25508326 -0.19227953 0.30331948 0.30721566 -0.31289157 0.28505734 0.12751278
0.09094714 0.06562642 -0.10762642 0.2701323 -0.08577703 0.15728535 -0.14396779 0.011412211
-0.09681766 -0.058626372 -0.19216505 -0.20170765 0.2582176 0.24112707 0.13640083 0.17443028
0.2665624 0.22118653 -0.2749967 -0.00687942 -0.219337 -0.0077165146 0.10570946 0.049589243
0.25591996 0.29373324 -0.02910257 0.19070224 0.1640659 0.28908855 0.15671161 0.2441166
0.1579511 -0.23251034 -0.20090616 -0.24369092 -0.09474071 -0.20358746 -0.071640894 -0.23271939
0.28529033 0.29872632 -0.2514414 -0.15879591 -0.06303576 -0.26161462 -0.04652466 0.15795437
-0.11993949 -0.32219696 0.24794532 -0.31568325 -0.18424533 0.15866329 0.04282956 0.17936647
0.2882529 -0.034265436 0.25837755 -0.1385901 -0.041645326 -0.2579139 0.20496076 -0.026149891
0.06648874 -0.29432285 0.19336127 -0.0184744 0.3020539 0.023963487 0.28782845 0.10622554
0.26239872 0.28160796 -0.027731033 -0.047059078 -0.2999549 0.11698927 0.2635556 -0.061828192
00000000: dc36 543e 9a5a 8ebc 6968 55bd 251f ec3c
00000010: 405a 46be 6bfd a2be 3fe3 39be a67d 79be
00000020: 34c2 bd3d ce4b 99be 1603 82be 0715 8abe
00000030: 3497 37be 4714 793e 8fe7 5a3e ada3 da3d
00000040: 02bc 37be 429c 563d 1aae 9e3e d16c b2bc
00000050: 5e73 89be 5063 ac3d 0fdd bc3c d297 f7bd
00000060: 87e3 213e 04dd 043e 4d7d 37be 90de 363e
00000070: 625f 313e 7679 0e3d fa71 2fbd 64be 48be
00000080: eb0b edbd 430c 6c3e d8b6 c1bb b90b 1c3d
00000090: 1254 b2bd ea8b ad3e 761c 07be 4e09 9cbd
000000a0: a847 553e 59d2 053e 0efe 78be 8855 c13d
000000b0: d482 99be ac18 19be 24c4 6abe 70c4 75bd
000000c0: 8891 223e 7a09 973e e494 23be ff8d f53d
000000d0: 577a f1bd 0707 20be c5be 9b3e 4b6f 1e3e
000000e0: 968c 503e 469a 823e ede4 44be b14c 9b3e
000000f0: 5f4b 9d3e 5333 a0be 09f3 913e b692 023e
00000100: 7e42 ba3d 2567 863d 3e6b dcbd c84e 8a3e
00000110: deab afbd 690f 213e 4b6c 13be 48fa 3a3c
00000120: 5648 c6bd 3522 70bd eac6 44be 738c 4ebe
00000130: 1935 843e 04ea 763e a9ac 0b3e da9d 323e
00000140: de7a 883e b97e 623e 5ecc 8cbe c26c e1bb
00000150: e199 60be d1da fcbb 347e d83d 171e 4b3d
00000160: f107 833e 3464 963e 8368 eebc 7347 433e
00000170: e400 283e 6a03 943e 0279 203e b4f9 793e
00000180: efbd 213e 3117 6ebe 58ba 4dbe 1d8a 79be
00000190: 6b07 c2bd 3b79 50be 76b8 92bd fe4d 6ebe
000001a0: 9311 923e a8f2 983e edbc 80be 659b 22be
000001b0: e418 81bd 5af2 85be a490 3ebd cabe 213e
000001c0: d6a2 f5bd 00f7 a4be 61e5 7d3e 3ca1 a1be
000001d0: cfaa 3cbe a178 223e 0c6e 2f3d d8ab 373e
000001e0: e295 933e ea59 0cbd 104a 843e 90ea 0dbe
000001f0: 4a94 2abd 4a0d 84be 3ce1 513e 4c38 d6bc
00000200: 402b 883d 7cb1 96be 7f00 463e a057 97bc
00000210: cfa6 9a3e 134f c43c 405e 933e c78c d93d
00000220: 2059 863e eb2e 903e 312c e3bc 05c1 40bd
00000230: b093 99be 1298 ef3d c2f0 863e 8f3f 7dbd

conv1.0.bias f4 [16]
-0.06634617 -0.23741636 -0.24929743 0.12100444 0.35186693 -0.20972298 0.07731498 0.24385215
0.22110124 0.029467164 0.17174731 0.33745137 -0.059504416 -0.23733167 0.3004451 0.020728141
00000000: 80e0 87bd 461d 73be d347 7fbe 2dd1 f73d
00000010: e727 b43e 9fc1 56be 5157 9e3d 61b4 793e
00000020: 5d68 623e 1f65 f13c 87de 2f3e 6dc6 ac3e
00000030: e7ba 73bd 1307 73be f1d3 993e 10ce a93c

conv2.0.weight f4 [32, 16, 3, 3]
0.02749057 0.057487275 -0.046198376 0.03512032 -0.072872564 0.03923896 0.021066673 -0.016872834
-0.03362979 0.00507697 0.004859566 -0.048841912 0.052133024 -0.0043960693 0.076115325 0.080673635
0.07671487 0.05801806 0.042932756 0.013414969 0.047944117 -0.050333582 0.06437628 -0.048351243
-0.02199147 -0.08141835 0.02331841 -0.024275651 0.02329648 0.08047971 0.06931797 -0.023331821
-0.023353184 -0.00302724 0.06754769 0.043007538 -0.022341864 0.06375077 0.053401098 0.07639439
0.038202565 0.052852478 0.049833257 -0.03266815 -0.021618528 -0.0017800169 -0.0036218644 -0.08779435
0.08297368 0.009106734 0.041782204 -0.00933151 0.006655809 0.046215687 -0.014614991 0.06084505
0.022282757 0.027831865 -0.021879293 0.07468623 0.06590885 -0.006337397 0.04528241 -0.020373357
0.041998327 -0.053190917 -0.056289535 -0.069751196 0.008227142 -0.07452776 0.00079701917 0.047345355
0.045392796 0.01971905 0.009878941 -0.0023928953 0.08663837 -0.047835324 0.04220079 0.04551905
0.068756655 0.079716615 0.016993033 -0.031166693 -0.02077164 0.039177917 -0.03785329 0.07428942
0.03764003 -0.03530024 0.047833525 0.07126613 -0.031196585 -0.008039957 -0.028839672 0.053765774
0.006776765 -0.06975926 0.06642732 -0.053103924 0.05173479 -0.019452145 -0.03216749 -0.02796288
0.023752516 -0.057877164 0.08337659 -0.07603586 -0.07824928 0.009415829 -0.06978672 -0.013121015
0.061578423 0.053632967 -0.051050708 -0.04977619 0.009220907 0.07483728 -0.015310702 0.042149577
-0.05638327 0.031287186 0.061402876 -0.061007954 -0.045308344 0.026998473 0.0045643095 0.0070633446
-0.022184514 0.063141674 -0.073115036 0.060832776 -0.03605037 0.00866706 0.01895346 -0.051248755
0.036925238 -0.07665025 0.011349274 -0.083241776 -0.0013291369 0.07617589 0.029398203 0.06568266
0.0060527315 -0.072653055 0.02142569 -0.032584865 0.008978317 0.00020524133 -0.0853724 -0.016312307
-0.0411638 0.06334076 -0.029788647 0.04266858 -0.041984152 0.07659721 -0.033281732 0.05314506
0.047096796 -0.026046896 0.020387458 0.05460649 0.057595935 0.016797528 0.018620875 -0.0331703
-0.022687886 0.06559988 -0.08014302 -0.07641312 -0.07738833 -0.022776023 0.04308037 0.02167543
0.037960105 -0.08193965 0.006025245 -0.0828583 0.07060027 -0.04335855 -0.03167341 0.057441197
0.07336318 -0.051050738 -0.05862597 0.037997793 0.06959869 -0.055845693 0.004463511 0.06424962
-0.012442311 -0.02844504 -0.045102466 -0.055404928 -0.015931228 0.058520272 0.0009351011 0.07193133
0.03591853 0.053540926 -0.0021919992 0.013442465 -0.031925697 -0.030548498 -0.06308785 0.0030373083
-0.06894512 -0.06568606 0.055939723 0.061544124 -0.025796907 0.080433354 -0.034425244 -0.028452596
-0.013560306 0.051286228 -0.035692804 0.015069615 0.034614116 0.010919035 -0.02841956 -0.018861746
0.032396156 0.04613915 0.069456235 -0.005353188 -0.061104435 0.05097868 0.0738411 -0.042490922
0.07256243 -0.03685576 -0.003648823 -0.006403048 0.001954831 0.038294513 -0.048606362 0.05116306
-0.023921097 -0.038389627 -0.00779895 -0.008407513 0.033282954 0.05551459 -0.0035399094 0.073596634
-0.016134359 0.052935883 -0.07918894 -0.048423797 -0.0074895634 0.07664243 -0.07050217 0.032211304
00000000: e733 e13c c777 6b3d 823a 3dbd 53da 0f3d
00000010: 363e 95bd 08b9 203d 0494 ac3c e638 8abc
00000020: 64bf 09bd b65c a63b ff3c 9f3b 750e 48bd
00000030: 7089 553d e70c 90bb 5ae2 9b3d 3838 a53d
00000040: b01c 9d3d 58a4 6d3d 42da 2f3d 75ca 5b3c
00000050: 0d61 443d 962a 4ebd b6d7 833d f40b 46bd
00000060: 7527 b4bc aabe a6bd 4006 bf3c bbdd c6bc
00000070: 42d8 be3c 8cd2 a43d 94f6 8d3d 6022 bfbc
00000080: 2d4f bfbc a964 46bb 7156 8a3d ac28 303d
00000090: 4906 b7bc c48f 823d 1cbb 5a3d a974 9c3d
000000a0: 4b7a 1c3d d77b 583d f51d 4c3d 0acf 05bd
000000b0: 5719 b1bc 754f e9ba cd5c 6dbb 86cd b3bd
000000c0: 1bee a93d 6934 153c d123 2b3d 31e3 18bc
000000d0: f918 da3b a94c 3d3d b773 6fbc a938 793d
000000e0: 548a b63c a7ff e33c 343c b3bc 18f5 983d
000000f0: 38fb 863d f0a9 cfbb 0c7a 393d 07e6 a6bc
00000100: 7006 2c3d b8de 59bd db8f 66bd b7d9 8ebd
00000110: 22cb 063c 03a2 98bd 0def 503a 34ed 413d
00000120: cced 393d d889 a13c 48db 213c 1fd2 1cbb
00000130: 756f b13d f9ee 43bd bcda 2c3d 2f72 3a3d
00000140: 4ad0 8c3d 7742 a33d f934 8b3c 4b51 ffbc
00000150: 4929 aabc 0679 203d 0d0c 1bbd 0d25 983d
00000160: 6f2c 1a3d fc96 10bd 16ed 433d faf3 913d
00000170: fb8f ffbc 06ba 03bc 2d41 ecbc 8039 5c3d
00000180: a00f de3b f1dd 8ebd 0c0b 883d 8083 59bd
00000190: dce7 533d 1b5a 9fbc 0fc2 03bd 6912 e5bc
000001a0: a394 c23c 9b10 6dbd 58c1 aa3d b0b8 9bbd
000001b0: 2941 a0bd d944 1a3c 57ec 8ebd 87f9 56bc
000001c0: a839 7c3d 3eae 5b3d 8c1a 51bd 1ee2 4bbd
000001d0: 4a13 173c 4a44 993d bdd9 7abc 09a5 2c3d
000001e0: 25f2 66bd fe26 003d 9581 7b3d 7ae3 79bd
000001f0: 3e95 39bd e72b dd3c 3490 953b a173 e73b
00000200: 4cbc b5bc 6c50 813d 56bd 95bd ca2b 793d
00000210: 8ea9 13bd 4900 0e3c 4944 9b3c 37ea 51bd
00000220: eb3e 173d cefa 9cbd 4ef2 393c aa7a aabd
00000230: 6f36 aeba 1b02 9c3d 80d4 f03c a184 863d
00000240: fe55 c63b 20cb 94bd ee84 af3c b577 05bd
00000250: ca19 133c 0d36 5739 bad7 aebd 63a1 85bc
00000260: 5f9b 28bd cdb8 813d 5207 f4bc 40c5 2e3d
00000270: 93f7 2bbd ffde 9c3d 6d52 08bd a2ae 593d
00000280: 92e8 403d 4d60 d5bc 9903 a73c 0eab 5f3d
00000290: b7e9 6b3d f89a 893c ce8a 983c 95dd 07bd
000002a0: f2db b9bc 3b59 863d 0622 a4bd 7b7e 9cbd
000002b0: c67d 9ebd c894 babc 0b75 303d ac90 b13c
000002c0: 0e7c 1b3d facf a7bd 6b6f c53b 9db1 a9bd
000002d0: e096 903d bc98 31bd fabb 01bd 7647 6b3d
000002e0: 6f3f 963d 941a 51bd c921 70bd 93a3 1b3d
000002f0: c289 8e3d 74be 64bd a542 923b 4e95 833d
00000300: d6da 4bbc 9305 e9bc 5dbd 38bd 47f0 62bd
00000310: 3582 82bc f4b2 6f3d 9321 753a bc50 933d
00000320: 4f1f 133d bb4d 5b3d a5a7 0fbb c93d 5c3c
00000330: 85c4 02bd d840 fabc 3434 81bd 940d 473b
00000340: 1933 8dbd 6a86 86bd 0d21 653d b115 7c3d
00000350: 0954 d3bc 3eba a43d 7c01 0dbd 6b15 e9bc
00000360: 0c2c 5ebc 8211 523d 9e32 12bd 8ce6 763c
00000370: 88c7 0d3d c1e5 323c 23d0 e8bc f383 9abc
00000380: d5b1 043d 68fc 3c3d 123f 8e3d cc69 afbb
00000390: a548 7abd 05cf 503d 013a 973d f60a 2ebd
000003a0: 9c9b 943d 11f6 16bd 1721 6fbb a9d0 d1bb
000003b0: 9f1c 003b b5da 1c3d 7717 47bd 5b90 513d
000003c0: 2df6 c3bc 713e 1dbd 568e ffbb aabf 09bc
000003d0: b553 083d 4463 633d d3fd 67bb d5b9 963d
000003e0: 342c 84bc 4cd3 583d d02d a2bd 0858 46bd
000003f0: 036b f5bb b5f6 9c3d 7163 90bd 00f0 033d

conv2.0.bias f4 [32]
0.05397217 -0.08409253 -0.017480465 -0.093452446 -0.079048395 -0.048212912 -0.020768361 0.0138884615
0.026174469 0.07865556 0.009279089 0.022499297 -0.01691695 -0.085017905 0.041795906 0.047408655
-0.054477733 0.102330305 -0.07078879 0.041474972 0.043645643 0.090545245 -0.05200194 0.041077513
-0.07912806 0.050218634 -0.053624563 0.10795223 -0.10605763 0.07977869 -0.0069675697 0.063051246
00000000: ec11 5d3d b438 acbd 3133 8fbc ff63 bfbd
00000010: 20e4 a1bd e77a 45bd 6922 aabc 6e8c 633c
00000020: d76b d63c 2b16 a13d 5207 183c 7250 b83c
00000030: 6a95 8abc de1d aebd 2f32 2b3d 942f 423d
00000040: 0b24 5fbd 8d92 d13d b7f9 90bd a9e1 293d
00000050: c6c5 323d c96f b93d fcff 54bd e540 283d
00000060: e40d a2bd 0eb2 4d3d 6ea5 5bbd 0f16 dd3d
00000070: be34 d9bd 0363 a33d 3650 e4bb 0321 813d

conv3.0.weight f4 [64, 32, 3, 3]
-0.017575732 0.02962825 -0.014408249 0.0022028736 0.0136109125 0.03403973 0.0113118645 -0.026925335
0.05836517 0.017114861 -0.00042800664 0.031156095 -0.05869808 0.041772768 0.04947963 0.04889997
-0.010688682 -0.008084955 -0.022028135 -0.012770265 0.027013205 -0.024025863 0.01201917 0.05678612
-0.04198347 -0.0522288 0.01400647 -0.05270845 -0.026736343 -0.038285736 0.001990737 -0.029944085
-0.015709588 0.042582687 0.014509131 -0.0076509444 -0.06367271 -0.027587727 -0.020989398 0.057729926
0.0026930775 0.04251804 0.006861807 0.022120105 0.047037754 0.010009285 -0.020952983 -0.028338386
-0.033810876 -0.040923614 0.0024139509 0.008442112 -0.051204976 0.014997926 0.031141616 -0.0525495
0.029943995 -0.021982247 0.009692896 -0.030168153 -0.04665256 -0.035338502 0.02212452 -0.04986493
-0.00028887126 0.054021627 -0.042826626 0.009051054 0.03497915 0.03941203 -0.009575004 0.022754246
-0.007698125 -0.04553042 0.002377956 0.040492427 -0.0297675 0.029537912 -0.047594134 0.0016853305
0.05220376 -0.050555263 -0.026561812 0.0022285949 0.019232778 -0.021957286 0.0589626 0.023418637
0.027192352 0.013671979 0.019630643 -0.0028594045 -0.024238773 0.0146764135 0.03182158 -0.006826999
0.020786228 -0.012149268 0.03020213 0.05416815 -0.057224378 -0.054044917 -0.0428851 0.007432588
-0.050861746 0.006631172 0.006393447 -0.021004304 -0.017359562 0.030554226 0.061946645 -0.02223403
-0.0044070086 0.031136256 0.042854063 -0.056236066 -0.041140508 -0.0569434 -0.046393763 0.050097685
-0.0033184118 -0.011643 0.035018772 -0.0549396 0.018716935 -0.022639364 0.023785887 0.047387835
-0.011912526 0.06293333 0.056185793 -0.048468407 0.00883386 -0.03650028 -0.012015297 -0.0013713564
-0.02463612 0.05157339 0.03911606 -0.038338453 0.047217075 -0.021983027 0.017384034 0.024314635
0.043296374 -0.048507027 0.024450136 0.041910265 0.006617863 0.03191777 0.046523776 -0.03196871
0.023703301 -0.03179863 0.0026991395 0.03952044 0.008727269 -0.030981285 -0.031730566 -0.014877393
0.00019423508 0.054598562 0.04060691 -0.017277887 0.020038055 -0.050676983 0.019007558 -0.048566524
-0.03558312 -0.013365166 0.03305369 -0.023665346 0.048639674 0.04686266 0.03733558 0.039337795
-0.027813552 0.044251613 0.022486556 0.034206927 -0.028238827 0.0203511 -0.004316343 0.05397519
0.009669121 0.008331896 0.036577106 -0.0053847022 0.0041619777 -0.019741664 -0.0174185 0.004850053
0.04477742 0.025853937 -0.0097663235 -0.024584653 -0.056227654 0.03642835 0.05311196 -0.05595535
-0.029791923 -0.04146221 0.039057054 -0.017759014 0.034810502 -0.03854162 -0.058136337 -0.041402265
-0.031439714 -0.04970579 0.05859066 0.0035402295 -0.032599837 0.022007842 0.042627037 0.057581972
0.009533818 -0.03791506 -0.0026982713 -0.014974603 -0.005483452 0.0010377578 -0.057995547 -0.0013899026
0.028753892 0.066074535 0.04084109 -0.04552945 -0.030751612 0.029780203 0.004995992 -0.022622276
0.009771647 0.044827357 0.010944499 0.03715919 0.021332383 -0.024838785 -0.05132237 -0.011837904
-0.004189996 0.00823415 -0.008018174 0.00015186211 0.04682161 -0.043556128 0.009674244 0.009821942
0.05456287 -0.04088925 -0.05648167 0.039618876 -0.05263165 0.03237469 0.06374111 -0.0490951
00000000: fbfa 8fbc f2b6 f23c 9410 6cbc 165e 103b
00000010: 4e00 5f3c 3e6d 0b3d 6655 393c 8592 dcbc
00000020: 5110 6f3d 7734 8c3c 1466 e0b9 113b ff3c
00000030: 666d 70bd ec19 2b3d 27ab 4a3d 564b 483d
00000040: 951f 2fbc c276 04bc 5974 b4bc 603a 51bc
00000050: cc4a dd3c e3d1 c4bc 0eec 443c 9098 683d
00000060: dcf6 2bbd deed 55bd 657b 653c d1e4 57bd
00000070: 2d06 dbbc 81d1 1cbd 0677 023b 4c4d f5bc
00000080: 65b1 80bc 2f6b 2e3d b5b7 6d3c c6b4 fabb
00000090: d666 82bd a8ff e1bc f5f1 abbc 3776 6c3d
000000a0: 587e 303b 6527 2e3d 02d9 e03b 3935 b53c
000000b0: a9aa 403d fcfd 233c 97a5 abbc e725 e8bc
000000c0: 467d 0abd 859f 27bd 6033 1e3b c950 0a3c
000000d0: 4fbc 51bd dcb9 753c b41c ff3c 253e 57bd
000000e0: 1c4d f53c 1d14 b4bc f4ce 1e3c 3423 f7bc
000000f0: c116 3fbd 1bbf 10bd 7b3e b53c 2b3f 4cbd
00000100: a573 97b9 c845 5d3d f96a 2fbd df4a 143c
00000110: 4c46 0f3d 826e 213d 7ae0 1cbc 1d67 ba3c
00000120: 8e40 fcbb 1b7e 3abd 7bd7 1b3b 63db 253d
00000130: f9da f3bc 7ef9 f13c 11f2 42bd 4fe6 dc3a
00000140: 9cd3 553d 0913 4fbd 2898 d9bc 9e0d 123b
00000150: 0f8e 9d3c c4df b3bc c482 713d 71d8 bf3c
00000160: 7fc2 de3c 7000 603c 71d0 a03c d964 3bbb
00000170: 6490 c6bc 5775 703c 5857 023d 05b5 dfbb
00000180: e147 aa3c b90d 47bc 756a f73c 6cdf 5d3d
00000190: 1c64 6abd 345e 5dbd 49a8 2fbd 118d f33b
000001a0: 6854 50bd 4d4a d93b 1f80 d13b 3811 acbc
000001b0: a435 8ebc db4c fa3c c4bb 7d3d 2424 b6bc
000001c0: ab68 90bb 7611 ff3c be87 2f3d ca57 66bd
000001d0: f382 28bd 7c3d 69bd 6307 3ebd 3b33 4d3d
000001e0: b679 59bb 48c2 3ebc d86f 0f3d 5908 61bd
000001f0: 4254 993c 3076 b9bc 9fda c23c bf19 423d
00000200: c12c 43bc 31e3 803d 1323 663d cf86 46bd
00000210: e5bb 103c 5181 15bd cfdb 44bc 16bf b3ba
00000220: b0d1 c9bc 9e3e 533d 2938 203d c808 1dbd
00000230: b166 413d c015 b4bc f668 8e3c 7c2f c73c
00000240: 8a57 313d 4eaf 46bd a74b c83c 19aa 2b3d
00000250: a9da d83b 35bc 023d b78f 3e3d 9ff1 02bd
00000260: 6d2d c23c 483f 02bd 0ce4 303b 2fe0 213d
00000270: d2fc 0e3c 77cc fdbc e9f7 01bd 4fc0 73bc
00000280: 95ab 4b39 bea2 5f3d 6e53 263d 5b8a 8dbc
00000290: d926 a43c ab92 4fbd bdb5 9b3c b1ed 46bd
000002a0: 9bbf 11bd 92f9 5abc 4e63 073d d4dd c1bc
000002b0: 653a 473d 10f3 3f3d 31ed 183d ab20 213d
000002c0: 3fd9 e3bc 2e41 353d ba35 b83c 901c 0c3d
000002d0: 1d55 e7bc 5ab7 a63c 1c70 8dbb 1715 5d3d
000002e0: 3c6b 1e3c 8182 083c e0d1 153d 2872 b0bb
000002f0: 3361 883b 45b9 a1bc 3eb1 8ebc 32ed 9e3b
00000300: 8768 373d a3cb d33c ee02 20bc c165 c9bc
00000310: f84e 66bd e535 153d ed8b 593d 7031 65bd
00000320: 310e f4bc 47d4 29bd 4afa 1f3d 5a7b 91bc
00000330: 7595 0e3d d1dd 1dbd 5e20 6ebd 6c95 29bd
00000340: eec6 00bd 4c98 4bbd c3fc 6f3d 3203 683b
00000350: 6887 05bd ca49 b43c b099 2e3d 13db 6b3d
00000360: bb33 1c3c d24c 1bbd 7bd5 30bb 0a58 75bc
00000370: 88ae b3bb 6005 883a bd8c 6dbd 642d b6ba
00000380: 488d eb3c 1652 873d fd48 273d 177d 3abd
00000390: ceea fbbc 9df5 f33c 6bb5 a33b 5a52 b9bc
000003a0: 4219 203c e49c 373d 8e50 333c 3c34 183d
000003b0: 40c1 ae3c b57a cbbc 6837 52bd c5f3 41bc
000003c0: 3c4c 89bb 87e8 063c a95e 03bc 2d3d 1f39
000003d0: 04c8 3f3d e967 32bd b880 1e3c 36ec 203c
000003e0: 517d 5f3d 7c7b 27bd 5359 67bd 6747 223d
000003f0: 4994 57bd 539b 043d b38a 823d f217 49bd

conv3.0.bias f4 [64]
0.071401685 0.0025225042 -0.06798452 -0.015435471 -0.028099366 0.087562464 -0.056695566 -0.014096579
0.07400756 -0.05236908 -0.0001250667 -0.054468565 -0.078105 0.06243766 0.035225227 -0.023553088
-0.071990065 0.03969213 0.050186306 -0.0406922 0.0905678 -0.0464407 0.046293747 -0.029273642
-0.028283998 0.06032843 -0.052247062 0.060572714 0.028428089 0.061781622 0.052673135 0.049859192
-0.041996066 -0.042650238 0.010617893 0.055892948 -0.07197993 -0.05021556 -0.03603429 0.011010024
-0.021743016 0.06933867 0.057293016 0.07606265 0.07093896 0.05302831 0.0940958 -0.058655147
-0.05274654 0.013702829 -0.017730042 0.060552496 0.063978925 0.047147494 -0.00967614 0.06358919
-0.0041759447 -0.049810886 0.021046953 0.04051249 0.02296077 -0.013414622 0.07549521 0.075861506
00000000: 0c3b 923d 9950 253b 783b 8bbd 0fe5 7cbc
00000010: a430 e6bc f353 b33d 9c39 68bd 56f5 66bc
00000020: 4791 973d f680 56bd 5624 03b9 6e1a 5fbd
00000030: 84f5 9fbd a2be 7f3d 5448 103d 68f2 c0bc
00000040: 876f 93bd 3794 223d 2890 4d3d ddac 26bd
00000050: 9c7b b93d 9a38 3ebd 839e 3d3d 47cf efbc
00000060: d8b3 e7bc f21a 773d 0401 56bd 181b 783d
00000070: 06e2 e83c ba0e 7d3d c9bf 573d 2739 4c3d
00000080: 1104 2cbd 04b2 2ebd acf6 2d3c 01f0 643d
00000090: 376a 93bd d5ae 4dbd b198 13bd 6363 343c
000000a0: 691e b2bc 6f01 8e3d 15ac 6a3d bcc6 9b3d
000000b0: 7248 913d 3734 593d 4cb5 c03d 6140 70bd
000000c0: c20c 58bd d581 603c 983e 91bc e505 783d
000000d0: 6207 833d bb1d 413d ac88 1ebc 0d3b 823d
000000e0: 5dd6 88bb 8006 4cbd a96a ac3c 6df0 253d
000000f0: 3a18 bc3c 01c9 5bbc 3c9d 9a3d 475d 9b3d

conv4.0.weight f4 [128, 64, 3, 3]
0.029519543 0.0100719705 0.023122218 0.012888865 0.03496106 0.034848318 0.020143222 0.018992284
-0.007611241 0.044369143 -0.036053974 -0.04789858 0.016634146 -0.02099771 -0.022476355 0.03553772
-0.010123388 -0.0005558622 0.0031877204 0.020091506 0.049483236 0.0135065615 0.00014466528 -0.008874608
0.028228365 0.012618858 -0.015600114 -0.010602422 -0.02430174 -0.022480045 0.021104334 0.04059769
0.028955279 -0.014721706 0.012339853 -0.0069873435 -0.023615025 0.037549313 0.031828497 0.032151636
0.022221504 -0.031417727 -0.0019437808 0.0044774627 -0.038049642 0.018114893 0.036880594 -0.0460086
0.0038055063 0.029750185 0.03928711 -0.021373983 0.035813205 -0.030229038 0.015280925 -0.0418457
-0.007647085 -0.009297067 0.042807426 -0.033217415 0.028901532 0.020492578 0.016206693 -0.030072303
0.0147344535 0.018021975 0.025195263 -0.009959034 0.0037592235 0.042203255 -0.024349824 0.023347083
0.006250623 0.056700613 -0.02318633 -0.012976862 -0.034413625 -0.012325711 -0.0030323286 0.013140379
0.01659084 0.0030490684 0.036663186 -0.007975035 0.027273346 0.001414405 -0.02047818 0.043448903
-0.0025915205 -0.0120998835 -0.020986501 0.008829198 0.012407818 -0.033157203 -0.02922433 0.019736597
0.042780414 -0.018517504 0.03141328 -0.019256435 0.0040025706 0.0098207565 -0.025012117 0.014894133
-0.0015342088 0.030726528 0.024222553 0.00069697236 -0.03068066 0.00035107555 0.022043593 -0.013661366
-0.021906944 0.0052407086 0.015494164 -0.025401905 -0.03168558 0.032435857 -0.029912712 0.04327685
-0.015544014 -0.0013019359 0.009582694 -0.023787258 0.037172407 -0.025732897 0.009415503 -0.02043077
-0.043108977 0.005061782 -0.019580003 -0.0003075538 -0.006508805 0.03380191 0.032530125 0.022376841
-0.029548174 -0.0037459347 0.0099143125 0.043225355 -0.03980862 -0.016254941 0.037731875 0.005498895
0.022734128 0.0032954668 -0.024661263 0.03220583 0.016217822 -0.00970808 -0.01666674 -0.0068115415
-0.018057588 0.009880269 0.014012288 -0.020039875 0.0029302293 -0.04551589 -0.032753065 -0.027632404
-0.004773132 0.036490746 -0.0227055 0.010026915 0.012336005 0.008009647 -0.013546058 -0.026123453
0.058066037 -0.0032443623 -0.024116905 0.0042324057 -0.039147295 0.03480796 0.0046652276 0.033883523
0.017848115 -0.036489327 0.002914908 0.019400585 0.039950594 -0.024116412 0.0046991617 -0.019857077
0.019355636 0.032471154 0.00073446933 0.026362669 0.05906227 0.026233593 -0.01774238 -0.014655232
-0.03677996 0.034027595 0.009972736 -0.01119777 -0.024803128 0.026732508 0.018692993 0.0089707915
-0.015964936 -0.028533682 -0.041031267 -0.011342958 -0.0010230393 -0.016973857 0.043549675 0.04514315
0.024392912 -0.00829539 0.0068756514 0.0027400164 -0.0076149367 -0.00433183 0.014373643 0.014513626
0.0114436615 -0.008466869 0.008480056 -0.016209194 -0.018685516 -0.026903871 -0.03617346 0.010658985
-0.020622823 -0.03320999 -0.026867036 -0.010066254 0.001311816 0.00581806 0.028829591 0.0121057965
0.022079023 -0.009274098 0.00931877 0.021957494 -0.03870224 -0.031913135 -0.018861176 -0.019223567
-0.03143351 0.01902895 -0.02429365 0.013443336 0.020021351 -0.005398946 -0.026152413 0.021507233
-0.019267201 0.016880803 -0.015280864 0.041056085 -0.002235143 0.00829941 -0.0057745953 0.022300975
00000000: f8d2 f13c e804 253c ce6a bd3c d12b 533c
00000010: 5433 0f3d 1cbd 0e3d 6603 a53c b595 9b3c
00000020: b867 f9bb 6bbc 353d 55ad 13bd 4d31 44bd
00000030: 5544 883c 6403 acbc 5520 b8bc 0090 113d
00000040: 91dc 25bc 48b7 11ba 13e9 503b f196 a43c
00000050: efae 4a3d a04a 5d3c 4ab1 1739 ce66 11bc
00000060: 2c3f e73c 54bf 4e3c 9f97 7fbc c8b5 2dbc
00000070: 7114 c7bc 1228 b8bc ffe2 ac3c c349 263d
00000080: 9f33 ed3c 4f33 71bc 182d 4a3c 16f6 e4bb
00000090: 4c74 c1bc 4fcd 193d 995e 023d 6fb1 033d
000000a0: df09 b63c e0af 00bd 76c6 feba aeb7 923b
000000b0: f1d9 1bbd af65 943c 1b10 173d 8473 3cbd
000000c0: cd65 793b a9b6 f33c 85eb 203d 7e18 afbc
000000d0: deb0 123d e3a2 f7bc d85c 7a3c 6666 2bbd
000000e0: 6694 fabb ba52 18bc d756 2f3d fc0e 08bd
000000f0: e8c2 ec3c 0de0 a73c e6c3 843c 315a f6bc
00000100: c768 713c d2a2 933c 4c66 ce3c 372b 23bc
00000110: 4e5d 763b 52dd 2c3d 4879 c7bc 6242 bf3c
00000120: 07d2 cc3b e73e 683d 42f1 bdbc e79c 54bc
00000130: 4df5 0cbd c7f1 49bc 08ba 46bb bf4a 573c
00000140: 83e9 873c e1d2 473b 232c 163d b9a9 02bc
00000150: 5a6c df3c 8e63 b93a dbc1 a7bc 7af7 313d
00000160: 80d6 29bb 973e 46bc e2eb abbc 57a8 103c
00000170: 294a 4b3c d9cf 07bd dd67 efbc a5ae a13c
00000180: 843a 2f3d 05b2 97bc 36ab 003d acbf 9dbc
00000190: ff27 833b 3de7 203c 36e6 ccbc 8606 743c
000001a0: 8117 c9ba 33b6 fb3c 606e c63c 06b5 363a
000001b0: 0256 fbbc 9010 b839 c494 b43c ecd3 5fbc
000001c0: 3176 b3bc 40ba ab3b 3cdb 7d3c a817 d0bc
000001d0: bdc8 01bd 76db 043d 810b f5bc 1143 313d
000001e0: 52ac 7ebc b8a5 aaba bb00 1d3c 7fdd c2bc
000001f0: 1842 183d cccd d2bc 7b43 1a3c 6e5e a7bc
00000200: 0a93 30bd 4edd a53b 3e66 a0bc 2c3f a1b9
00000210: d047 d5bb df73 0a3d 4f3e 053d a34f b73c
00000220: 030f f2bc 5b7e 75bb a46f 223c 120d 313d
00000230: 5d0e 23bd 1529 85bc bd8c 1a3d 1330 b43b
00000240: ec3c ba3c c2f8 573b 6b06 cabc 43ea 033d
00000250: 3ddb 843c a40e 1fbc b088 88bc 5a33 dfbb
00000260: 82ed 93bc dae0 213c cc93 653c aa2a a4bc
00000270: 1709 403b df6e 3abd 1428 06bd 5a5d e2bc
00000280: ef67 9cbb 5277 153d e200 babc ee47 243c
00000290: f51c 4a3c e53a 033c 49f0 5dbc da00 d6bc
000002a0: a7d6 6d3d 5e9f 54bb d190 c5bc feaf 8a3b
000002b0: ea58 20bd cb92 0e3d c4de 983b 73c9 0a3d
000002c0: 3636 923c d575 15bd 0b08 3f3b faed 9e3c
000002d0: 3ca3 233d c88f c5bc 6dfb 993b 4fab a2bc
000002e0: b68f 9e3c 7900 053d 6789 403a 86f6 d73c
000002f0: 47eb 713d d5e7 d63c 7858 91bc 801c 70bc
00000300: 95a6 16bd 8560 0b3d b064 233c da76 37bc
00000310: ee2f cbbc 22fe da3c 0c22 993c 3afa 123c
00000320: e6c8 82bc 78bf e9bc 6710 28bd d0d7 39bc
00000330: 8117 86ba c20c 8bbc 2561 323d 06e8 383d
00000340: a5d3 c73c 63e9 07bc 254d e13b d991 333b
00000350: b886 f9bb 06f2 8dbb 6e7f 6b3c 8fca 6d3c
00000360: 327e 3b3c 9fb8 0abc efef 0a3c 25c9 84bc
00000370: 5e12 99bc 8265 dcbc 9f2a 14bd 06a3 2e3c
00000380: 32f1 a8bc 3307 08bd 4218 dcbc eeec 24bc
00000390: 3ef1 ab3a 6da5 be3b 092c ec3c 6457 463c
000003a0: 11df b43c 63f2 17bc c1ad 183c 34e0 b33c
000003b0: 3d86 1ebd 59b7 02bd c182 9abc be7a 9dbc
000003c0: 6dc0 00bd 9ae2 9b3c 7a03 c7bc 7041 5c3c
000003d0: d103 a43c a4e9 b0bb 963d d6bc f02f b03c
000003e0: 40d6 9dbc 9c49 8a3c 975c 7abc 6d2a 283d
000003f0: 7a7b 12bb 40fa 073c d138 bdbb 89b0 b63c

conv4.0.bias f4 [128]
0.05376782 0.005276199 0.07163079 -0.030223748 0.037703343 0.05758424 -0.021276891 -0.013785537
0.03407693 -0.012313149 0.03195892 0.04355674 0.07094818 -0.0016053448 0.054157082 -0.028733969
0.05665933 0.02823215 0.038179602 0.07159914 -0.026875487 -0.03961916 0.0032580432 -0.009616396
0.0535193 0.0567546 -0.009697056 0.055739835 0.03826908 0.04871782 -0.0076688 0.054978184
-0.043799043 -0.015523479 0.021015445 0.019507643 0.05755109 0.0074021085 -0.01766067 0.012947124
0.030145895 0.057031445 -0.0015683157 0.047843803 0.057436932 0.06007988 0.044969764 0.0189186
-0.03928182 -0.036362685 0.05453408 -0.051144633 0.011405339 0.05538319 0.06942482 0.053703565
-0.004012398 0.06313375 0.025393693 0.021911925 -0.035735503 0.02830737 0.018031787 0.028608337
-0.0018919796 0.023103265 0.060994882 -0.021851428 -0.01168302 0.061477367 0.0728515 0.050820224
0.014688179 0.06854773 0.05909189 0.011785231 0.06296309 -0.02305227 0.063007034 0.01047124
0.06742816 -0.00057539577 0.011811019 0.061366536 0.0731167 0.0053371447 -0.034923535 0.05634678
-0.020025522 -0.027480219 0.052039742 -0.026108881 0.03687893 -0.035061736 -0.0019781624 -0.015906021
0.062926255 0.005952027 -0.001702675 -0.02865811 0.013451847 0.028325595 0.06264562 0.060279742
0.048200943 -0.044452135 0.06306358 0.040105898 0.07494637 -0.043405425 -0.024007002 -0.004361893
-0.021837654 -0.010086772 -0.044149272 -0.013856357 0.029266238 0.07377204 -0.028853266 0.034623474
-0.038598683 -0.029697157 0.057210173 -0.0018315299 0.0063948883 0.05403408 0.054715667 -0.053020325
00000000: a53b 5c3d f7e3 ac3b 2ab3 923d cb97 f7bc
00000010: d26e 1a3d 74dd 6b3d e04c aebc bcdc 61bc
00000020: 4094 0b3d 17bd 49bc 5be7 023d 8d68 323d
00000030: 484d 913d 6f6a d2ba d1d3 5d3d 8063 ebbc
00000040: 9d13 683d 1c47 e73c 3762 1c3d 92a2 923d
00000050: fb29 dcbc b347 22bd e584 553b 178e 1dbc
00000060: 0e37 5b3d 8377 683d 67e0 1ebc 744f 643d
00000070: 0ac0 1c3d 568c 473d 8f4a fbbb ce30 613d
00000080: a066 33bd 3156 7ebc 9528 ac3c 7ece 9f3c
00000090: b1ba 6b3d 638d f23b 1cad 90bc 2d20 543c
000000a0: 86f4 f63c ce99 693d f18f cdba ddf7 433d
000000b0: fd42 6b3d 5216 763d 3732 383d 2efb 9a3c
000000c0: f9e5 20bd 0af1 14bd 215f 5f3d 097d 51bd
000000d0: 76dd 3a3c 7cd9 623d 9a2e 8e3d 45f8 5b3d
000000e0: 6f7a 83bb 444c 813d 6f06 d03c a380 b33c
000000f0: 645f 12bd dce4 e73c 66b7 933c 085c ea3c
00000100: 4dfc f7ba 0f43 bd3c c5d5 793d c401 b3bc
00000110: 236a 3fbc b1cf 7b3d 2b33 953d de28 503d
00000120: b0a6 703c c162 8c3d 560a 723d d716 413c
00000130: cbf2 803d 1dd8 bcbc d509 813d 908f 2b3c
00000140: c617 8a3d 28d6 16ba 0183 413c 7a5b 7b3d
00000150: 35be 953d 37e3 ae3b fb0b 0fbd e2cb 663d
00000160: 900c a4bc 321e e1bc a027 553d 4be2 d5bc
00000170: 5c0e 173d e59c 0fbd 0fa4 01bb 584d 82bc
00000180: 7bdf 803d 3909 c33b 4b2c dfba 6ac4 eabc
00000190: 2365 5c3c 140b e83c 594c 803d e4e7 763d
000001a0: 5a6e 453d 7113 36bd 7a27 813d 1546 243d
000001b0: 7c7d 993d e3c9 31bd 55aa c4bc 36ee 8ebb
000001c0: e1e4 b2bc fd42 25bc ded5 34bd c605 63bc
000001d0: c0bf ef3c cc15 973d af5d ecbc 58d1 0d3d
000001e0: a719 1ebd 7447 f3bc 3755 6a3d f20f f0ba
000001f0: 368c d13b d752 5d3d 891d 603d d72b 59bd

linear.weight f4 [10, 2560]
-0.0070046997 -0.029174715 -0.03687655 -0.0023499555 -0.037692387 -0.044192474 0.0008991692 -0.01841685
-0.026094655 -0.027238546 -0.01176074 -1.9839285e-06 -0.029643077 -0.034484707 -0.02197938 -0.007168481
-0.018331971 -0.041010384 -0.02409545 -0.026419982 -0.018332845 0.006126413 -0.000102826205 0.0046533137
0.00058344455 -0.0022720285 -0.019967541 -0.022654017 -0.02839362 -0.034203257 -0.0056806426 -0.008665714
-0.023576917 0.0003836267 -0.010255877 -0.015899757 -0.021553231 -0.031436637 -0.015588438 -0.0008026588
-0.018199906 -0.035089992 -0.017295185 -0.02888705 -0.03935422 -0.033919472 -0.0062606516 -0.004416764
-0.00983064 -0.015365603 -0.010795869 -0.016113538 -0.018947404 -0.039008323 -0.015156374 -0.027892318
-0.038241703 -0.03950386 -0.02473164 -0.009240436 0.010463549 -0.029706888 -0.0054061855 -0.020687152
0.0053406935 -0.014711015 -0.018834274 -0.019264717 0.007087467 -0.031897675 0.0026322384 -0.011268121
-0.025246546 -0.020932067 -0.013114207 -0.011166906 -0.014955434 -0.015463718 -0.008537051 -0.008105916
-0.014727547 -0.009673981 -0.00792306 -0.019946573 -0.031374436 -0.0092623085 -0.013209258 -0.0011903811
-0.003594157 -0.007925084 -0.00725414 0.002816658 -0.036492746 -0.004983775 -0.007998871 -0.006476731
-0.0083186915 -0.013050295 -0.017847942 -0.026873289 -0.0039065154 -0.027033733 -0.025870036 0.009063727
-0.035249364 -0.011544046 -0.019089878 -0.01316181 -0.022907013 -0.04078706 -0.01735623 -0.025227936
-0.0259051 -0.035322305 -0.010665321 -0.025754359 -0.008113425 -0.037099965 -0.025134921 -0.0114295175
-0.021826321 -0.030801306 -0.027752195 -0.032384295 -0.019058935 -0.03482671 -0.025940351 -0.019652577
-0.015935756 -0.028676555 0.0037440627 0.0025039923 -0.027750012 -0.036327537 -0.021715846 0.010514717
-0.014636135 -0.011647336 -0.006239773 -0.0043901643 -0.038275246 0.012168777 -0.02145954 -0.031538334
-0.007457135 -0.0043211724 -0.03131696 -0.0055983393 -0.023115087 -0.0007833457 -0.026708256 -0.022965774
-0.009710067 -0.003717689 -0.015636275 -0.013377928 -0.022056766 -0.039383247 0.0015891778 -0.0018703433
0.006129651 -0.014900719 -0.01831707 -0.0052561373 -0.014819439 -0.0025536625 5.2471158e-05 0.0066699646
-0.011054618 -0.015349633 -0.01235308 0.007622406 -0.005080598 0.019717762 -0.01205948 0.0039485022
-0.028843887 0.01003564 0.010175659 -0.024407377 0.010320822 -0.003036923 -0.017135613 -0.011462277
-0.012551648 -0.024154881 -0.024374552 -4.9652193e-05 -0.015827034 -0.0028011664 -0.000108733046 -0.016000694
-0.018937675 -0.022880882 -0.020013532 0.009243862 -0.0222363 -0.01835538 -0.0058805887 -0.02125055
-0.021499697 -0.009562228 -0.018911496 -0.024714824 -0.023217104 -0.025903955 -0.020861346 -0.0052748155
-0.038488977 -0.029724069 -0.008721847 -0.018324247 -0.032254647 -0.042604398 -0.013680287 -0.008942075
-0.033868484 -0.008118247 -0.022308705 -0.02356081 -0.04085127 -0.029982971 -0.019180968 -0.009240316
-0.021082882 -0.029926812 -0.020498816 0.006082969 -0.016296595 -0.020808915 -0.0124176815 0.008631654
-0.008993295 -0.01235975 -0.007209337 -0.022232821 -0.022473503 -0.036322746 -0.005015576 -0.023142142
-0.0144135 -0.021586021 -0.028323688 -0.03568203 -0.014543785 -0.018037787 -0.003851766 -0.020104762
-0.005655125 -0.044358097 -0.04003069 0.002097227 -0.03844497 -0.0140212225 -0.021977149 -0.029125163
00000000: ae87 e5bb d0ff eebc de0b 17bd b601 1abb
00000010: 5563 1abd 2b03 35bd 39b6 6b3a efde 96bc
00000020: 75c4 d5bc 5f23 dfbc 1eb0 40bc a223 05b6
00000030: 0ad6 f2bc d63f 0dbd 1a0e b4bc 94e5 eabb
00000040: ee2c 96bc 81fa 27bd d263 c5bc b86e d8bc
00000050: c32e 96bc 14c0 c83b 66a4 d7b8 d37a 983b
00000060: 4df2 183a 50e6 14bb f892 a3bc eb94 b9bc
00000070: bd99 e8bc b718 0cbd af24 babb a4fa 0dbc
00000080: 6124 c1bc 8121 c939 4408 28bc 3540 82bc
00000090: 6790 b0bc b4c3 00bd a666 7fbc 8569 52ba
000000a0: f817 95bc 86ba 0fbd a2ae 8dbc 89a4 ecbc
000000b0: e431 21bd 25ef 0abd 2726 cdbb 80ba 90bb
000000c0: b110 21bc 03c0 7bbc 28e1 30bc 8a00 84bc
000000d0: 9637 9bbc 31c7 1fbd 7152 78bc 6e7e e4bc
000000e0: 55a3 1cbd cdce 21bd 029a cabc 3365 17bc
000000f0: 4e6f 2b3c dc5b f3bc 5f26 b1bb 1a78 a9bc
00000100: fc00 af3b 7806 71bc 564a 9abc 0ad1 9dbc
00000110: fb3d e83b 23a7 02bd a281 2c3b ed9d 38bc
00000120: d8d1 cebc ba79 abbc f9dc 56bc 66f5 36bc
00000130: a307 75bc 895b 7dbc fdde 0bbc adce 04bc
00000140: cf4b 71bc 9e7f 1ebc b9cf 01bc ff66 a3bc
00000150: 7b82 00bd f0c0 17bc a56b 58bc 9006 9cba
00000160: f38b 6bbb 36d8 01bc 23b4 edbb ae97 383b
00000170: 6b79 15bd ef4e a3bb b20d 03bc c23a d4bb
00000180: 1f4b 08bc e8d0 55bc d935 92bc 5f25 dcbc
00000190: 3a02 80bb d975 ddbc 66ed d3bc 0780 143c
000001a0: a361 10bd 3d23 3dbc 6062 9cbc a2a4 57bc
000001b0: 7da7 bbbc 5510 27bd a72e 8ebc d1aa cebc
000001c0: ef36 d4bc 1fae 10bd 99bd 2ebc cefa d2bc
000001d0: 2cee 04bc 22f6 17bd c0e7 cdbc df42 3bbc
000001e0: 1dcd b2bc 0553 fcbc 9258 e3bc 65a5 04bd
000001f0: 7c21 9cbc 74a6 0ebd dc80 d4bc 71fe a0bc
00000200: b48b 82bc 18eb eabc f35e 753b 051a 243b
00000210: fe53 e3bc 2fcc 14bd 6ee5 b1bc eb45 2c3c
00000220: 66cc 6fbc 78d4 3ebc 0277 ccbb 5edb 8fbb
00000230: 81c6 1cbd 8d5f 473c ebcb afbc 572e 01bd
00000240: fb5a f4bb 9f98 8dbb 3646 00bd 4672 b7bb
00000250: da5b bdbc 7159 4dba 46cb dabc b822 bcbc
00000260: f916 1fbc 79a4 73bb a517 80bc 192f 5bbc
00000270: 64b0 b4bc 5450 21bd f54b d03a 4f26 f5ba
00000280: 3ddb c83b 2522 74bc ae0d 96bc ad3b acbb
00000290: 3bcd 72bc 595b 27bb 7a14 5c38 b88f da3b
000002a0: 6e1e 35bc 077d 7bbc 9364 4abc 60c5 f93b
000002b0: 257b a6bb 2587 a13c 2095 45bc 7062 813b
000002c0: 044a ecbc 866c 243c cfb7 263c fbf1 c7bc
000002d0: aa18 293c 1d07 47bb fc5f 8cbc 46cc 3bbc
000002e0: 6da5 4dbc 75e0 c5bc 24ad c7bc a341 50b8
000002f0: b2a7 81bc c693 37bb 9c07 e4b8 e313 83bc
00000300: 2f23 9bbc b070 bbbc 6bf3 a3bc 9173 173c
00000310: e728 b6bc 065e 96bc f4b1 c0bb a215 aebc
00000320: 2220 b0bc e4aa 1cbc 48ec 9abc be76 cabc
00000330: cc31 bebc 8834 d4bc 6ae5 aabc 5cd8 acbb
00000340: 9ea6 1dbd e47f f3bc 14e6 0ebc bb1c 96bc
00000350: 731d 04bd f381 2ebd 4823 60bc c881 12bc
00000360: aeb9 0abd 6502 05bc bfc0 b6bc 9a02 c1bc
00000370: a953 27bd d99e f5bc 6821 9dbc b264 17bc
00000380: 02b6 acbc 1329 f5bc 22ed a7bc a453 c73b
00000390: 7080 85bc 7577 aabc 8873 4bbc c86b 0d3c
000003a0: 9d58 13bc 8d80 4abc 4d3c ecbb 9b21 b6bc
000003b0: 5a1a b8bc 29c7 14bd b359 a4bb 9794 bdbc
000003c0: 9a26 6cbc 2bd5 b0bc 1407 e8bc 5227 12bd
000003d0: 0e49 6ebc fbc3 93bc e96d 7cbb beb2 a4bc
000003e0: a04e b9bb d6b0 35bd 39f7 23bd a171 093b
000003f0: 7978 1dbd 45b9 65bc 6c09 b4bc e597 eebc

linear.bias f4 [10]
-0.022651171 -0.011281885 0.03949366 0.002997873 0.034908842 -0.034819778 -0.024231322 0.032043163
-0.009715217 -0.03538674
00000000: f38e b9bc a8d7 38bc 1bc4 213d f677 443b
00000010: 93fc 0e3d 2f9f 0ebd c480 c6bc b13f 033d
00000020: 932c 1fbc b0f1 10bd
