project/feedforwardnet.pth (torch, 494811 bytes, 10 tensors)

conv1.0.weight f4 [16, 1, 3, 3]
000000 5f 8b 2f 3e 4c c6 a0 be fa 1c a6 3e 2e 19 b8 bd
       0.1714301 -0.31401289 0.32443982 -0.08989178
000010 9c fb b1 bd 50 7c 8b 3d 39 df 6c 3e 08 ba 25 3d
       -0.08690569 0.0681082 0.23132028 0.040460616
000020 37 e6 e5 bd 7a c5 5b bd 83 99 96 3e 5b 87 80 3e
       -0.112255506 -0.053655125 0.29413995 0.25103268
000030 3a 95 0a 3c 18 eb 0f 3e eb 2a 6d be c6 00 53 be
       0.00845843 0.14054525 -0.23160903 -0.20605764
000040 94 4e 7d bd 27 d0 64 bd d2 49 9f 3e 02 82 43 bc
       -0.061842516 -0.055862572 0.31111008 -0.011932852
000050 67 c4 30 be f1 26 26 3e 0a 95 0f 3e 67 fb 2c 3e
       -0.17262422 0.16225792 0.14021698 0.16892777
000060 51 9e 31 be 8f b4 fd 3d 55 a6 9a 3e 36 57 08 3e
       -0.17345549 0.123879544 0.30205026 0.13314518
000070 5f 20 a0 3e 89 37 2d be c2 2d a2 3e 60 8c 10 3e
       0.31274697 -0.16915716 0.31675535 0.14116049
000080 5e 33 d6 3d 2b df d3 bd 9a 2f 9c be ec d4 66 be
       0.10459016 -0.103453 -0.30505067 -0.22542161
000090 4d 7b 9d be b2 5a 6f be 0c 18 03 3d a2 17 6a 3e
       -0.30758134 -0.23374441 0.032005355 0.22860578
0000a0 63 a4 44 3e 4d 57 64 be 29 ba 50 bd 05 8a 1a 3e
       0.19203334 -0.22298928 -0.050958786 0.15091713
0000b0 e8 06 73 3e 47 11 8b 3e e9 cd 06 3e 51 9b 70 be
       0.23733103 0.2716162 0.13164486 -0.23496749
0000c0 49 ae 8f 3c 21 0a 54 3e 24 4d 2d 3e 29 3d 83 3d
       0.01753916 0.20706989 0.16923958 0.0640815
0000d0 40 09 3b 3e 48 8b a4 3e a6 a0 57 3d 45 bc 9f be
       0.18265247 0.32137513 0.05264344 -0.31198326
0000e0 fe 2b 7e be f9 4f 72 3e 65 ca f5 bd 6f 9e b4 bd
       -0.24821469 0.2366332 -0.12001494 -0.08819281
0000f0 36 02 aa 3e d4 a6 f5 bc 76 6c 8e bd ae b2 1f 3e
       0.33204812 -0.029986776 -0.06954281 0.15595505
000100 f3 71 a3 3e 83 ce d9 bd ef dc aa 3e 81 39 cf 3d
       0.31922874 -0.10635092 0.33371684 0.1011839
000110 65 db 77 3e d1 93 46 3e 73 87 fc 3d 4e f3 1e be
       0.24204786 0.19392325 0.123305224 -0.15522501
000120 cc 16 4c 3e 89 b2 16 3e 84 10 19 bc 80 c7 86 3d
       0.19930571 0.14716543 -0.009342317 0.0658102
000130 62 c8 04 3e 06 4b 70 3e 87 d8 85 be 11 b4 27 3d
       0.12967065 0.23466119 -0.2614176 0.04094321
000140 66 a3 79 bd 5b ad aa bd 2e bb 80 3d c9 29 1d 3e
       -0.060946845 -0.08333846 0.06285702 0.15347971
000150 15 2d 9f bc d6 55 15 3e e2 dc ce bd 7c 44 37 3e
       -0.019430676 0.14583525 -0.10100724 0.17897218
000160 8c 8b a7 3d 3b 95 1a be 38 31 54 be 95 17 9e be
       0.08180913 -0.1509599 -0.207219 -0.30877367
000170 29 53 6a 3d f6 e6 28 be 0d 04 14 be f0 0a 61 3e
       0.057208214 -0.16494355 -0.1445467 0.21976829
000180 e5 1d 65 be 4e f8 9d be f7 77 9e be b4 2e 8d 3e
       -0.22374685 -0.30853504 -0.309509 0.27574694
000190 41 8d e7 bd 41 3f 2f be 9a 5f a8 3e 45 cc 26 3e
       -0.11306239 -0.17113973 0.32885438 0.1628886
0001a0 38 95 a2 be 09 4a ce bc c4 a8 ca bd 23 c6 63 be
       -0.3175447 -0.025181787 -0.09895471 -0.22243552
0001b0 a0 bb 48 3e 5b b8 b0 bc 9c 05 a1 3d 7f 32 80 3e
       0.19602823 -0.021572283 0.07862398 0.25038525
0001c0 d4 58 98 3e e7 86 84 be d0 8c 7e 3d 47 e0 6f bd
       0.2975527 -0.25884172 0.062146008 -0.058563497
0001d0 9a 1d 54 bc 24 8b a7 3e 1e 4e 9a be dd df 54 3d
       -0.012946511 0.32723343 -0.30137724 0.051971305
0001e0 bd 50 a7 3e 92 8d 8d 3e 70 f0 5e 3d 59 4b 2a 3d
       0.32678786 0.27647072 0.054428518 0.041575763
0001f0 af 45 1e 3e 30 c4 6b 3d 71 92 f7 bb 89 31 4f bc
       0.1545627 0.057560146 -0.007555299 -0.012646087
000200 06 2e 0c 3e 1e 18 84 be 8a 7c 77 be 45 b9 8b be
       0.13689432 -0.2579965 -0.24168602 -0.27289787
000210 a7 70 e3 3d a1 5c 8d 3e 8a d3 3b 3d 58 2a 24 be
       0.11105471 0.27609733 0.045856036 -0.16031778
000220 41 51 a7 bd a3 68 59 3e b8 39 0d 3d 9e 71 1a 3e
       -0.08169795 0.21231322 0.034478873 0.15082404
000230 6e 9e 6f 3e 65 c3 8c 3e 00 4e 1f 3e 55 e1 1d be
       0.2340028 0.27492824 0.15557098 -0.15417989

conv1.0.bias f4 [16]
000000 90 f2 84 be 62 95 63 bd 0b f7 8d bd 0b fb 78 be
       -0.2596631 -0.055562384 -0.06931885 -0.24314515
000010 ca 44 21 3e 75 4a 8a 3e 28 a5 63 3e a6 ed a9 be
       0.15748897 0.2700993 0.22230971 -0.33189124
000020 d2 10 82 3e b6 62 f9 3c 23 e5 a3 3e 54 a9 f8 bb
       0.25403458 0.030442577 0.32010755 -0.007588545
000030 7e 02 60 be ac b8 a3 be a8 1f 91 3c b5 52 5b be
       -0.2187595 -0.3197683 0.01771529 -0.21418269

conv2.0.weight f4 [32, 16, 3, 3]
000000 c1 5a 88 3d e9 12 e4 bc 9b 33 9b 3c 82 0c fc 3c
       0.06657935 -0.027841048 0.018945506 0.030767683
000010 2f 53 91 bd 20 7d 0e 3d a6 68 29 bd ac fc ef 3c
       -0.07095944 0.034787297 -0.041359566 0.029295288
000020 72 5d 18 3d 80 08 af 3d 7a df a7 bb 08 46 67 bd
       0.03719849 0.08546543 -0.005123076 -0.05646327
000030 bd 98 8e 3c f8 8f 61 bd 01 0e 99 bc 67 de 62 bd
       0.017406816 -0.05506894 -0.018683435 -0.05538788
000040 60 43 55 3c b1 79 54 bc 80 e3 ad 3c 47 2b c3 3c
       0.013016552 -0.012968467 0.021226645 0.023824347
000050 c5 b4 61 bd 07 af f5 3c 58 21 52 bd 65 c1 ec 3c
       -0.055104036 0.029990686 -0.05130133 0.028900811
000060 34 2f 3c 3c 9b 7a e3 3c 9c f5 1e bd 27 df 50 3d
       0.0114858635 0.027768424 -0.03880845 0.050994065
000070 2c a7 47 bd 85 ba 72 bd 22 3b b3 bd cf 1f dc 3c
       -0.048743412 -0.05925991 -0.08751513 0.026870636
000080 8e e3 8e bc f5 67 23 bd 00 67 28 bd c1 3e 71 3d
       -0.01744249 -0.039894063 -0.041113853 0.058897737
000090 f1 b6 d4 3c 16 36 5a 3d 1f e9 e7 bb dc 20 cc bb
       0.02596614 0.053274237 -0.0070773507 -0.006229503
0000a0 e8 80 84 3d ee 09 29 bd 1d d4 b3 bc 19 2e 23 3d
       0.064698994 -0.041269235 -0.02195173 0.039838884
0000b0 58 64 a7 3c ca a9 28 bc 2f 5c 1c 3d 15 1d e9 bc
       0.02043359 -0.010294387 0.03817385 -0.02845625
0000c0 8d db 60 3d 3d 22 8b 3d 1c 38 fc bc d0 29 18 3d
       0.05489688 0.0679364 -0.030788474 0.03714925
0000d0 bd 3e 8c bd 3c da 47 3d 88 73 d7 bb 60 a7 f7 3c
       -0.06847904 0.04879211 -0.0065750517 0.030231178
0000e0 a6 92 d6 3c b3 38 a4 3c 50 81 bb bd 49 3c 9d bc
       0.026192974 0.020046568 -0.09155524 -0.019193785
0000f0 79 5f 6d 3d 16 4a 52 bd 7d 73 9f 3c ce 28 8a bc
       0.057952378 -0.051340185 0.019464249 -0.01686516
000100 44 e8 9e 3c 77 2a 2e bd c7 51 b7 3c 61 d5 b3 bd
       0.019397862 -0.042520966 0.022377862 -0.08780933
000110 a9 9e 80 3d 39 c3 e0 3c fd 8b b1 3c 3d d9 8f 3d
       0.06280262 0.02743684 0.021673197 0.07023857
000120 1c 0c 4c 3d 4c e8 77 bd 41 b8 c2 3c dc ba b9 ba
       0.049816236 -0.06052427 0.0237695 -0.0014170068
000130 f3 80 5b bd ce 23 da 3b 91 77 43 bd 30 88 ab 3d
       -0.053589772 0.0066571003 -0.04772145 0.08375585
000140 5b 50 65 bd 83 47 4d 3d 7b c0 3c 3c ef 7d 93 3d
       -0.055984836 0.050117027 0.0115205 0.07201754
000150 e6 39 9b 3c 77 44 6f bb ff 14 8e bd 3b 06 25 bd
       0.018948507 -0.0036509314 -0.069375984 -0.040289145
000160 ea 69 89 3d 72 f5 af 3d 2a 9b 94 bd 3f be 23 bc
       0.06709655 0.08591737 -0.07256158 -0.009994089
000170 4e 0a 9c bd 54 df 59 bd 6c 68 2d 3d d7 64 f1 3b
       -0.07619153 -0.053191498 0.042335913 0.0073667574
000180 79 33 5d 3d 7c 1f b9 3c c2 b2 89 3d de e5 ab bc
       0.054004166 0.02259802 0.067235485 -0.020983633
000190 04 16 63 bd 0c 14 23 3d 45 51 5e 3d 3b 01 a5 bd
       -0.055440918 0.03981404 0.054276723 -0.08056875
0001a0 df d0 9c bc 7d e2 c1 3c f1 86 80 bd fc bf fa bc
       -0.019142566 0.023667568 -0.06275738 -0.030609123
0001b0 b7 75 5d 3d 5e a1 98 bd 7b 54 59 bd 16 f9 a3 bd
       0.05406734 -0.07452653 -0.053059082 -0.08006494
0001c0 a0 24 a2 3c 65 70 97 3d c3 83 68 3d 28 64 1d 3d
       0.019792855 0.073944844 0.056766283 0.038425595
0001d0 50 c6 88 bc f7 4f 8d bc 3e 6a 41 3d 17 1b ab 3a
       -0.016696125 -0.017250044 0.04722046 0.0013054338
0001e0 0a c2 9a bb e2 95 e6 3c 76 fe 15 3c 55 60 50 3d
       -0.0047228383 0.028147642 0.0091549065 0.05087312
0001f0 d8 51 15 3d c6 e9 dc 3c 78 c1 b3 bd 3c 98 8b 3d
       0.036455005 0.02696694 -0.087771356 0.06816146
000200 a2 a2 a9 bd d2 5e a3 bd b5 d0 f6 bc e2 f1 f9 bc
       -0.08282973 -0.0797707 -0.030128816 -0.030510847
000210 0a 14 ee bc ad 3e 67 3d 49 ed 93 bd 9a 45 34 3c
       -0.02906229 0.056456257 -0.07222993 0.011002922
000220 96 4a 1a 3d 06 db 46 bc 63 9c 4e bd b2 6f 6f 3d
       0.037668787 -0.01213718 -0.05044211 0.05845613
000230 33 58 9b 3d f8 61 86 bd 20 0f 88 bd 51 a8 ae ba
       0.07585182 -0.06561655 -0.0664351 -0.0013325309
000240 12 ef 79 bc 9d 3d 74 3d a8 f2 71 bd 42 74 89 bd
       -0.015254753 0.05962907 -0.059069306 -0.067116275
000250 70 2e b5 bd 3f 06 53 3d e4 5b ba 3c 76 f8 13 3d
       -0.08846748 0.05151963 0.022748895 0.036125623
000260 c0 c1 37 3d ce 2a 3b 3c 55 23 49 bd 02 b2 8e bd
       0.04486251 0.01142378 -0.04910596 -0.06967546
000270 eb 5c 25 3d 01 37 5b 3a 51 4e 52 bd e2 c0 23 bd
       0.040371817 0.0008362383 -0.05134422 -0.03997887
000280 00 2b 8a 3c 5d 41 87 bd f1 53 23 3d 03 3f 59 bd
       0.016866207 -0.06604264 0.039874975 -0.05303861
000290 43 6c 70 3d 87 8e 7a 3d e1 0a 93 3d a3 18 1c 3d
       0.058696996 0.06117108 0.07179809 0.038109433
0002a0 6a 99 85 bd 12 91 2d bc db 90 13 bd d3 97 29 3d
       -0.06523402 -0.0105936695 -0.036026817 0.041404556
0002b0 44 41 19 bd 95 c8 97 bd 2a 31 ae bc 3a a9 dc 3c
       -0.037415758 -0.07411305 -0.021263678 0.026936162
0002c0 79 1f 85 bd 4b 52 8a bd ea 5c e4 3c cc 7e 2b 3d
       -0.065001436 -0.067539774 0.027876336 0.04186897
0002d0 63 fd 4f 3d 70 83 83 3d 6f 8d 58 bd 9d bf 87 bb
       0.050778758 0.06421554 -0.052869257 -0.004142715
0002e0 e9 9d 26 3d 08 ba 86 bc de 53 97 3d 9b cf c0 bb
       0.04067794 -0.016446128 0.07389043 -0.0058841235
0002f0 d9 e7 8c 3a e5 98 3a bd 42 7c 07 bd ef fc cd bb
       0.0010750248 -0.045555968 -0.033077486 -0.0062862555
000300 0b 27 31 3d c9 e9 c7 3c f9 f9 be bb ae ec a5 3d
       0.043250125 0.02440347 -0.005828139 0.08101784
000310 81 a6 29 3d 17 4e c1 bc f2 6b 4e 3d 49 18 1c bd
       0.041418556 -0.023596806 0.050395913 -0.038109098
000320 49 a4 f6 bc 7d a2 86 3d da 9d 09 3d b9 86 60 bd
       -0.030107634 0.06573961 0.033597805 -0.05481598
000330 51 03 8e 3d 87 18 1f bd dc 12 cf 3b b5 9f 2a 3c
       0.06934226 -0.03884175 0.006319387 0.010414054
000340 3a 39 3d 3c 34 bc b3 bc bb 13 99 bd e0 59 fb 3b
       0.011549288 -0.021940328 -0.074744664 0.007670626
000350 00 b9 c0 3c 24 7f b6 bc 6d 75 e0 3b 53 3f a8 3d
       0.023525715 -0.022277422 0.0068499357 0.08215203
000360 5d 16 8e bd f9 bb b7 bc e3 a5 28 3d 38 fb 50 bd
       -0.06937859 -0.0224285 0.041173827 -0.05102083
000370 ae 7d 94 3d 59 3a 2e bc 8e 4e 79 3d 8d bb 9d bd
       0.07250534 -0.010634028 0.06086593 -0.07701788
000380 1d 0b c5 3c 5e e5 1b 3d 0b dd 87 bc 31 d3 11 3c
       0.02405315 0.03806054 -0.016584894 0.00890045
000390 fe cf 78 3d 0a dc b6 3c 14 34 f0 bc 85 f5 12 bd
       0.06074523 0.02232172 -0.029321708 -0.035878677
0003a0 db 6d 8e bd 36 33 65 bd 80 ec 0c bd af 67 b1 3c
       -0.06954547 -0.05595704 -0.03440523 0.021655886
0003b0 02 af a9 bc 9a 95 ac 3d 5c 12 c8 bc 18 b9 de 3d
       -0.020713333 0.08426972 -0.024422817 0.108751476
0003c0 0f de 89 3d 31 b9 94 3c 77 1b 3b 3d 54 a3 b9 bd
       0.067318074 0.018154712 0.04568049 -0.090643555
0003d0 be c2 17 bd b2 c1 2a 3d c4 ec 78 3a 4e 42 a8 bc
       -0.037050955 0.04168863 0.000949573 -0.020539429
0003e0 95 91 57 bd a2 91 80 bd 8d 21 44 bd 75 be 46 bd
       -0.052629072 -0.06277777 -0.04788356 -0.048521478
0003f0 8c 1b 38 bc 11 a6 e1 39 2a e0 f8 3c 98 7c c5 3c
       -0.011237036 0.00043039073 0.030380327 0.024107262

conv2.0.bias f4 [32]
000000 c0 80 c5 bc a3 21 db 3d ab 95 94 bd 6d 02 b8 3d
       -0.024109244 0.10699775 -0.072551094 0.08984838
000010 17 9a eb 3d ab 59 f1 3d 4e a9 9d 3d 93 04 0c bd
       0.11504 0.11784681 0.07698308 -0.03418405
000020 7c 76 83 3c a5 ae ae 3c b8 b3 9d bd 1b cb b9 3d
       0.016047709 0.021323511 -0.07700294 0.090719424
000030 be 2a aa 3b 46 99 df 3d aa 1d 8d bc 08 4c 16 bd
       0.0051930835 0.109179065 -0.017226059 -0.036693603
000040 cb c3 8e 3d 09 e4 dc 3c d2 7d ce 3b 89 a3 1a 3d
       0.06970938 0.026964204 0.00630162 0.037753616
000050 a9 a2 27 3d ab 93 d6 3b 6e 53 a8 3d 11 68 a8 bd
       0.04092661 0.006548365 0.08219038 -0.08222974
000060 16 a7 64 3d fe 8e a8 3d c6 0a b5 3d 88 f7 76 bb
       0.055823408 0.082303986 0.088399455 -0.0037684161
000070 e3 c6 d7 3d 32 ac 9b 3c e3 1d 41 bd 86 59 c6 3d
       0.105359815 0.019003008 -0.047147643 0.09685044

conv3.0.weight f4 [64, 32, 3, 3]
000000 72 1c 3e 3d c8 56 28 3d e1 c0 fd bc 22 cf 26 bd
       0.046413846 0.041098386 -0.03097576 -0.04072488
000010 fd 3c 03 bd 52 f7 53 bd 29 bd 59 bc 6f 2e 18 bd
       -0.032040585 -0.051749535 -0.013289728 -0.037153658
000020 d7 e6 28 bb ca 71 b8 3a 2d d6 68 3b 6a 9b 19 bc
       -0.0025772357 0.0014071998 0.003552805 -0.0093754325
000030 2f 52 6d bd 9e 10 75 3c 6e 11 9f 3b c3 e6 93 3c
       -0.057939705 0.014957575 0.0048543727 0.018054372
000040 65 2d 47 bd f3 d1 ae 3c 41 81 1b 3d e7 63 4e bd
       -0.048627276 0.021340346 0.037965063 -0.050388243
000050 18 d8 cb bb 79 ca 3d bd 6b 49 d2 bc 76 68 0c 3d
       -0.0062208287 -0.04633567 -0.025669774 0.03427931
000060 69 28 c7 bc 83 c7 c5 3c 14 24 c1 bc a1 5d f9 bb
       -0.024311261 0.024142986 -0.023576774 -0.0076100384
000070 77 a3 1e bd b0 5d 85 3d db 86 33 bc 0e bc 3b 3d
       -0.03873011 0.0651201 -0.010957445 0.04583364
000080 69 1b 28 3d 81 ff b8 3c e5 c4 a6 3c 08 be ab 3c
       0.041041765 0.022582771 0.020357559 0.020964637
000090 bb 70 94 3c 94 8d 59 3d b3 36 7d 3c 47 4c df bc
       0.01812016 0.053113535 0.015454936 -0.027258052
0000a0 49 6b 73 bc e3 d2 8a 3c 10 3f 48 3d 60 b3 f4 3c
       -0.014857122 0.016946262 0.048888266 0.029870689
0000b0 83 91 13 bd 41 f3 70 bc e5 97 22 bb 16 10 6f 3d
       -0.036027443 -0.014706434 -0.0024809774 0.05836495
0000c0 31 50 64 3d 17 2f de 3c ad 98 0d 3c 09 d3 6c bc
       0.05574054 0.027122064 0.008642358 -0.014454612
0000d0 5d 05 1a bd 8d 55 82 3d e4 f7 32 bc a0 88 10 bd
       -0.03760277 0.06363974 -0.01092336 -0.035286546
0000e0 12 c7 63 bd 27 1e c4 bc af bf 53 bd 85 ab cd ba
       -0.05560977 -0.023940159 -0.051696476 -0.0015691376
0000f0 5d 77 10 3d eb cb 3c 3c 26 d7 ce bc 5e 4e 45 bc
       0.035270084 0.011523227 -0.025249075 -0.01204261
000100 ca 60 74 3c 86 33 05 bd 94 a4 6b 3d 5c a7 00 3d
       0.014915654 -0.03251984 0.05753 0.031409606
000110 5a 70 c4 bc 7e d0 e9 bb c1 90 bd bb 30 3c 14 bc
       -0.023979355 -0.00713545 -0.0057850783 -0.009047553
000120 96 a8 2e 3d 0b 97 35 3c 36 42 4f bd 6d f7 07 3d
       0.042641245 0.011083375 -0.050600253 0.033194948
000130 b9 2a 63 bd b0 bb d4 3c cc 0e f1 3c c8 af 56 3d
       -0.055460665 0.025968403 0.029426001 0.05241373
000140 ac f5 f4 bc e9 58 7d 3d f1 05 bf 3c e6 87 de 3c
       -0.029902302 0.06185237 0.023318263 0.02716441
000150 23 d3 be 3b 65 bf 1d bc 2e d7 c5 3c 21 1f 62 bc
       0.0058235093 -0.009628152 0.024150457 -0.013801367
000160 a7 cb 62 bc 67 45 df 3b 0f 84 14 3d 9b 8d 88 3c
       -0.0138425 0.0068136933 0.036258753 0.016669085
000170 06 2d 1e bd bd a9 1e bd 6a be 46 3d 36 df 0a 3d
       -0.038617156 -0.038736094 0.048521437 0.033904277
000180 40 5e d7 3c 95 73 63 3c 36 df 3d bd b6 89 d2 bb
       0.02629006 0.013882537 -0.04635545 -0.006425108
000190 c3 1f ae bc d8 d4 15 bd bd b8 a4 bc 51 43 c9 3c
       -0.02125538 -0.036579937 -0.020107621 0.024568232
0001a0 a1 8f cf 3c 0a e9 59 bd 60 3a 70 3c a5 1b 15 3d
       0.025337042 -0.05320076 0.014662355 0.036403317
0001b0 c2 ee 2e 3d 90 7d a1 bc 33 cd 26 3d 41 cc 4c 3d
       0.042708166 -0.019713193 0.040723037 0.04999948
0001c0 1f b2 05 bd d9 04 1f 3d 31 75 44 bd e4 bb 27 bd
       -0.032640573 0.038822982 -0.047963325 -0.04095067
0001d0 18 29 d9 bc 74 15 23 3d 5b f1 e8 3c 70 2d 45 3c
       -0.026508853 0.03981538 0.0284354 0.012034759
0001e0 e1 fb df bc 8b 0d 06 3d 9b 86 f7 bc 28 d7 55 bd
       -0.027341785 0.03272776 -0.030215552 -0.052207142
0001f0 38 07 ee bc ad e9 96 bb 93 b6 97 bb d2 ad 36 3d
       -0.029056177 -0.004605493 -0.004629919 0.04459936
000200 00 b6 78 3d 9e 0d 2f 3d 99 44 5f bd ab a6 47 3d
       0.060720444 0.042737596 -0.05450878 0.04874293
000210 26 dc 82 3c 3e a0 0d 3d 19 b7 61 bd d1 d2 a1 bc
       0.015974116 0.034576647 -0.055106256 -0.019753845
000220 81 3e 78 3c 02 42 30 3b d6 57 62 bd 8f 3e aa 3c
       0.015151621 0.0026894812 -0.055259548 0.020781783
000230 85 90 22 bd ad ab 1b bd 68 54 20 3d 98 3d 33 bd
       -0.039688606 -0.03800552 0.039142996 -0.043759912
000240 25 52 da bc 74 6e 5b 3c 2a 35 76 3d 4f 55 eb bc
       -0.026650498 0.013393033 0.060109295 -0.028727202
000250 d6 1b 45 3d 10 de 54 bd 28 a8 62 3d 49 73 45 bd
       0.04812225 -0.051969588 0.055336148 -0.048205648
000260 9b 15 0a 3c a0 f4 aa bc 6e 2b 2a bd 33 2b df 3c
       0.008428003 -0.0208686 -0.041545324 0.027242279
000270 10 8c 50 bd ad 7b 34 3b 48 ca a2 b9 8b ba 9d 3c
       -0.050914824 0.0027539537 -0.0003104976 0.01925399
000280 b7 55 5a 3d f4 75 25 3d 89 06 29 3d c8 26 32 bd
       0.0533044 0.040395692 0.041265998 -0.043494016
000290 f5 f2 40 3d dd 81 13 39 b5 36 5a bb be 37 a9 3c
       0.047106702 0.0001406739 -0.0033296768 0.020656463
0002a0 0a 1d 0e bd d5 96 97 3c fe 15 3c 3d 1c 2f 89 3d
       -0.034695663 0.01850454 0.04591941 0.066984385
0002b0 66 c8 63 3d ed be 80 bb 47 d3 8c bc 95 15 28 bd
       0.055611037 -0.00392901 -0.017190589 -0.041036207
0002c0 90 3c f9 3b 58 c4 e6 3c c8 b8 21 bd db 4e ee 3c
       0.0076060966 0.028169796 -0.03948286 0.029090336
0002d0 2a cc e7 3c fd 26 4a 3c a4 c6 26 bd 8b db 6b bc
       0.028295595 0.012338397 -0.040716782 -0.014395605
0002e0 b3 56 9d bc 5a c8 88 3c 17 1b 38 3c a7 72 e3 bb
       -0.01920638 0.016697098 0.0112369275 -0.006941158
0002f0 9b b4 2a 3d 60 75 44 3d 3b 56 5f 3d dc 2f 8a 3d
       0.041676145 0.0479635 0.054525595 0.0674741
000300 7b 5a 9d bb 00 59 90 3d 3d 29 14 3d 16 50 89 bc
       -0.004802046 0.070482254 0.03617214 -0.01676182
000310 3c 56 d0 bb f4 0e e4 3a f0 7a 1f 3d 14 95 3c bd
       -0.006357936 0.0017399476 0.0389356 -0.04604061
000320 3c 98 47 3d aa e1 1b 3b 64 9f 6b 3d 5b 80 10 3b
       0.048729166 0.002378563 0.057525054 0.0022049162
000330 ec b1 08 3c 45 e8 4e 3c 71 c0 67 3c 32 b3 d8 bb
       0.008343201 0.01262862 0.014145003 -0.0066131586
000340 e4 a9 ea 39 6f 0b a7 bc fa a8 25 bd 63 ec ff bc
       0.00044758536 -0.020391194 -0.04044435 -0.031240648
000350 bd 80 d4 bb 78 e3 0c 3b 3a a0 76 bd 6a e0 e5 bb
       -0.0064850734 0.0021497887 -0.060211398 -0.0070152776
000360 06 0e 45 bd 73 5a 15 3d 00 48 7a bd 9f b5 69 3d
       -0.048109077 0.036463212 -0.06110382 0.057057973
000370 4b 52 52 bd e9 55 83 3c bc 8c 36 3d ac 5d 0a bd
       -0.051348012 0.016032176 0.04456781 -0.03378074
000380 11 70 d2 3b 4d 9f 58 3d cd de 26 3d ef 66 eb ba
       0.0064220508 0.052886296 0.040739823 -0.0017959754
000390 15 4a b6 3c 53 53 ef bc 91 28 35 bd 34 98 81 bb
       0.022252122 -0.029214537 -0.04422814 -0.0039549116
0003a0 9a 22 a1 bb 5c af ee 3b ba be 02 bd 96 34 ca 3a
       -0.004917455 0.007284088 -0.031920172 0.0015427049
0003b0 d9 1b 26 3d b1 c8 33 bd 13 3f 4f 3d 7b af 4c bd
       0.0405539 -0.043892566 0.05059726 -0.04997204
0003c0 cf c6 51 3d a1 8d 25 3d d9 9d 33 3d 4e 68 d8 3c
       0.05121499 0.04041827 0.043851707 0.026416924
0003d0 98 69 69 3d f3 2a 0b ba 0a 81 66 3c 03 29 3d 3d
       0.056985468 -0.0005308829 0.014068851 0.04618169
0003e0 c4 54 0c 3d 4a 42 8c bd 9b 7c 43 3c 4e af 8b bc
       0.034260526 -0.06848581 0.011931564 -0.017051365
0003f0 a5 4e 4f 3d a7 98 41 3d 6f c9 47 bd d0 1d 78 3d
       0.05061211 0.04726472 -0.048776086 0.060575306

conv3.0.bias f4 [64]
000000 1a 51 9f 3d 06 f0 4a bd 86 be 39 bd 74 aa 54 bd
       0.07779141 -0.04954531 -0.045347713 -0.05192037
000010 fb bc fe 3c 18 e4 24 bd c5 8f 93 bd 9f 3f a5 3d
       0.031095972 -0.04025659 -0.07205156 0.080687754
000020 46 e8 42 bd 4b c2 b8 3b 11 e8 ba 3d 93 20 30 3d
       -0.047584794 0.005638396 0.091262944 0.042999815
000030 34 71 1e bc 4b 06 ad bd 20 06 da bc 48 3f 93 bc
       -0.009670544 -0.08448466 -0.026614249 -0.01797451
000040 b3 4c 15 bc 0b 89 39 3d 0c 51 ac 3d 93 87 84 3d
       -0.009112525 0.04529671 0.08413896 0.06471171
000050 3f 76 80 bd 1f 64 8b 3c 18 56 a3 3d 51 e2 0c bd
       -0.06272554 0.017015515 0.079754055 -0.03439552
000060 fc 40 7f 3d bf 74 c5 bc 1c 75 76 bc b1 69 a7 3d
       0.062317833 -0.02410352 -0.0150425695 0.08174456
000070 cb 16 91 3c 6c ef 44 3d dd 94 b3 3c 2c 6a 3e bd
       0.017711064 0.048079893 0.02192157 -0.046487972
000080 a9 23 08 bc 59 ad 3a 3d 2c 1d 2f bd c0 2c 8b bd
       -0.008309283 0.045575473 -0.04275243 -0.06795645
000090 c1 27 f0 3c 71 01 86 bd 31 b9 30 bd 3e 77 03 bd
       0.029315831 -0.06543244 -0.043145362 -0.03209614
0000a0 11 d0 9d 3c 85 62 ff 3c 0d 65 66 bd 41 c6 38 bc
       0.019264253 0.031174907 -0.056248713 -0.011277736
0000b0 8a ff 42 bd ae b3 7e bd c1 84 fb 3c 6b 0c 0b 3c
       -0.047606982 -0.062183075 0.03070295 0.008486847
0000c0 30 62 a1 3d 5a 24 98 bd 97 eb 4f bd 34 f8 33 bd
       0.07880056 -0.074288085 -0.050761785 -0.043937877
0000d0 52 fb 92 3c 8e 6d e4 3c d0 df bd 3d fc d9 b1 bd
       0.017942104 0.027884271 0.092712045 -0.08684155
0000e0 4b d1 12 3b 23 03 8b 3d 79 39 c6 bc 0e c5 a8 bb
       0.002240258 0.06787708 -0.024197327 -0.005150444
0000f0 4e 39 b4 3d 6f de 0e 3d 0c fc e2 bb f3 1b 96 bd
       0.087999925 0.034880098 -0.006927019 -0.0732955

conv4.0.weight f4 [128, 64, 3, 3]
000000 e5 14 81 3c 60 69 17 bc 08 13 02 ba 5c dc df 3c
       0.015757034 -0.009241432 -0.00049619423 0.027326755
000010 a1 15 05 3d 26 ca 17 bc a5 f1 42 3c 05 e0 86 bc
       0.03249133 -0.009264505 0.011898433 -0.016464243
000020 8f c1 3f 3d f3 7e 44 bc d6 4b 1a bd d4 7c 1d bc
       0.04681545 -0.011993158 -0.03766998 -0.009612281
000030 fb 44 9b 3c 78 94 8f 3a 7a 12 64 3c d9 8c 34 bb
       0.01895379 0.0010954281 0.013920421 -0.0027549772
000040 3d a5 0a bd ed 30 01 3d 8a 75 bb 3c 32 89 08 bc
       -0.03384899 0.0315408 0.022883195 -0.008333491
000050 ee 4f 0b bd a0 51 31 bd 08 5b b4 3c e7 a3 e3 3c
       -0.034011774 -0.043290734 0.022016063 0.027788116
000060 da 20 b6 3c 1c 2e a3 3c aa 11 fe bc 1b 60 f1 bb
       0.022232462 0.019919448 -0.031014282 -0.007366193
000070 24 dc b7 3c 17 36 4f 3c e4 d6 c8 bc 0d 39 73 39
       0.022443838 0.012647173 -0.02451653 0.00023195539
000080 ec 61 22 ba e6 96 b1 3b 50 c2 24 bd af 0d db 3c
       -0.0006194401 0.0054196 -0.040224373 0.026739923
000090 4e 16 82 3b ed ca d1 bb 78 c9 37 bd d1 4e c9 bc
       0.003969944 -0.0064023645 -0.04486987 -0.024573715
0000a0 8b 58 09 bd 10 81 68 3a bd 33 c2 3b cd 5a 0f bd
       -0.033531707 0.00088693295 0.005926578 -0.034998704
0000b0 09 d5 11 3c 81 b1 ed 3c 3a 8c 47 bc 54 d7 a1 3c
       0.008900889 0.029015305 -0.012179429 0.019755997
0000c0 e6 df 12 bc f8 aa 16 bb 60 20 a7 bc 19 77 da 3c
       -0.008964514 -0.002299009 -0.02040118 0.026668118
0000d0 b0 26 be 3c 8f 59 95 bc 27 a2 39 bc c7 71 e9 bc
       0.023211807 -0.018231181 -0.011330164 -0.028496636
0000e0 4f 71 15 bd a9 ff ed bc 98 86 1d bd 2b dd 67 bc
       -0.036485013 -0.029052572 -0.038458437 -0.014151852
0000f0 7b 76 0d bd 8e 9d 25 bd a1 c4 fa bc 5d 00 43 bc
       -0.03453682 -0.04043346 -0.030611338 -0.011901942
000100 97 e7 88 bc 13 9d 6b bb 9d ce dc 3c 16 c1 23 bc
       -0.016711993 -0.0035951778 0.02695399 -0.009994766
000110 2f 1a c3 3c 21 59 7d 3c b9 1e 9d bb 68 c8 9d 3c
       0.023816196 0.0154631445 -0.004794922 0.0192606
000120 d1 f3 0a 3d 3f c9 d5 3b 5e 2c 2d 3c 1b b7 8c bb
       0.033923928 0.0065242345 0.01056966 -0.004294289
000130 7f 48 5e bb 04 55 b9 3c 49 19 f9 3c 05 8b 09 bc
       -0.0033917723 0.022623546 0.030407565 -0.008394961
000140 2c d0 d2 bc 5c 7b 1a bd d5 05 19 3d 86 d1 33 bd
       -0.02573403 -0.0377153 0.037359077 -0.04390099
000150 dd 72 10 3d 44 fd 7a 3c ac dd 73 bc ca 37 e5 bc
       0.035265792 0.015319172 -0.014884394 -0.027980704
000160 8a d1 2e bd 84 d1 9f bb ca 39 c9 bc 73 0f 1c bd
       -0.0426803 -0.004877271 -0.024563689 -0.03810067
000170 03 dd 69 3c 63 5b 00 3d 67 5f aa bc 89 20 41 3c
       0.014273885 0.031337153 -0.020797445 0.011787542
000180 60 ec 1d bd 3b c1 3f bc d0 9b 20 3b c8 cb a2 3c
       -0.038555503 -0.011703785 0.0024506934 0.019872561
000190 d4 14 bc 3c 01 1b 32 bc f3 a0 aa bc 93 6d 60 bc
       0.02295915 -0.010870696 -0.0208287 -0.0136979995
0001a0 27 3c a2 bc 50 f8 38 bd e9 25 0a bd 3f 76 05 bd
       -0.019804073 -0.045158684 -0.03372756 -0.03258347
0001b0 4b 21 f4 bc 95 35 a6 3c 77 2a f0 3c e8 57 0e 3d
       -0.029801032 0.020289222 0.029317124 0.034751803
0001c0 90 e1 77 ba c4 33 84 3c c5 67 41 3c c1 b1 ef 3c
       -0.00094559137 0.016137965 0.011804526 0.029259564
0001d0 73 b3 a5 3c 72 d1 17 bd eb 52 38 bc 57 52 e1 3b
       0.02022717 -0.037064977 -0.011250238 0.0068762708
0001e0 12 21 ad 3c 0d bd f3 bc d5 44 c2 bb 7c 13 c5 3c
       0.021133933 -0.029753232 -0.0059286156 0.024057142
0001f0 5b a6 51 bd 4d 5d 1b bd 00 58 b5 bc a6 65 51 bc
       -0.05118404 -0.037930775 -0.022136688 -0.0127805825
000200 67 2d a5 bb 6a 78 e7 3c c0 18 aa bc b8 bd df bc
       -0.005040813 0.02825566 -0.020763755 -0.027312145
000210 22 4b b7 3c a4 72 b6 3c c3 74 06 bd d4 db c8 bc
       0.022374693 0.022271462 -0.032826196 -0.024518885
000220 6e d2 51 bc f3 0a 40 3c 4c f5 2a 3b 73 fc 01 bb
       -0.012806518 0.0117213605 0.002608615 -0.001983431
000230 d8 dc f2 3c 2a f3 1e 3d f4 af 12 bd fd a3 b0 bc
       0.029646322 0.038806118 -0.035812333 -0.02156257
000240 4d ce e2 bc ff 01 20 bc 19 ef 39 bc cb a5 cb bc
       -0.027686263 -0.009766101 -0.011348509 -0.02485933
000250 6b 9e 12 bc d3 a1 0e 3d 1a 34 ee 3c 67 0d cf 3c
       -0.008948903 0.034822296 0.029077578 0.025274945
000260 31 d1 07 bd 10 dd 2c 3d d7 20 8b bc 4b b7 91 3c
       -0.033158485 0.04220301 -0.016983433 0.017787596
000270 59 84 ae bc af b6 25 3c 02 17 a9 bb 95 41 f5 bc
       -0.021303343 0.010114356 -0.0051602134 -0.029938499
000280 df 6d a8 3c 60 f6 b2 3c 0e d8 19 bb a2 6e f7 b8
       0.020560203 0.021845996 -0.0023474726 -0.00011798485
000290 50 78 b8 3b 5e bf e3 bc 7e c4 17 3d ce 0f 3c 3b
       0.0056295767 -0.027801212 0.037052624 0.0028695944
0002a0 83 88 e1 3b 7b 4a d4 3c 03 05 47 3d 08 51 98 3c
       0.0068827285 0.025914421 0.048588764 0.018593326
0002b0 30 4e 9c bc 21 b4 36 3c 52 bc cb 3b 88 e1 e2 3b
       -0.019080251 0.0111513445 0.006217518 0.006923858
0002c0 ba 0f 3a 3b a5 e2 bb bc f3 e0 83 3c b3 52 84 3c
       0.0028390721 -0.022935221 0.016098475 0.016152715
0002d0 70 26 30 3c b3 ae 96 3b 70 c0 63 3c 3a 47 ef bb
       0.010751352 0.0045984625 0.013900861 -0.007302192
0002e0 19 22 97 bc a3 3a 11 3d e9 37 7c 3c 3c 5f 89 3c
       -0.018448876 0.03545631 0.015394189 0.016769044
0002f0 96 35 92 bc f6 e1 90 3c f8 3a f3 3c 34 f6 8a ba
       -0.017847817 0.017685872 0.029691204 -0.0010601939
000300 c2 1b eb bc d7 15 d7 bc 09 0a 1f 3d f1 9a d9 3b
       -0.02869976 -0.026255531 0.03882793 0.006640785
000310 a8 88 37 bc f0 f5 62 3c 79 9c a5 3c 28 23 ee bc
       -0.011202015 0.013852581 0.020216214 -0.029069498
000320 d5 45 cb 3c d8 33 ce 3c f3 39 10 3c 54 c3 ce 3c
       0.024813572 0.025171205 0.008802879 0.025239624
000330 2a 34 1a 3c f8 0e b1 3c 7e eb 5a 3d cf 00 00 bd
       0.009411851 0.021613583 0.05344724 -0.03125077
000340 8e d4 ee 3c 61 e8 3a bd 78 ae 55 bc d5 b9 0a 3d
       0.029154088 -0.04563177 -0.013042085 0.03386863
000350 14 c4 77 3b 3e 43 5d 3c ad 18 17 3d 5b 08 2e 3d
       0.003780608 0.013504801 0.036888767 0.042488437
000360 0c 5c bd bc 1a 66 06 bd d3 42 b0 3c b0 79 da 3c
       -0.02311518 -0.032812215 0.02151624 0.026669353
000370 7e 7a 6c 3b fb 38 2c 3d 59 6f 17 3c fd d4 d9 bc
       0.0036083753 0.04204653 0.009242856 -0.026590819
000380 bc 5d 10 3d df 78 48 ba d9 fc 0a bd d8 e3 53 3c
       0.035245642 -0.0007647406 -0.03393254 0.01293274
000390 8d 3e 33 3d fa a0 0d 3b 3e 02 a1 bc 85 c3 a9 3b
       0.043760825 0.0021610842 -0.01965439 0.0051807784
0003a0 97 a3 10 bd 17 1b 94 bc 31 56 89 bc 3c 1b 9d 3c
       -0.03531226 -0.018079324 -0.016764732 0.019178025
0003b0 be c8 ab bc 2a ab 0e bd 84 83 48 bc 1e c7 c5 3c
       -0.020969745 -0.034831204 -0.012238387 0.024142798
0003c0 0b ed 07 3b 7b 25 44 3b 6f 61 be 3c f3 b6 0b 3d
       0.0020740654 0.0029929567 0.02323982 0.03411002
0003d0 2e d0 c3 3b 01 13 12 bd 0e a7 c4 bb 7e b4 53 3c
       0.0059757447 -0.035662655 -0.00600136 0.012921451
0003e0 98 65 92 bc d9 5b b4 3c ce 44 c3 3c 0e d2 23 3d
       -0.01787071 0.022016453 0.02383652 0.039995246
0003f0 dd 0b b2 3c 2b fb ea 3b 10 26 15 bc 94 53 9d 3c
       0.021734172 0.007171055 -0.009103313 0.019204892

conv4.0.bias f4 [128]
000000 14 8c 27 3c 45 88 91 3c 99 9b 1a 3d 1c e2 12 3d
       0.010226268 0.017765174 0.037746046 0.035860166
000010 60 e9 39 bd 72 5d bc bc b8 28 1e bd 5d 53 2e 3d
       -0.04538858 -0.022993777 -0.03861305 0.04255997
000020 f0 1b 70 bc d8 e3 d3 3b 86 b0 ae bc 80 b6 4f 3d
       -0.014655098 0.00646637 -0.021324407 0.050711155
000030 a7 c2 4d 3d 09 a9 bc bc 2b 3d 27 bd 1a 9c bb bc
       0.050234463 -0.023029821 -0.04082982 -0.022901583
000040 25 1b 10 bd e3 d4 4f bc 43 bb 7c bc d5 53 e9 3c
       -0.035182137 -0.0126850335 -0.015425506 0.028482357
000050 2b 81 67 3d bd cd 56 3d 3f 00 8f 3d 16 a6 66 3d
       0.05651967 0.0524423 0.06982469 0.056310736
000060 bd f4 17 bd 40 9a 42 3d 51 5a 7b bb 6e 02 34 bd
       -0.037098635 0.047510386 -0.0038353393 -0.04394763
000070 a2 9c 66 3d 4c cf 36 3d b8 74 fe 3c 26 73 21 bc
       0.05630172 0.044631287 0.031061515 -0.009854114
000080 98 a9 20 3d 70 fb e9 ba e4 29 21 b9 ff c3 63 3d
       0.039224237 -0.0017851423 -0.00015369762 0.05560684
000090 d5 bf 30 bd 97 4c 09 bd 08 e4 eb bc e7 af b0 3c
       -0.043151695 -0.033520307 -0.028795257 0.021568252
0000a0 c0 34 e7 bc 7b cf 38 3d a9 74 3e 3c b9 35 74 bc
       -0.028223395 0.045119744 0.011624494 -0.014905387
0000b0 e9 3b 86 3d 24 83 3f bd a5 69 8b bc ec f5 7e 3d
       0.06554396 -0.046755925 -0.017018149 0.062246248
0000c0 6b a8 18 3d 87 75 89 3d d0 89 2c 3d 35 fc f2 bc
       0.03726999 0.0671187 0.042123616 -0.029661277
0000d0 31 9a 20 bd 5f 87 38 3d aa 32 1c 3d 42 78 1f 3c
       -0.03920955 0.045050975 0.038134255 0.009733262
0000e0 8c 81 27 3d 28 b0 2f bd 1c 77 f0 3a 02 c6 3c 3d
       0.04089503 -0.042892605 0.0018346044 0.046087272
0000f0 c9 1b cf bc 85 5b 38 3d dc a4 40 3d 23 41 e2 bc
       -0.025281804 0.045009155 0.047032222 -0.02761895
000100 32 8b cd bc 78 0c 1c bd e3 5d f3 bc bd 0b c0 3c
       -0.025090788 -0.03809783 -0.029707855 0.023443097
000110 d3 55 da 3c 30 06 a0 bc dd d5 37 3d e2 13 50 3c
       0.026652252 -0.0195342 0.04488169 0.012700053
000120 1b a0 63 bc f3 37 44 bd 19 15 d8 bc 1c 7f 8b 3d
       -0.013893153 -0.04790492 -0.026377248 0.068113536
000130 96 31 40 3d 18 7a 7c bb b0 25 37 bc 40 06 a6 bc
       0.04692229 -0.0038524922 -0.011178419 -0.020266652
000140 97 78 58 3d 7e 4d 95 3d b3 54 1e 3d e4 76 3c 3d
       0.05284938 0.07290171 0.038654994 0.04601182
000150 9d 6b 3e 3c ab 96 16 3d f6 b6 7e 3d b4 83 4a 3c
       0.011622337 0.036764782 0.062186204 0.012360502
000160 73 66 5b 3d 01 ee 37 3d af c8 10 3d e9 e5 69 3d
       0.0535645 0.044904713 0.035347637 0.057104025
000170 2e 02 4f 3d aa ef 89 3d 80 35 85 3c 3e 26 32 3d
       0.050539188 0.067351654 0.016260862 0.0434935
000180 5a 62 31 bc c6 36 de bc 88 76 2e bc f4 b5 cb bc
       -0.0108266715 -0.027125727 -0.010648377 -0.024867035
000190 f4 1c 6f 3d 9b 2d 94 3c ea ce bb bc 39 4d 85 3d
       0.05837722 0.018088153 -0.022925813 0.0650887
0001a0 94 33 1b b9 1b ac 01 bc 6b cb 2a bd ee c8 8e 3c
       -0.00014801166 -0.007914568 -0.0416979 0.017429795
0001b0 69 2f e0 3c 09 f0 43 3d 38 ba ae 3c 71 30 25 3d
       0.027366357 0.047836337 0.02132903 0.0403294
0001c0 ae e4 28 bd 19 f1 6b bd 35 b3 91 3d 5a cd 1b 3d
       -0.04123371 -0.057602976 0.07114259 0.038037635
0001d0 13 d2 62 bd 91 04 2f bc 2a 36 8a 3c 05 8f 21 3d
       -0.055376124 -0.010682241 0.01687153 0.039443035
0001e0 1d bf 6b bd 04 39 a8 3c 34 38 15 3d 32 cb 6a 3d
       -0.057555307 0.020535 0.036430553 0.05732269
0001f0 14 1e 8c 3c 92 ab 1d bd ef e9 ea bc 39 c6 4e 3d
       0.017104186 -0.0384937 -0.028676001 0.05048201

linear.weight f4 [10, 2560]
000000 f0 ae 1c bd 9c 16 08 bd ac 0b 81 bc c7 cf 84 bc
       -0.03825277 -0.033224687 -0.015752636 -0.016212357
000010 52 6e 7b bc 0f 6d dc bc 91 81 08 3b f9 38 a8 bc
       -0.015346127 -0.026907472 0.002082918 -0.02053498
000020 f0 d9 40 bd 56 2e ee bc 2f ed 22 3c 1f f7 ab bc
       -0.04708284 -0.02907483 0.009944244 -0.02099186
000030 87 b9 cf bc 51 b0 d1 bc ef 7f 0f 3c 07 7f 35 bc
       -0.025357021 -0.02559677 0.008758529 -0.011077649
000040 74 fc d2 bb b6 75 cc bc d2 0a 5f bc 39 fd 8d bb
       -0.006438786 -0.024958473 -0.01361342 -0.004333165
000050 f3 0e 00 bd 43 1f 28 bd 1d 04 9a bc 5a ee 1f bb
       -0.031264257 -0.04104544 -0.01880079 -0.0024403543
000060 ac c2 2c bd 0a 8a 1d bd 8f e7 87 bc 44 62 e4 bc
       -0.04217784 -0.038461722 -0.016589908 -0.027878888
000070 30 15 c3 bc 99 b3 b1 bc bd 5b aa bb b5 c7 f6 39
       -0.023813814 -0.021692084 -0.0051989243 0.0004706957
000080 af 0a 45 bd 18 06 aa bc 31 1c ac bc 82 73 8d 3a
       -0.04810589 -0.020754859 -0.021009536 0.001079187
000090 5a 52 19 bd 3a 64 ef bc db 78 1b 3c 9d c1 d9 3b
       -0.037432052 -0.029222596 0.009489263 0.006645395
0000a0 87 b4 b3 bc 3e af bb bc 79 e9 53 bc b0 8c 21 bc
       -0.021936668 -0.02291071 -0.012934082 -0.009860203
0000b0 ee a1 2e 3c 85 8c d7 bc 4c 74 45 bc a7 c7 d9 bc
       0.010658724 -0.026312122 -0.012051653 -0.02658446
0000c0 00 a8 2c b9 74 fe 94 bc 24 c8 a7 bc bf 21 71 bc
       -0.00016465783 -0.018187739 -0.020481177 -0.014717518
0000d0 20 b7 d3 3a ed ac 90 bc de e9 86 bc 62 68 f8 bb
       0.0016152598 -0.017660582 -0.016468938 -0.007580803
0000e0 44 39 f3 3b ec 75 1c bd 01 75 27 bc da 08 56 bc
       0.007422598 -0.038198397 -0.010220767 -0.013063634
0000f0 fa 88 11 bc 1a 59 b5 bc 58 64 40 bc 7a e5 be bc
       -0.008882755 -0.022137213 -0.011742674 -0.023302782
000100 e2 36 64 bb 81 7a e1 3b c1 1c f9 bc c8 e1 00 3c
       -0.0034822752 0.0068810587 -0.030409219 0.00786633
000110 22 d6 9f bc 36 17 2f bb 7e cf 59 bc b5 9b 31 bb
       -0.019511286 -0.0026716716 -0.013294099 -0.0027100865
000120 1f 6b 22 bc 61 3c b6 bc 34 67 14 bc d8 b5 f7 bb
       -0.009913235 -0.022245588 -0.009057809 -0.0075595193
000130 c8 c3 95 bc 4d e7 87 3b 8a 07 52 ba 5a 68 ce bb
       -0.018281832 0.0041474462 -0.00080119877 -0.006299061
000140 37 8d f9 3a 55 e4 a9 bb a9 9c 30 3c b0 8a a2 3b
       0.0019039278 -0.00518469 0.010779538 0.0049603805
000150 3c 45 a4 3b 87 00 49 bb 6c 76 0e bb 54 e2 c4 3b
       0.005013136 -0.003067048 -0.0021738065 0.0060084257
000160 7d 49 59 3b 72 10 50 bb 9e 11 f5 3a 62 9e bd ba
       0.0033155375 -0.0031748083 0.0018697267 -0.0014466757
000170 e8 1e 51 3c 07 f0 07 bc 7c 11 3b 3c 73 65 31 3c
       0.012763716 -0.008296973 0.011417743 0.01082741
000180 9b 8c af bc a6 89 67 bc 0c 1a 8e bc 0a 8e e2 3b
       -0.02142935 -0.014131939 -0.017346404 0.006913905
000190 ac c7 a1 bc 94 08 c5 bc 06 b3 f4 3b f4 0d ef b9
       -0.019748531 -0.024051942 0.0074676303 -0.00045596028
0001a0 cf bc a9 bc af b0 00 bd 31 4c b0 bc c2 14 8a bc
       -0.020719914 -0.0314185 -0.021520706 -0.016855601
0001b0 2a b9 0d bd 84 46 41 bd 73 18 d4 ba ec 32 9c bc
       -0.034600414 -0.04718639 -0.0016181603 -0.01906725
0001c0 49 d8 06 bd 86 5c 38 bd fd 84 19 bc 3e dd 10 bc
       -0.03292111 -0.045010112 -0.009370086 -0.008841811
0001d0 90 5c 23 bd 40 eb e3 bc f2 a3 f6 bc 02 c7 64 bc
       -0.039883196 -0.027822137 -0.030107472 -0.013963463
0001e0 70 9e e3 bb 03 ed 5d 3c b1 b4 d1 bc 17 ed 4d 3b
       -0.0069463775 0.0135452775 -0.025598856 0.0031421834
0001f0 33 5f 36 3c 2f a8 28 3c 2a 67 fe 3b 88 b5 65 3b
       0.011131096 0.010294004 0.007763763 0.0035050828
000200 23 d1 d8 3b 37 57 40 bc 48 1f 0f 3c e7 e6 4f bc
       0.006616728 -0.011739544 0.008735485 -0.012689329
000210 d4 f8 9d bb 9e 46 24 3c c6 ca 97 bb 0b fe d5 3b
       -0.0048209224 0.010026602 -0.004632327 0.0065305284
000220 dc 89 63 3c 37 f0 8d bc 85 3b b3 bc b7 a2 a8 bc
       0.013887849 -0.017326457 -0.021878967 -0.020585401
000230 66 c9 bd bc 7a 05 66 bc af 72 15 bd 48 31 26 bc
       -0.023167323 -0.014039392 -0.036486324 -0.0101435855
000240 ba ba bd bb 32 5a 0d bd 67 66 e6 bc 26 46 ff ba
       -0.005790082 -0.034509845 -0.028125001 -0.0019475862
000250 d9 cb 82 bc a6 48 ed bb 9b 78 fe bc 31 66 c2 bc
       -0.015966343 -0.0072413264 -0.031063369 -0.02373037
000260 07 d2 06 bd 5e 43 4a bc 8e 23 02 3c 24 df 01 bd
       -0.03291514 -0.012345163 0.007943047 -0.031706944
000270 35 38 c9 bc e5 76 13 bc 9f 41 e9 bc 6d c5 93 bc
       -0.024562934 -0.009000515 -0.028473673 -0.018038476
000280 36 ca 74 bc 9c c5 08 bb ca a7 9a bb 99 ca c2 bc
       -0.014940789 -0.0020869737 -0.004719709 -0.023778247
000290 86 8d 29 bc 17 93 ce bb 4c c9 62 3a db b5 5e bc
       -0.010348683 -0.0063041556 0.00086512114 -0.013593162
0002a0 80 2e 00 ba 6a 19 b1 bb 1a 87 9b bc 85 a7 ad bc
       -0.00048897415 -0.005404641 -0.01898532 -0.021198044
0002b0 c0 49 ec b9 0e a8 09 bc 6e a9 f1 3b b8 bc b9 bc
       -0.00045068376 -0.008401884 0.007374934 -0.022672996
0002c0 f8 4a 09 3c 8c 07 f1 3b f7 2c 9f bc 06 f4 50 3c
       0.00837969 0.007355636 -0.01943062 0.012753492
0002d0 e2 08 06 bc 2e ff 74 bc e1 a3 d6 ba 60 0f 88 bc
       -0.008180829 -0.014953418 -0.0016375744 -0.016608894
0002e0 c0 06 5b 3b ee 93 8d bc 75 4b ad bc ac ba a5 bc
       0.0033420771 -0.017282452 -0.021154145 -0.020230614
0002f0 a5 c4 40 3c e4 f0 b8 3b 2b f9 9f bc 22 be 1a bb
       0.011765634 0.005643951 -0.019527992 -0.0023611863
000300 73 af 28 bc f9 27 93 3c 04 84 e7 bb 3b 77 ed bb
       -0.010295737 0.017963396 -0.007065298 -0.0072468794
000310 70 76 85 bc 55 fc 99 bc c3 6a 37 bc 13 4e d0 3b
       -0.016291827 -0.01879708 -0.011194888 0.0063569634
000320 a6 c8 83 3b 76 2f 16 bd 4c d9 fc bc 72 fc 27 3b
       0.004021722 -0.036666356 -0.030865334 0.0025632647
000330 18 c3 93 3b 3d 21 32 bd 89 04 fc bc f4 ba 67 3a
       0.004509341 -0.04348873 -0.030763881 0.0008839809
000340 50 93 47 bc bb c6 9f bc 2b c6 91 bc cd 92 0a 3c
       -0.012181118 -0.019503942 -0.01779469 0.008457852
000350 3a 42 42 3c 79 e3 06 bd 95 77 1c ba ae 1c 64 bc
       0.01185661 -0.03293178 -0.0005968747 -0.013922853
000360 02 d9 1f bc 67 c1 4f bc bf 59 11 bd bc d6 2c bc
       -0.009756329 -0.012680388 -0.03548598 -0.010549244
000370 60 86 1d bd 80 2b 13 bc 03 a1 8a bc f8 4c 35 3b
       -0.038458228 -0.008982539 -0.01692248 0.0027664285
000380 37 30 37 3b f2 5b f8 bc 3c 26 38 39 3d da d4 3b
       0.0027952322 -0.03031728 0.00017561851 0.0064957426
000390 fd 9d 90 bc 35 0d ad bc 08 1a 58 3b db 0e e6 bb
       -0.01765346 -0.021124462 0.00329745 -0.007020814
0003a0 65 b1 0e bc cf 06 b3 bc 66 6b b9 bc 8b 89 2a bc
       -0.008709286 -0.021853833 -0.02263422 -0.010408769
0003b0 c3 30 64 bc 3b 8d 9e bc 29 e9 9b bc 97 ed 46 bc
       -0.013927641 -0.019354453 -0.019032078 -0.012141607
0003c0 80 4b 2f bc c5 07 43 bc 82 25 2c 3a c6 a0 1a 3c
       -0.010699153 -0.011903708 0.00065668684 0.009437745
0003d0 04 55 03 bd 3d 59 77 bb a7 66 c3 bb ac 19 16 3c
       -0.0320635 -0.00377424 -0.005963165 0.009161394
0003e0 8e 27 a6 bc d1 08 0c bc 30 e9 d5 bc de 66 8b 3b
       -0.020282533 -0.008547024 -0.026112169 0.004254206
0003f0 39 2b 70 bc 73 b3 45 bc d8 db c8 3a 38 12 cc bb
       -0.014658743 -0.01206671 0.0015324308 -0.006227758

linear.bias f4 [10]
000000 fd e5 81 bc 34 b8 58 3c 03 70 0e 3d f3 6d 21 bc
       -0.015856737 0.013227511 0.03477479 -0.009852874
000010 fd a7 42 3c 72 7a 24 bd 37 70 45 bc 3e 81 6c 3c
       0.011880872 -0.040155835 -0.01205068 0.014435111
000020 a3 75 3f b9 3f 52 83 bb
       -0.00018259003 -0.004007607
