project/feedforwardnet.pth (torch, 494811 bytes, 10 tensors)

conv1.0.weight f4 [16, 1, 3, 3]
00000000: cace 0f3e f6b7 313e 7237 0f3e 964a 923e
00000010: a22d 283b c751 323e dff2 283e b475 843e
00000020: 385e 823d ad46 a03e d0a5 a8be 7abe a63b
00000030: 558b 0abd 4351 94be 219e acbd a7ad 86be
00000040: 68e1 a53e 5c92 91be 0df3 bfbd f4c4 0abe
00000050: deff 5cbe 8e66 88be d04d 763c 1b3d 503e
00000060: 8e37 8c3e d93e 593d 238c 813e 55ae 853e
00000070: 586d a33e 7e86 fc39 01c0 9e3d 1f2f 4b3e
00000080: cd53 df3d 2e48 8cbe 58c8 9f3d 1dd1 2d3e
00000090: e034 5d3e 89c0 a33d 2ae1 1c3e 3919 233d
000000a0: 7d70 71be 3cb7 8b3e 366a 4b3d 41a5 40be
000000b0: c6a2 523e 0f0c 803e d282 97bd f4ad c6bb
000000c0: 3b4b 913e 527a 333e 9dd9 1abe 6add 46be
000000d0: ce19 a43e 1dc8 eebc 37bc 9b3e 1957 7abd
000000e0: 6d5d 623d ef9b 3b3e e3c3 673e 07e2 9f3e
000000f0: 6443 f2bd aae3 1e3c 07b5 74be d385 613e
00000100: 6e7a 3ebe bbed aa3e 656e 9f3e beee 4abe
00000110: 9661 253e 895d 4fbe b389 693e bb2e 393e
00000120: 366c 193e bebb 023d 7dad 43be 6137 243e
00000130: d088 88be 1eac 8fbe fe3f bebd 9f4d 97be
00000140: de14 a13e f364 f6bb a632 4c3e 9fa2 2abd
00000150: d5a0 143e 1549 abbd ddf2 22bd 4a94 ab3e
00000160: eeb2 45be ff00 4bbe ae1b 01be 3069 3dbe
00000170: f7c7 843c 7d67 973e fb6a 903e 0608 b1be
00000180: 6128 adbd d64a 793e 06fe 9abe 0428 08be
00000190: 5c5d 713d 7247 28bd 6c70 ec3d 12c9 b93d
000001a0: 30a8 9a3e fce2 04ba 1967 cfbd 2cb0 8fbe
000001b0: 7676 8bbe a544 4e3e d7b9 4d3e 45bb 223e
000001c0: c204 233c 5103 82be 030f 47be 3e4d a23d
000001d0: 34c6 c93c dd2d 84be cb71 f33d bda6 9dbe
000001e0: 43f3 a5be b74e 0abe 44a2 9cbe 4970 5fbe
000001f0: c9a6 523e a443 803e 05ee 37be 66f9 72bd
00000200: 6af0 94bd a71b 34be 5986 d53c 5459 9cbe
00000210: fc96 563e 34b0 9cbd fd3f 693d 8c2a 67bd
00000220: 7431 843d 6629 6c3e 87ed 1abe 9b6b 6e3e
00000230: ccc1 4cbe f4b8 f5bd 0712 2bbe 0fc1 603e
0.14043728 0.17355332 0.13985994 0.2857253 0.0025661965 0.17414008 0.16498898 0.2587105
0.06365627 0.3130392 -0.32939005 0.0050886245 -0.033824284 -0.28968248 -0.08428598 -0.2630436
0.32398534 -0.28431976 -0.0937253 -0.13551694 -0.2158198 -0.26640743 0.0150332 0.2033581
0.27386135 0.05303845 0.25302228 0.26109567 0.3191936 0.0004816539 0.077514656 0.19842194
0.109046556 -0.2739882 0.078018844 0.16974302 0.21602201 0.079957075 0.15320268 0.039818976
-0.23578067 0.27288234 0.049661838 -0.1881304 0.20569906 0.250092 -0.07397999 -0.0060632173
0.2837771 0.1752713 -0.15122075 -0.194204 0.32050937 -0.029148156 0.30417034 -0.06111822
0.05526488 0.18321203 0.22633319 0.31227133 -0.1182926 0.009697834 -0.23897181 0.22023706
-0.1860139 0.333845 0.31138912 -0.19817635 0.16150507 -0.20250525 0.22806434 0.18084233
0.14982685 0.031917326 -0.1910915 0.1603675 -0.2666688 -0.28061002 -0.09289549 -0.29551408
0.31461233 -0.0075193583 0.19941196 -0.041658994 0.14514478 -0.08363549 -0.039782394 0.33511573
-0.19306538 -0.19824599 -0.12608215 -0.18497157 0.016208632 0.29571143 0.2820662 -0.34576434
-0.08454967 0.24344954 -0.3027193 -0.13296515 0.058926925 -0.04108376 0.1154488 0.09071554
0.30206442 -0.00050692237 -0.10127086 -0.28064096 -0.27238816 0.20143373 0.20090424 0.1589175
0.009949865 -0.25393155 -0.1943932 0.07924889 0.024630643 -0.2581624 0.11886939 -0.30791274
-0.32412156 -0.1350659 -0.3059255 -0.21820177 0.20571436 0.25051606 -0.17961891 -0.059319876
-0.07272418 -0.17588674 0.026065039 -0.30536902 0.20956033 -0.076507956 0.05694579 -0.05643706
0.06454745 0.23062667 -0.15129672 0.23283236 -0.19995803 -0.11998168 -0.16706096 0.21948646

conv1.0.bias f4 [16]
00000000: 6359 b13e 530c 8bbe de0b 733e 7318 a43e
00000010: ad55 1f3e 8c0a 5f3e abb4 a13d ed52 44be
00000020: 1553 30be cb89 a7be 0e08 823e 5a1e 573d
00000030: 63f2 903e 28a8 58bd efe6 a9be 69b6 4dbe
0.3463851 -0.2715784 0.23734996 0.32049903 0.15560026 0.21781367 0.07895788 -0.19172259
-0.17219193 -0.32722315 0.2539677 0.05251918 0.28309926 -0.05289474 -0.33184 -0.20089115

conv2.0.weight f4 [32, 16, 3, 3]
00000000: 5850 a13d 88a7 f73c b05a 45bd 8419 7dbd
00000010: 13c1 d43c 94a0 6a3c 5559 6dbc 0503 8bbd
00000020: b81f cfb8 a8ec a8bd fe96 95bc 62cb 98bd
00000030: 09c8 233d 6304 62bd b63c 06bd fe95 883d
00000040: 1712 d7bc 839b fb3b 956c 44bc 5001 d6bc
00000050: df43 b9bb b98a 50bd 430e 69bd f463 71bd
00000060: 94bc 193d ee83 6f3d 688c a33c 4889 92bc
00000070: 2597 a0bd 2ac3 493d 7940 20bd fcdc 3d3d
00000080: 93a2 ccbc ea13 9dbd c0cb 353b 43bf 833d
00000090: 31ff 48bd e836 3dbd 7ffc 7bbd 1ee9 99bd
000000a0: 58ac 99bd a462 22bd 1b19 1d3d 22d8 bb3c
000000b0: a584 0a3c a4cf 53bd 04fb 9b3d 404d d1bc
000000c0: 029f 53bd 3bc4 a13c b7c2 83bb 325c a53d
000000d0: a668 613d 058c d03b 8dbf 58bd 35ba a43c
000000e0: 1a1a 563d 3f7a 99bd 6143 03bd bd25 403d
000000f0: c556 043d 1ee0 4cbc 4e88 22bd d58c 6d3d
00000100: a9b8 5ebd b56e 8b3c 04f8 803c 415e c3bc
00000110: 6690 88bd c801 853d 2ca4 493d 54cd 113d
00000120: 67db 003d 3f5f 913c 434a 50bd 47d5 b4bd
00000130: a9ca babd 149a b43c 3a68 43bd 67dc b33c
00000140: e381 9dbd 9077 7cbd 7a86 b2bd 6a5e 8d3c
00000150: ca15 93bd de54 913d 9182 afbd 3c89 7a3d
00000160: 718d 11bd 73c2 a6bd e82c aebd 480e 843d
00000170: 3ebd 7c3c 0a16 9bbd 4c1a 46bd 918e 9fbd
00000180: d41e 9dbd 8877 92bd 26c3 283d 0938 1c3d
00000190: 6596 2dbd fea3 f9bb d6a7 813c e130 c2bb
000001a0: 9468 c43c a106 873d 566d ad3b 16a6 f63c
000001b0: 7b3d 303b add2 373c e5b2 62bd fece 79bd
000001c0: 5d43 3abd 1dfd abbc b99c 84ba e066 a5ba
000001d0: c191 3dbd 7e36 c53c 552a 8d3d 2dbc 7d3d
000001e0: 5c21 2dbd 857d 943d c17d 81bd 9120 a93d
000001f0: 239b 03bd 4293 f8bc e893 823d a8e5 433d
00000200: f0f0 0bbd 5561 42bd 6763 493d 0b68 22bd
00000210: c7f0 00bd 2736 823c 6764 66bd 5360 733d
00000220: 24a6 4a3d be1f 04bd cb42 09bc 6189 553d
00000230: e9cf 0fbd c470 3b3d 7995 a0bd 54c3 8abd
00000240: 9b4d 923d 614b 023d 383c 203d 8521 a6ba
00000250: 110e 7bbd d07b a7bd 630f 6d3b 6e04 943d
00000260: ba1d 163d eb2e 783c d004 8ebc 0ee9 86bd
00000270: 9f17 a9bd 4945 a8bd 40ce 333d ef7d 883c
00000280: 4d46 a13c 01dc a0bd b9d4 b13c 70a6 72bc
00000290: 0fd0 943d 0b98 1abd 69e3 123c ed24 38bd
000002a0: 96ae e43c 3fd8 cbbb e1c2 a93c e417 153d
000002b0: 8965 573d f906 f83c 16e3 423d 80bb 9abd
000002c0: 074d 0cbd 3af1 8e3d ec31 c33c b74e 313d
000002d0: 8473 ad3c 844c 173d eae6 45bd d8d4 fc3a
000002e0: 1c3e b3bc 7af8 a6bd 5827 00bd 849b feba
000002f0: dae8 2dbd 845b 33bc 7786 6abd 5946 883d
00000300: e9d2 00bd 8a2c 34bd e092 5ebd b7f2 d33a
00000310: 17fe 793c 8c1c a6bd 9e72 873c db9a 763d
00000320: 4fe7 a8bd 09d2 3abd 88b3 e03c 4c85 8abd
00000330: 1925 f1bc cf9e 97bd b082 4e3d cb98 83bd
00000340: fa80 7dbd 4427 e83c 9597 15bd c83c 97bd
00000350: f02f 04bd 5bdb 963d 523e f13c 9275 0bbd
00000360: 5984 9a3c 1409 853d 4592 89bc 7e7f a0bd
00000370: 89ee 2b3d a691 6b3c f835 553b c474 f73c
00000380: b2c0 843d c6e6 62bc d522 9dbc 52bc 09bc
00000390: 1c71 343c 2396 bf3c b9f2 28bd 78aa 5dbd
000003a0: e57e 9ebd 5634 8e3d 72ab 32bd 17ef ac3c
000003b0: c705 6c3c c39d aa3c 210c 26bd 3d64 233d
000003c0: 7470 48bd 367a 2abc 0345 a2bd fe10 913d
000003d0: ea5f ecbc fb8e 8c3d f1ce be3c 53f2 a3bd
000003e0: 461f 91bd 9020 debc 7a84 943d b47a 603d
000003f0: 47df 66bd 8d69 713d 56cb 81bd 1f92 183d
0.078766525 0.030231252 -0.04818219 -0.06179191 0.025970971 0.014320511 -0.01448663 -0.06787685
-9.876437e-05 -0.082482636 -0.018260475 -0.07460667 0.03998569 -0.055179965 -0.032772742 0.06669234
-0.026253743 0.0076784506 -0.011988779 -0.026123673 -0.005653843 -0.050913546 -0.056898367 -0.058933213
0.037533358 0.058475427 0.019964412 -0.017887726 -0.078413285 0.04925839 -0.039123986 0.046353325
-0.024979865 -0.07669814 0.0027739853 0.06432965 -0.049071494 -0.04619494 -0.061520096 -0.07515167
-0.07503575 -0.039644852 0.03835402 0.022930209 0.0084544765 -0.051711693 0.07616237 -0.025549531
-0.051665314 0.01974689 -0.0040210146 0.080742255 0.05503144 0.006364348 -0.052917052 0.020108322
0.052270986 -0.0749402 -0.03204668 0.04691099 0.032309312 -0.012504606 -0.03968077 0.057995636
-0.054375324 0.017020563 0.015743263 -0.023848655 -0.06668167 0.0649448 0.049228832 0.035596207
0.03145924 0.017745612 -0.05085207 -0.08829742 -0.091206856 0.022046126 -0.04770682 0.021955682
-0.076907896 -0.06163746 -0.087170556 0.017256934 -0.0718189 0.07096265 -0.085698254 0.061166033
-0.03553528 -0.08142557 -0.08504659 0.064480364 0.015425978 -0.07572563 -0.048364922 -0.07790864
-0.076718956 -0.07151705 0.041201733 0.038139377 -0.042379756 -0.0076184263 0.0158271 -0.005926237
0.023975648 0.06593061 0.005292575 0.030108493 0.0026892114 0.011219663 -0.05534639 -0.06098842
-0.0454744 -0.020994717 -0.0010117508 -0.001261916 -0.04628158 0.024073835 0.0689284 0.061947037
-0.042268142 0.072505035 -0.06322814 0.08258165 -0.03213037 -0.030343655 0.06375867 0.04782644
-0.034165323 -0.047456104 0.049167063 -0.039650004 -0.031479623 0.015894962 -0.056248095 0.059418034
0.04947485 -0.032256834 -0.008377741 0.052132968 -0.035110388 0.04576184 -0.0784101 -0.06775537
0.07143708 0.03181017 0.03911993 -0.0012674785 -0.06129271 -0.08177912 0.0036172501 0.072274074
0.036649443 0.015147905 -0.01733628 -0.065874204 -0.082564585 -0.0821634 0.043897867 0.016661612
0.019686842 -0.078544624 0.02170788 -0.01481019 0.072662465 -0.037742656 0.008965352 -0.04495709
0.02791528 -0.006220847 0.020722808 0.036399737 0.052587066 0.030276762 0.047579847 -0.07555294
-0.034253146 0.06979604 0.023827516 0.04328796 0.021173246 0.036938205 -0.04831592 0.0019289507
-0.021880202 -0.08152862 -0.03128752 -0.0019425009 -0.042458393 -0.010947112 -0.057257142 0.06654043
-0.03145114 -0.04398779 -0.05433929 0.0016170357 0.015258334 -0.08110914 0.016534146 0.060206275
-0.082472436 -0.04561046 0.027429357 -0.067637056 -0.029436635 -0.07403337 0.050417602 -0.06425627
-0.06189058 0.028339036 -0.036521513 -0.0738464 -0.03227228 0.073660575 0.029448662 -0.03404767
0.018861936 0.06495872 -0.01679338 -0.07836817 0.04197553 0.014377987 0.0032533389 0.030207045
0.06482066 -0.013848966 -0.019181648 -0.0084067155 0.0110132955 0.02338702 -0.041247103 -0.05411765
-0.07739047 0.06943576 -0.043620534 0.0211101 0.014405674 0.02082718 -0.04053891 0.039890517
-0.04893537 -0.010405114 -0.07923319 0.07083319 -0.02885433 0.06863209 0.023292037 -0.08005204
-0.07086043 -0.027115136 0.072518304 0.05480452 -0.056365278 0.05893855 -0.063376114 0.037248727

conv2.0.bias f4 [32]
00000000: fa28 8e3d b7ef 5bbd 0c54 cdbc 6b23 c53d
00000010: a528 c23d 4307 ce3b 2e74 28bd b8ae f43c
00000020: dfcd bb3d 6bf1 dfbc de0d b8bb e937 bebc
00000030: 7b1c 363d 5a95 97bd 36cf 20bd ddef db3d
00000040: ea69 153c 69c2 00bd 9ba7 ad3c d13a 0b3d
00000050: d2f7 653d dfbc 893d 666e 16bd 7f90 1f3d
00000060: cc7c 3a3d ba98 6abd a55d 953d f3e5 adbc
00000070: 5968 a8bc d28a 6a3d 3114 59bd ec83 b23d
0.069414094 -0.053695407 -0.02506449 0.09625896 0.094804086 0.0062874868 -0.041126423 0.029868469
0.09170126 -0.027336797 -0.0056168875 -0.02322002 0.044460755 -0.074015334 -0.03926011 0.1073911
0.00911949 -0.031435404 0.021198085 0.03399164 0.056144543 0.067254774 -0.036726378 0.03895616
0.04552917 -0.057274558 0.07293252 -0.021227812 -0.02055757 0.057261296 -0.05299777 0.08716568

conv3.0.weight f4 [64, 32, 3, 3]
00000000: dc7c 183d 2468 e43b 125b 7bbc fbc9 58bd
00000010: e97d 7c3d 7d4a dc3c a84a 4c3d e751 3b3d
00000020: 8c17 623d 614c 5cbc df9c 92bc f248 88bd
00000030: fd1a 653d e65c df3c 8970 9dbc 661b bb3c
00000040: 9e19 47bd 1c15 e93c 448b 41bd 4e26 09bd
00000050: 0bea 9cbc 98e9 bc3c b190 513c 9cd9 89bd
00000060: 27bf 17bd 3daf fe3c 069d b63c 72c2 52bb
00000070: 5c36 3abd cabe 3c3d 59d1 62bc 3122 24bc
00000080: 4c21 5e3d 5656 2ebd ad99 d73b 652d 5b3d
00000090: b137 7fbd bed3 9fbb a6eb 363d 0dee e1bc
000000a0: 7875 8a3c 0cb2 913d 4e52 f3bb b638 a4bb
000000b0: 4627 f5bb 4a6d 3fbc 97ff f13a 86e7 78bd
000000c0: 0053 453d 6b39 703d 157f 1bbd fb5b 8b3c
000000d0: 87d4 393c 79e2 64bd 8a40 f33c 39df 093c
000000e0: 23da 97bc 537e 653d f9af 0dbd 66f0 183d
000000f0: bd3f 103d b49f 0e3d a086 44bc 6710 813d
00000100: 53cd 843c 8331 493d 863f f53b dad0 f6bc
00000110: d2ce 3cbd 2a0b 3abd 119a 53bc a3bb 3d3d
00000120: 630f 14bb e942 12bd f702 3cbd 9f23 aa3c
00000130: 55cb 323d bc9f 21bd 85fe 103d 78a2 5a3d
00000140: 37a7 fb3c d7e7 b33c 6614 c1ba ffc7 293d
00000150: 6b28 143d 2b37 883c 6d93 12bd ce3e f6bc
00000160: a2f4 0b3d f47e 4f3c 4204 47bd 8e9a d03c
00000170: d77a 1ebd fc5e 863c aeab c73c bbc3 43bc
00000180: 3fd1 203d 73a9 7ebb e862 dcbc 619a f83c
00000190: f2a7 68bd 4d26 4bbd 80bd ab3c 6f25 b3bc
000001a0: dfd1 5d3b 1519 62bc 73fc bcbc 9519 5739
000001b0: 7614 303d 4894 83bc 9fa9 a53c e508 7c3d
000001c0: d703 1fbd 38d2 f0ba 54e3 64bd c331 e93b
000001d0: 55c9 8ebb 2042 253d 8c9a 1c3d ddc3 97bd
000001e0: bfe6 b63c fb86 edbc 24b8 c6bc b5e9 24bd
000001f0: e5cd d9bc 6256 9e3b 9e71 f73c 53d0 083c
00000200: 8bc6 5bbc e8a4 0f3d c9e4 d5bb fa51 493d
00000210: 9eb6 13bd 1bff 223d a63f b7bc f728 d4bc
00000220: d83b 52bd e903 55bd a9f3 70bc 463c 423d
00000230: 823a 2f3d 343c 40bd 45cf 473d 9090 17bd
00000240: 1658 13bd d527 10bc 8081 eb3c d0d5 04ba
00000250: 847e 20bd e2ca a33c e0d7 f33c dfa1 5ebd
00000260: 6385 233b 8cfb d2bc 1b69 d9bc ae8a 82bd
00000270: 66bb 4fbc 46b7 3e3d 3cea 823c 72ca 57bc
00000280: b87b 783d fbcf 133d 23f6 c53c 5089 4dbd
00000290: 885e f53c 6ca1 f0bc f033 573d ff24 083d
000002a0: 2cc5 5abd 86e9 29bd ba3c 853d 2105 09bd
000002b0: d581 36bd aa81 103d 78d7 183c efd3 093c
000002c0: a004 3ebd 28e3 71bc f34e 39bc b888 36bd
000002d0: 8a6c 243c 7ca7 e53b 3889 a8bc 7b0d 0a3d
000002e0: 7f0d 5fbd b756 e83c e730 8d3c 4ddc 9ebc
000002f0: 1d0f a1b9 3c81 6abd 5edc 62bc e534 78bc
00000300: 227e c23b b0da 773d 8f84 5a3b 00d8 293d
00000310: fae4 e1bc c329 29bd 6c2b edbc f1e2 67bd
00000320: 7be0 31bd 623e 32bb 97eb 283d 03c9 033d
00000330: 7bb8 343c 1722 bfbc d3c4 623d 7e0b 963c
00000340: 6ec3 23bd a5aa 903c fea1 353c 1b97 c3bc
00000350: c18f 303d 6699 d43c 04bb 983c 4059 60bd
00000360: 4a9e 5f3d c518 84bc 1689 d5bc b2be 523d
00000370: c0ea 933c 4fce 30bc 6b6d f43b b5ef bf3c
00000380: 653d 2dbc d580 083d bc70 273b 399a 853c
00000390: 5d78 b93c 77ab 3c3c 7d68 17bc 383e 2a3d
000003a0: ea8b 76bb 9c51 5b3d 81e4 babc 9b20 213d
000003b0: 7607 853c 0471 b33c 4cdb 59bd 3cd0 10bd
000003c0: a37c 26bc 49b0 d33a 6ceb 20bd 7e0c 853c
000003d0: c27e 44bc 4984 b83c 31b4 cbbc 45dc 59bd
000003e0: d313 5dbd 611a 85bc 28e5 0d3d 247e 4a3d
000003f0: b661 eb3b 39a4 87bc 96e1 f73c 7d57 1fbd
0.03722845 0.0069704223 -0.015341537 -0.052927 0.061643515 0.026890988 0.049875885 0.045732405
0.055198237 -0.0134459445 -0.017897068 -0.06654538 0.05593394 0.027265977 -0.0192187 0.022840213
-0.048608415 0.028452449 -0.047251955 -0.033483796 -0.01915457 0.023060605 0.012790845 -0.06730959
-0.03704753 0.03108942 0.022291671 -0.0032159355 -0.045461997 0.046080388 -0.013843858 -0.0100179175
0.054230973 -0.042562805 0.006579599 0.05351009 -0.06230897 -0.0048775366 0.044658326 -0.027579332
0.016901717 0.07114038 -0.007425583 -0.0050116433 -0.0074814884 -0.011683771 0.0018463013 -0.060767673
0.048174858 0.058648508 -0.03796299 0.017011633 0.011342174 -0.055880044 0.02969386 0.008415037
-0.018536633 0.056028675 -0.03459165 0.037338637 0.035217036 0.034820274 -0.011994988 0.063019566
0.016211187 0.049119484 0.007484379 -0.030128885 -0.046095677 -0.045420803 -0.01291515 0.046321522
-0.002259218 -0.03570834 -0.045901265 0.020768939 0.043650944 -0.039458975 0.03539898 0.0533776
0.030719383 0.021961136 -0.0014730811 0.041450497 0.036171358 0.016627869 -0.035785127 -0.030059244
0.034168847 0.012664545 -0.048588045 0.025464322 -0.038691368 0.016402714 0.024373855 -0.011948521
0.039262053 -0.0038858324 -0.02690263 0.030347051 -0.05680079 -0.049597073 0.020964384 -0.021868436
0.0033847017 -0.013799925 -0.023069596 0.00020513528 0.042988263 -0.016061917 0.020222483 0.06153192
-0.03882202 -0.0018373197 -0.05588086 0.0071165278 -0.0043574967 0.040346265 0.038233325 -0.07410405
0.022326825 -0.028995028 -0.024257727 -0.040261943 -0.026587436 0.004832075 0.030205544 0.00835045
-0.013414036 0.035069376 -0.0065275175 0.049150445 -0.03606283 0.03979407 -0.022369217 -0.02589844
-0.051326603 -0.052005682 -0.014706531 0.047420762 0.042780407 -0.046932414 0.048781652 -0.0370031
-0.035972677 -0.008798559 0.028748274 -0.0005067261 -0.039183155 0.019994203 0.029766023 -0.05435359
0.002495133 -0.025754713 -0.026539376 -0.06374107 -0.012678957 0.046561502 0.015980832 -0.013170825
0.060664862 0.036087018 0.024165219 -0.05017978 0.029952303 -0.029373847 0.052539766 0.033238407
-0.053410694 -0.04148247 0.06505723 -0.033452157 -0.04455741 0.035279907 0.0093287155 0.008412345
-0.04639113 -0.014763631 -0.011310327 -0.04456398 0.010035643 0.007008491 -0.020573243 0.033704262
-0.05445623 0.028361661 0.017235233 -0.019392157 -0.00030719573 -0.057252154 -0.013846485 -0.01514933
0.0059354464 0.06051129 0.0033343171 0.04146576 -0.027575005 -0.041299593 -0.02895137 -0.056612913
-0.043426972 -0.0027197828 0.0412403 0.03217412 0.011030312 -0.023331685 0.055363487 0.018316027
-0.0399813 0.017659495 0.011085985 -0.023875764 0.043105844 0.025952052 0.018643863 -0.054772615
0.054594316 -0.016125092 -0.026066344 0.051451392 0.018056273 -0.010791375 0.0074593327 0.02342973
-0.01057372 0.03332599 0.0025549373 0.01630889 0.022640401 0.01151549 -0.009241221 0.041563243
-0.0037620016 0.053544626 -0.022814037 0.039337736 0.01623891 0.021904476 -0.053187653 -0.035354838
-0.010161552 0.001615056 -0.039287016 0.016241308 -0.011993112 0.022524016 -0.024866195 -0.05318858
-0.053973984 -0.01624793 0.03464237 0.049436703 0.007183279 -0.0165578 0.030258935 -0.038901795

conv3.0.bias f4 [64]
00000000: bc30 393d b4a2 af3d 255e 21bd 6092 373d
00000010: f40b 75bb 0112 863d 3eaa 54bd 71c0 25bd
00000020: f9cc a63d 0083 b8bc 5df2 b43d c0bd b03d
00000030: edfe 9b3c 26f1 42bd 3779 13bd 3e1e 463c
00000040: b3cc 34bd 190e b1bc 6b8f 773d d685 07bd
00000050: 88c9 58bd d747 88bd 1528 70bd edea a33d
00000060: 4def 20bb 584e 8bbd 3243 18bd 1dca 7f3c
00000070: ae74 943d 319a 0d3d e48d 01bc f5fd 48bc
00000080: d167 803d d4f4 b5bc 1715 bc3d e93a a83c
00000090: b78a 86bd 7ac0 a3bc 8974 c9bc 7813 b23d
000000a0: 4719 7cbb 669d 5ebc 6001 8c3c ab68 05bd
000000b0: b74c 0bbd d2dd 7a3d 2a4a 9e3c ec75 5fbd
000000c0: e689 923d 7529 89bd 477e 7e3c 23e7 3fbc
000000d0: 3044 183d 6f70 e63b 51d3 47bd 111d 283d
000000e0: bbe2 bb3d 9bf1 6c3d bd6b 113c 40b8 0c3c
000000f0: 91f8 1cbd 0d79 763d 8445 753d 9010 2e3d
0.045212492 0.08575955 -0.039396424 0.04481733 -0.0037391158 0.06546403 -0.051920168 -0.04046673
0.08144564 -0.022523403 0.088352896 0.08629942 0.019042457 -0.04759326 -0.03600427 0.012092171
-0.04414053 -0.021613168 0.06043951 -0.03308662 -0.05292657 -0.06654327 -0.058631975 0.08003793
-0.0024556697 -0.06802052 -0.037173457 0.015612152 0.072488174 0.034570877 -0.0079073645 -0.012267579
0.062698014 -0.02221147 0.0918371 0.020535903 -0.065694265 -0.01998924 -0.024591701 0.086951196
-0.0038467215 -0.013587331 0.0170905 -0.032570522 -0.034008708 0.0612467 0.019322474 -0.05455582
0.07155208 -0.066973604 0.015533037 -0.011712822 0.037174404 0.007032446 -0.04878551 0.041043345
0.09174105 0.0578476 0.008875784 0.0085888505 -0.03832299 0.060174037 0.05988075 0.042496264

conv4.0.weight f4 [128, 64, 3, 3]
00000000: 069d 113c a203 423c 7dc7 7abc 0d44 413c
00000010: 8aa4 033d 5f3b f8bb 6313 253c 065e a53c
00000020: 39bc eb3c 9e35 eb3c 2ea3 58bc ba5f 08bd
00000030: af64 1f3c 3790 503d 5d1f 123d 508c dabc
00000040: d568 733b 7aad 073c 54c7 243d 3638 b5bc
00000050: da93 053d c890 243d a7f9 bcbc 8420 bd3c
00000060: 1e3c a43c 31ae c2bc 9e52 aebc 54c1 f93c
00000070: 529a 9dbc e30e 893a 9e8c 883c e12d 323d
00000080: 167a 953c eece df3c e713 bdbc f8bf 88bc
00000090: 297a 2fbc bc93 803c c8f7 05bd 3c4a 733c
000000a0: bd9a d0b9 21e9 053c 4929 453d 8461 593a
000000b0: bdc6 fbbc 1b58 163c 8c19 073c 3818 14bd
000000c0: 502a 123d 51f4 a73c d5c3 493c 0d22 3d3d
000000d0: 9aa9 8d3c 2712 3bbb 13a8 07bd 1b26 cd3c
000000e0: d297 06bd 2ac0 253c efe9 113d 8e96 d33c
000000f0: 5e4a 3fbb 8f75 6fbc 3720 37bd 6320 c9ba
00000100: 47af 92bc c391 033c bef2 6b3c 820f b3bc
00000110: 4760 203c 4360 d13c d119 a53c e2e7 363c
00000120: 9d1c 16bd 6460 0bbd 6462 0d3d 2d55 a8bb
00000130: 79fd 033c 0995 27bd de11 b23c 28a6 0ebd
00000140: 98fe 1d3d 55af fbbc 7114 a9bc 49c6 b23c
00000150: e2d5 2c3d 706f 0abd cd0e b6bc 182a 0a3d
00000160: d1d2 f9b8 3883 1d3c 4826 3c3d e022 d73c
00000170: 094c a9bc 3070 b93b 5efc f2bc 9ac1 0e3d
00000180: ea94 a1bc dd32 d0bc 9223 153d ea7c ba3c
00000190: f19a 00bd 2554 9bbc 8950 e5bc 991f 7abc
000001a0: 1ae2 e4bc bbe0 553d bb24 c53b a868 043d
000001b0: f6a2 bc3b d6bd 36bd 1efb 2ebd 0bd5 c1bb
000001c0: 5f88 d4bc caf5 203c ede7 f03c 7d06 ad3c
000001d0: 3894 7bbb 3c7d de3c 829d 8fbc 6881 da3c
000001e0: 168a 833c cdb9 043c a8ce f33c a38b 503c
000001f0: d494 ca3c a00d 063d 0cac 193d fc84 fb3c
00000200: 7604 d8bc bbf5 953b e055 343d e62b 593c
00000210: c7df acbc ddb3 0fbd 0214 48bc 8622 6e3c
00000220: 383b e8bc 7506 4dbc b76b a7bc 4371 edbc
00000230: 9976 debc 95c9 7f3c 61bc 98bc 201f 0bbd
00000240: 558c 9c3c 2888 353d 5c5b 9bbc 96f0 fbbc
00000250: 8783 d93c da33 153c e5c4 493d 566c b4bb
00000260: 4632 e0bc b225 463c 4d3d e0bc c563 21bd
00000270: eb74 87bc 5424 323d 72ef 723c d796 cebc
00000280: 2276 d8bc f728 52bc 8901 643b ddb4 53ba
00000290: c12a 02bd cb8f 0a3d 3852 3abc 39d2 0dbd
000002a0: 0deb c93c 943e acbc 51eb ce3c 9b04 b73c
000002b0: 6135 f53c 7154 b1bc 0f5a 8fbc bf0e bb3c
000002c0: 986f b93c 571c 703a ea99 1f3c 16cc edbc
000002d0: 2441 913c 06d1 193b 4c2b 4b3b 4319 09bd
000002e0: a0a5 de3c aa3d c33c e287 293d e1f9 a83b
000002f0: d348 69bc b221 a0bb d6fd f93c f5b4 2dbd
00000300: 250c 873c 0f4d d2ba 78c2 ac3c 81e3 513d
00000310: 8a5f 213d 9c68 26bb e6a2 4c3b 5c06 32bc
00000320: 5d28 b83c 7091 a93a 1abc a4bc 7dda 81bc
00000330: 2c26 c63c ec6c 08bd a254 9cbb f244 473c
00000340: bf8b b2bc 4721 523c 992b 18bd d814 58bc
00000350: 9047 253d 3fb8 85bc feee 973b 46d0 6d3c
00000360: d204 c1bc e9cc d83c f4b5 0c3d cde2 583c
00000370: 103e 363c 9bd6 15bd 1f55 b53b 5366 1b3d
00000380: 57bf cabc 1f88 a9bc 3846 053d be49 c53c
00000390: 8275 343d 0b59 323b 1c82 34bc 5b2c 1a3d
000003a0: cecd 3dbb 7251 e43c a9d8 81bc f2cb 59bb
000003b0: 8bce 5e3c 8cb0 13bc 16e7 8abc c0ce 7abc
000003c0: dd3d ccba c977 17bd 5f38 cf3c 69fb 94bc
000003d0: cc24 2fbc 33b5 9c3c bbcf c2bc a53e 653b
000003e0: e36f 883c 6c4e 463d 019c e13c c1eb a5bb
000003f0: cd86 473c 332f b63c 3662 1a3d 6ad0 0abd
0.008887535 0.011841686 -0.015306351 0.01179601 0.03213934 -0.007575437 0.010075423 0.020186435
0.028776275 0.02871209 -0.013222499 -0.033294417 0.009728595 0.050918784 0.03567444 -0.026678234
0.0037141342 0.008281106 0.040229157 -0.02212153 0.032611705 0.040177137 -0.023068262 0.023086794
0.020048197 -0.023764702 -0.02127963 0.030487694 -0.019238625 0.0010456707 0.016668614 0.043500785
0.018246692 0.027320351 -0.02308078 -0.0166931 -0.010710278 0.015695445 -0.032707006 0.014849242
-0.0003978814 0.008173258 0.048135076 0.0008292424 -0.030734414 0.009176279 0.008245837 -0.03615591
0.035684884 0.020502241 0.012314756 0.04617505 0.017292786 -0.0028544755 -0.033119272 0.025042584
-0.03285963 0.010116616 0.035623487 0.025828626 -0.0029188613 -0.0146154305 -0.044708457 -0.0015344735
-0.017905844 0.008030358 0.014401136 -0.02185798 0.009788579 0.025558596 0.020153912 0.011163684
-0.03664838 -0.034027472 0.03451766 -0.005137107 0.008056038 -0.040913615 0.021737035 -0.034826428
0.038572878 -0.030723253 -0.02063963 0.021823065 0.042196162 -0.03379768 -0.022223854 0.03373155
-0.00011912513 0.0096138045 0.045934945 0.026261747 -0.02066614 0.0056591257 -0.029661354 0.0348526
-0.019724328 -0.025414879 0.036410876 0.022764642 -0.031397764 -0.018961022 -0.027992504 -0.0152663225
-0.027939845 0.052216273 0.0060163415 0.03232637 0.005756731 -0.044614635 -0.042719953 -0.0059152893
-0.025943933 0.009824226 0.029407466 0.021121258 -0.0038387906 0.027159326 -0.01753116 0.026673034
0.016057055 0.008100939 0.029761627 0.0127286045 0.02472917 0.032727838 0.037517592 0.03070306
-0.026369315 0.0045764125 0.04402721 0.013255095 -0.0211028 -0.03508364 -0.0122118015 0.014534598
-0.02834855 -0.0125137465 -0.020437105 -0.028984671 -0.027156161 0.015612026 -0.018644514 -0.03396523
0.019109884 0.0443193 -0.018964462 -0.030754369 0.026551975 0.009106601 0.04926004 -0.0055060787
-0.027367722 0.012093948 -0.02737298 -0.03940179 -0.016535243 0.043491676 0.014827596 -0.02521841
-0.026423518 -0.01282715 0.0034790954 -0.0008075962 -0.031779055 0.033828538 -0.011372142 -0.034624312
0.024648214 -0.021025933 0.025258692 0.022341063 0.02993268 -0.02164671 -0.017498998 0.02283418
0.02263622 0.00091594964 0.009741286 -0.02902798 0.017731257 0.0023470535 0.0031001149 -0.033471357
0.027178586 0.023833115 0.041389354 0.005156741 -0.014238554 -0.0048868293 0.030516546 -0.042408902
0.016485283 -0.0016044694 0.021088824 0.051242355 0.039397754 -0.0025391942 0.0031225025 -0.010865774
0.022480184 0.001293702 -0.020109225 -0.015851254 0.024188124 -0.033307 -0.004770831 0.012162434
-0.021795152 0.012825317 -0.037150953 -0.013188563 0.04035145 -0.016323207 0.0046366444 0.014514988
-0.023561869 0.026464896 0.03435321 0.013237667 0.011123195 -0.036581617 0.005533829 0.03793938
-0.024749441 -0.02069479 0.03253767 0.024083015 0.044057377 0.0027213718 -0.011017349 0.037639957
-0.002896178 0.027870867 -0.015850382 -0.0033233133 0.013599048 -0.00901426 -0.016955893 -0.015308082
-0.0015582402 -0.03697947 0.025295435 -0.018186288 -0.010689925 0.019129371 -0.023780694 0.0034979966
0.016654914 0.048414633 0.027540209 -0.0050635044 0.012178135 0.022239303 0.037691317 -0.033890165

conv4.0.bias f4 [128]
00000000: db41 7f3d e142 2f3d 235e d33c 2edb 0d3d
00000010: 78ee 693d a810 4c3d 39ac 103d 708d 43bd
00000020: bc74 e23b cdf3 8fbc 4677 edbc 1819 b9bc
00000030: 2baf 303c a988 863d 2c00 10bc dcea d5bc
00000040: a37c a0bc 8b2b 5f3d f236 b63c f1fc ba3c
00000050: 1056 1cbd 324a 643d b735 823d 6e38 723c
00000060: dc1f 17bd b8ec 21bd 57a6 4bbd 1145 e73c
00000070: 139d 763d 7f03 e9bc 9aa2 523d ddce d83c
00000080: e6b2 58bd 35e4 25bd e929 02bd 9d8a 25bd
00000090: bc6c 3a3d 1fc9 c3bc 6036 78bd 3c5b 553d
000000a0: 0a13 c23c 6714 cb3c 6964 0dbd 0dec 6fbd
000000b0: a36f 46bd db47 833d f4cf 603d b60f e23c
000000c0: 69ff 533d 5069 41bd 8628 3c3d 11b5 773d
000000d0: 0c04 80bc a16e eb39 cf63 7a3c 78ff c9bc
000000e0: 2017 b1bc 624a b3bc 1ecd 22bd deef 50bd
000000f0: 292f 023d 597f 8bbc 075f f13c 731b 82bc
00000100: c07b 4f3d 94ef d83c 1324 4b3d 8610 833c
00000110: 421a 603d b00b 26bc d2f1 49bd 5c26 fbba
00000120: f581 3a3d 0a30 0b3d f33b 02bd 937b 093d
00000130: a605 e8bc 20b2 ee3c 1995 00bd 9217 7e3d
00000140: f57e 82bd e8ef 2f3d 8ff6 e3bb d425 aebc
00000150: 49d3 8abc 9890 7abc 7f55 72bd cb2e 323d
00000160: 325b 673c 0c07 7fbc 8e61 5e3d c8df b03c
00000170: 3d2d 073d e1a4 1bbd ee34 ecbc f17b 913c
00000180: 937a 913d dc49 473d f0bc 013d bea3 1f3d
00000190: b322 8d3c 52c6 b23c 44f0 3e3d 57ae 5e3d
000001a0: 236d 633d bf2c e53c 2037 d0bc a908 213d
000001b0: 692c eb3c 1aeb 953d 3642 8abc d1ab cb3c
000001c0: 974f abbb 8562 053d 3bda ae3a 2c8d 64bd
000001d0: 828f 20bd 713a 60bd 8dee ca39 32b7 3fbd
000001e0: 2171 98ba 6336 b7bc a169 76bc fcdc 583d
000001f0: fdb6 dbbc 0675 813d 97a5 6d3d 501f 4fbc
0.062318664 0.04278839 0.025801724 0.034632854 0.057112187 0.049820572 0.035320494 -0.047742307
0.0069108885 -0.017572308 -0.028987538 -0.022594973 0.010783951 0.065690346 -0.0087891035 -0.026112966
-0.019590681 0.054484885 0.022242997 0.02282569 -0.038168013 0.05573482 0.063579015 0.014783962
-0.036895618 -0.039532393 -0.04971918 0.028231176 0.06020839 -0.02844405 0.0514246 0.026465828
-0.052904986 -0.04050084 -0.03177825 -0.040415395 0.045513853 -0.023899613 -0.06059873 0.05208896
0.02369072 0.024790002 -0.034519587 -0.058574725 -0.04844631 0.0641019 0.05488582 0.027595382
0.05175725 -0.047219574 0.045937084 0.060475413 -0.01562693 0.00044905118 0.015282585 -0.02465795
-0.021617472 -0.021886054 -0.039746396 -0.051010005 0.031783257 -0.017028498 0.029464258 -0.01588223
0.050655127 0.026481427 0.04959495 0.01599909 0.05471254 -0.010134622 -0.049302883 -0.0019161212
0.045534093 0.03398136 -0.031795453 0.033565115 -0.028323006 0.029137671 -0.03139219 0.062034197
-0.063718714 0.0429534 -0.0069568823 -0.021258272 -0.016946452 -0.015293263 -0.059163567 0.043501657
0.014120864 -0.015565645 0.054292254 0.021591082 0.033002127 -0.037999038 -0.028833833 0.017759295
0.07103457 0.048654422 0.031674325 0.038974516 0.01722846 0.021823082 0.046615854 0.054365482
0.055524003 0.027975438 -0.02541691 0.0393149 0.0287077 0.07320233 -0.016877275 0.024862202
-0.0052279937 0.03256466 0.0013340184 -0.055798694 -0.03919936 -0.054743234 0.00038706177 -0.046805568
-0.0011630395 -0.0223648 -0.015039832 0.052945122 -0.026820654 0.063211486 0.058019247 -0.012641743

linear.weight f4 [10, 2560]
00000000: 5f93 d3bc 3e4a 0fbd 07e0 1ebc 5a08 a1bc
00000010: fc1c 3cbd ade6 63bc 79b0 f1bc c7e9 1fbc
00000020: 8198 25bc e66d d1bc 865d eabc e0a0 bcbc
00000030: 108a 5ebc ef1c e2bc 952e 49bc c7a6 7cbc
00000040: 4964 f1bc 0b46 b2bc 80a3 c2bc fb6c 9dbc
00000050: 75dc 96bc eced cebb f499 e1bc 2551 dbbc
00000060: bca5 f9bc e409 d9bc 20a2 dfb8 f0e6 51bc
00000070: f72f f7bc cc00 36bd 6534 aabc d3da eabc
00000080: 1f05 a9bc 442c 8fbc 1437 82bc 1b0e e7bc
00000090: 8591 1ebd b9df 87bc 8556 d6bc 37e0 06bd
000000a0: 5897 88bc 5224 403c bd98 50bc 6ecd 1cbc
000000b0: 82c3 96bc 3449 fa3b f891 e4bb 7f30 e1bc
000000c0: 72e7 5f3c 2634 703c 5d35 573c ed6a b9bc
000000d0: c62c 43bc c07e 52ba e6ae 343c cd8f 9fbc
000000e0: da20 75bc a397 4fbc 6951 9fbc f09e eb3b
000000f0: 7f2c 1fbc b1b6 cbbc 81fd 14ba d736 15bb
00000100: a0a7 0bbd 1bf0 16bd a83e 91bc 6109 c1bc
00000110: b006 62bc fed6 d7bc 7fdf 123c 65a9 40bc
00000120: 3474 43bc 0636 3cbc ff82 8cba 7150 35bb
00000130: 3188 013c b50a 80bc ed9d 8cbc 6a5c 2fbc
00000140: dd56 a3bc 2fca 20bd fd3a 05bd 157d 91bc
00000150: 2c5f 34bc 13ae dbbc 3d8d 39bc 05a7 a5bb
00000160: 3a05 cebc 2736 06bd f285 c9bc 9292 a5bc
00000170: 5156 eebc 55ff 02bd e05c d13a bd63 98bc
00000180: a2f8 b5bc cc2d c6bb 9a8e 32bc f941 43bb
00000190: d31c 24bd d887 9bbc 61f0 ddbc e81b 8cbc
000001a0: 06f3 07bd 9643 9fbb 8ce0 d9bc dbf7 32b9
000001b0: d12e aebc ea07 0ebd 3e1a c33b 4ad2 c1ba
000001c0: d5b1 61bc 483a 69bb a211 29bb ecfa 053b
000001d0: aa22 1cbd 7482 fbbb 37af aebc 1005 c1bc
000001e0: aa33 4dbc b334 30bd 30ed f8bb eb55 c0bc
000001f0: f277 46bd b15f 1ebd 11c2 dfbc d8ef debc
00000200: 53fd 57bc 4096 dcbc b0b8 e4bc 4317 16bc
00000210: 0cdc 41bd a7ed 0abd e2a6 28bd 4e8f 46bd
00000220: 2855 3abd bc7d 1bbd 7b8c 34bd cc1d c2bc
00000230: d254 fabb 30a3 95ba f09b 863c aa83 adbc
00000240: 82ad 09bc e714 68bc 5731 6bbb a7e0 bfbc
00000250: 973d 4d3c 9dfb 96bc a34c 7bbc 20c8 0f3c
00000260: 0e75 2bbc 98c8 403b b415 213c 5059 b63b
00000270: b19f c13b 4812 babb e29a b5bc 8690 aabc
00000280: 836b 9cbc 1502 0cbd 410b 80bb 7491 2bbc
00000290: 1e8b 19bc cd36 cabc 0ff6 513b 74de 98bc
000002a0: 28d4 d2bb f0b6 d6bc a25e 80bc 4e4d 983a
000002b0: a941 86bc 1030 a4bb e827 8abc 3426 fe3a
000002c0: 3c43 d7b9 2ce0 b7bc 89b8 0cbd 650c 1fbd
000002d0: 5195 5dbc afc7 85bc 597d a13b 66c6 b8bb
000002e0: 80db 48bc 98ff 9dbc 3d42 4fbb 722d a6bb
000002f0: a03b eabb 409b 413b 99f1 77b9 b878 aabc
00000300: f1c2 3ebc b34e b83b 54ac 3bbc 580c 1fbc
00000310: 17d5 c83b 3a36 babc bf02 7fbc 07e8 7dbb
00000320: be91 ccbc 0f40 b3bb 868e 75bc 6c5b e8bc
00000330: 29e0 ecbb f345 a43a acf5 793b 1314 a9bc
00000340: a7de 70bc 105f d6ba 7172 cfbb 21c0 7cbc
00000350: 1830 0cbd 604b e3bb c7f3 92bc 97c0 30bc
00000360: 7fab 7b3b 7291 5dbc 7660 6e3c 805a 033b
00000370: 8043 403c acb8 ecbc a4be f5bb cb90 563b
00000380: 2c6e e8bc d3ce c13a 152a 7cba 7264 99ba
00000390: 045f 91bb 885d b3bb 66e9 0d3c b91c 0b3c
000003a0: e6a2 b4bc 9a9e 31bc 9e9b 223c a776 93bb
000003b0: 0fe9 13bc c289 9abc 3ac9 acbc 76b1 f539
000003c0: 1c23 8bbc f0f3 123c d15a acbc dfa0 2d3a
000003d0: 65d6 8dbc 2055 a8bb 8f1c c6bb 76fc 8ebc
000003e0: 00e0 44bc da42 94bc f364 89bc 6a9d bb3b
000003f0: 9e64 41bc c0f7 d139 2515 78bc 17f6 a13b
-0.025827108 -0.034982912 -0.009696967 -0.019657303 -0.04592608 -0.013909978 -0.029503094 -0.009760327
-0.010107161 -0.025565099 -0.028609049 -0.02302593 -0.013582721 -0.027601687 -0.012279172 -0.015420622
-0.029466765 -0.021761915 -0.023759604 -0.019217005 -0.018415669 -0.0063149836 -0.02753923 -0.026772091
-0.030474536 -0.026493974 -0.00010663667 -0.012811407 -0.030174239 -0.044434354 -0.020776937 -0.028668797
-0.020632325 -0.017477162 -0.015895404 -0.028204968 -0.038712997 -0.016586171 -0.026164303 -0.03292867
-0.016673729 0.011727409 -0.012731728 -0.009570463 -0.018403772 0.007638121 -0.0069754086 -0.027488945
0.013666021 0.014660871 0.013135281 -0.022633994 -0.01191253 -0.00080297515 0.011028027 -0.01947775
-0.014961446 -0.01267043 -0.019448 0.0071905777 -0.009715199 -0.024867387 -0.0005683527 -0.0022768283
-0.034095407 -0.036850076 -0.017730072 -0.023564043 -0.01379554 -0.026347633 0.008964418 -0.011759137
-0.01192956 -0.01148749 -0.0010720192 -0.0027666355 0.007906006 -0.015630106 -0.017165149 -0.010703186
-0.01993888 -0.039255317 -0.03252696 -0.01775984 -0.011009019 -0.026816403 -0.011325178 -0.0050553107
-0.025148977 -0.032766487 -0.024600003 -0.020211492 -0.029093893 -0.031981785 0.0015973113 -0.018602246
-0.022213284 -0.00604794 -0.010898257 -0.0029793961 -0.04006655 -0.018985674 -0.02709216 -0.01710315
-0.03319075 -0.004860352 -0.02659633 -0.00017067736 -0.021262558 -0.034675516 0.005954056 -0.0014787402
-0.013775309 -0.0035587717 -0.0025797863 0.002044375 -0.038118996 -0.0076754633 -0.021323783 -0.023561984
-0.012524525 -0.043019008 -0.0075966343 -0.023478469 -0.048454233 -0.038665477 -0.027314218 -0.027213976
-0.013182956 -0.026927114 -0.027920097 -0.009160819 -0.047328994 -0.03391805 -0.041174777 -0.04847651
-0.045491368 -0.037961707 -0.044079285 -0.023695849 -0.007639506 -0.0011416432 0.016431779 -0.021180946
-0.008403184 -0.01416514 -0.0035887563 -0.023422552 0.012526891 -0.018430525 -0.015338096 0.008775741
-0.01046492 0.0029416438 0.009831835 0.005564846 0.0059089293 -0.005678449 -0.02216858 -0.020820867
-0.019094234 -0.034181673 -0.0039075916 -0.01047169 -0.009371547 -0.024684334 0.0032037531 -0.018660761
-0.0064339824 -0.026210278 -0.015670124 0.0011619718 -0.016388731 -0.0050106123 -0.016864732 0.0019390048
-0.0004105809 -0.02244576 -0.034355674 -0.03883018 -0.013524369 -0.016330568 0.0049282727 -0.0056388853
-0.012259364 -0.019286916 -0.0031625174 -0.0050713355 -0.007148221 0.0029542 -0.00023645758 -0.020809516
-0.011643157 0.005624616 -0.01145466 -0.009707533 0.006128918 -0.022730935 -0.01556462 -0.0038743035
-0.024971839 -0.005470283 -0.0149875935 -0.028363906 -0.0072288704 0.0012533054 0.0038140817 -0.020639455
-0.014701522 -0.0016355235 -0.006330781 -0.0154266665 -0.034225553 -0.0069364756 -0.017938508 -0.0107881045
0.003840178 -0.013523446 0.014549365 0.0020042956 0.011734843 -0.028896652 -0.007499533 0.0032740112
-0.028372847 0.001478637 -0.0009619308 -0.0011702909 -0.0044363756 -0.0054737963 0.008661604 0.008490735
-0.022050332 -0.010841036 0.009924797 -0.0045002284 -0.0090277335 -0.018864516 -0.021092046 0.0004686226
-0.016984515 0.008969292 -0.021039398 0.0006623398 -0.017314145 -0.005137101 -0.006045885 -0.017454367
-0.012016296 -0.018098284 -0.01677177 0.0057255523 -0.011803774 0.00040048175 -0.01514176 0.0049426663

linear.bias f4 [10]
00000000: c8de 14bd d2ad fc3b b575 363d 4e4d d3bc
00000010: 8303 fb3c e2dc 1cbd 2a7a eb3a bac6 8d3c
00000020: 9294 983a c239 d2bc
-0.036345273 0.0077111507 0.044545848 -0.025793698 0.030641323 -0.038296588 0.0017965485 0.017306674
0.0011640957 -0.025662307
