project/feedforwardnet.pth (torch, 494811 bytes, 10 tensors)

conv1.0.weight f4 [16, 1, 3, 3]
00000000: 7d3f 2f3d 4ed4 ab3e 7dd2 913e 1c89 1c3e
00000010: 5741 6a3e fcbe 4a3e fb48 d0bd 176a 6e3e
00000020: 68c1 063c 8efd 9c3e 6341 84be dc9b 6a3e
00000030: ee1b 92be 6abc c73c c49a afbe 4e37 be3d
00000040: f4c6 91be 9be8 1e3e f5f7 6ebe 461a 50be
00000050: c25f d1bd 2e14 66be fed6 abbc e075 50be
00000060: ffb4 283e dbdb 7ebe 19c6 e3bc e9fb 373e
00000070: b3bd 86be 1bb2 c5be 9c84 e83d ed42 98be
00000080: 96d4 bf3c 91e7 a13e 2432 aa3e a88a 80be
00000090: 760e a3be 2768 99bd 5970 763e 6e51 023e
000000a0: c8bf 523b 2c53 51be 7daf bf3d 5b78 66be
000000b0: e7bf 8ebe 2246 73bd a3a7 98be 24dc 1c3e
000000c0: f846 813d 287e b53e aeb5 b43d 1140 ad3d
000000d0: f7e9 2bbd 6ab9 6a3e 918d 2c3e 231f cb3e
000000e0: 28f7 5bbb 6460 c13e 7c78 6c3e 449e 673e
000000f0: 98e7 1a3e 98a8 25be 83f5 debd 8a04 71be
00000100: 54db 5c3e d311 a43e bb7c 9abe 23f7 8c3d
00000110: 4edb 7bbe fe96 a53e 200a 48bd a2f8 773e
00000120: a367 5cbe f919 edbd fbc1 e03c 1007 b9bc
00000130: c448 3a3e f568 b0bc 1223 063e 5d9e c53d
00000140: b9e7 b1be e165 b03a 434b 51be 69d0 823e
00000150: 8a43 9fbe 1fd9 623e 62ef a83e 3944 98be
00000160: 2a05 e4bd 3e9e ee3c 0044 2cbd a24a 8f3e
00000170: 2590 4d3e 59c9 aabe 4d53 91be db54 d93e
00000180: e5a9 c8bd 6048 3cbe cfb4 54be 9fa4 6ebe
00000190: df31 7bbe bd94 0abe 42c8 47be 4367 853e
000001a0: a887 a83e 753b bfbd 1ee7 5a3e 53a1 933d
000001b0: 308f 2bbe f393 8abe 987e 2f3e e5b7 87be
000001c0: ee37 81be 7917 503e 4d5b 3dbe 8ee6 a33e
000001d0: f1ef 613e 2355 91be 8e0d b8bc 64a1 20be
000001e0: 8189 83be 4f45 073e e59b 4f3d 8c22 b03e
000001f0: e3d8 63be 9f86 5fbe 8b83 2cbe 91b6 333e
00000200: 2c2c 75be cb90 303d be42 d73b 7fef acbd
00000210: e13d 2fbe 8edb 413d 6889 f3bc 2d6c 803d
00000220: 05c9 4cbe dba3 f83d 4626 923e 4fd1 a9be
00000230: 7450 223d 3e59 1e3e 8bad c0be ef74 3e3e
0.042785157 0.33560413 0.28480902 0.15286678 0.22876488 0.19799417 -0.1017017 0.23282658
0.008224823 0.30662197 -0.25831136 0.22911018 -0.28536934 0.024381835 -0.34297764 0.09287892
-0.28472102 0.1551842 -0.23336776 -0.20322523 -0.102233425 -0.22468635 -0.02097654 -0.20357466
0.16475295 -0.24888556 -0.027804421 0.1796719 -0.26316604 -0.38612446 0.11353418 -0.2973856
0.023416799 0.31621984 0.3324138 -0.25105786 -0.3184697 -0.074905686 0.24066295 0.12726375
0.0032157768 -0.20441884 0.093596436 -0.2250685 -0.27880785 -0.059393056 -0.29815397 0.15318352
0.06312364 0.35447812 0.08823715 0.08459485 -0.041971173 0.22922292 0.16850878 0.39672193
-0.0033564065 0.37768853 0.23092836 0.22618967 0.15127409 -0.16177595 -0.108866714 -0.23536888
0.21568042 0.3204485 -0.30173287 0.06883075 -0.24595377 0.3234176 -0.04883778 0.2421594
-0.2152391 -0.115772195 0.027436247 -0.022586375 0.1819182 -0.021534422 0.13099316 0.09649346
-0.34747103 0.0013458097 -0.20438866 0.2554963 -0.31106216 0.22153138 0.32995135 -0.2973955
-0.111337975 0.02912819 -0.042057037 0.27986628 0.20074518 -0.3335674 -0.28383866 0.42447552
-0.0979803 -0.18386984 -0.20772098 -0.23304985 -0.24530743 -0.13533302 -0.19509986 0.26055345
0.32915998 -0.093375124 0.21377227 0.072085045 -0.1675384 -0.27066 0.17138135 -0.26507488
-0.25237983 0.20321454 -0.1849186 0.32011837 0.22064187 -0.28385267 -0.0224674 -0.15686566
-0.25690845 0.13210033 0.050685782 0.34401357 -0.22250704 -0.21828698 -0.16847055 0.17550112
-0.23942631 0.043106835 0.0065692356 -0.08444118 -0.17113449 0.047328524 -0.029728606 0.06270633
-0.19998558 0.12140628 0.28544825 -0.33167502 0.039627507 0.1546373 -0.37632403 0.18599294

conv1.0.bias f4 [16]
00000000: 26f5 1ebe fb81 513d b4e5 93be ce3e 75be
00000010: 0180 5cbe a9d1 4dbc bba6 3dbe a660 febb
00000020: 5461 6b3d b0f3 22bd 42a7 293c 795d 69be
00000030: 7f30 7a3e 1a83 853e df47 c03c 1346 d539
-0.15523204 0.05114935 -0.28886187 -0.2394974 -0.21533205 -0.012562194 -0.18520634 -0.0077629862
0.057465866 -0.03978318 0.010354819 -0.22789563 0.24432562 0.26076585 0.02347177 0.00040678735

conv2.0.weight f4 [32, 16, 3, 3]
00000000: acfb 05bd e032 e1bc b36c 273c fd12 963c
00000010: 5995 94bd 2f95 1abd a80a 85bd 2376 e63c
00000020: 5add acbd 5aff 253b c5cf 65bc bf43 1ebd
00000030: 5ad4 1fbd 8a5a 23bd cbac b3bb 93b1 f03d
00000040: db53 99bb 6531 1cbd 8622 a93c 12c2 f63b
00000050: c30c bbbc 88d6 983d fe06 a4bd 133a d03c
00000060: e7d6 2bbd 0f96 e53d 3f77 56bd a384 b73d
00000070: 84fd ddbc c554 ddbc a362 62bd 4f9b 3b3b
00000080: e321 d3bd e2e4 103d 818a 843d 4614 80bd
00000090: 7edc d7bc 8b6a 713c 5e09 a03d 7cc9 b23b
000000a0: f8f1 843d 4cfe 4f3d 0c1f a5bd f0f5 813d
000000b0: 666e 61bd 8193 a8bb e63e 98bd ee07 633d
000000c0: e353 6d3a ce48 f13c 2ca6 3e3c c10b 46bd
000000d0: 1521 6c3d 99b2 c63c 1791 a7bc 2ba2 06be
000000e0: 813f 8abc f765 443d 8bc0 d2bc ac33 eebc
000000f0: 78cf 9a3c e750 463c 423a a4bd 68e8 a83d
00000100: e3e3 b73b 9415 0bbc 29a4 573d a022 a3bd
00000110: 7fda 163d 6a3e a83d 5586 cdbc 53e9 36bd
00000120: 8914 6a3d dd4c 03bd 6eb7 afbb 6b8e 93bc
00000130: 6d57 a4bd 5b07 793a 9591 4cb9 7a7f 0ebd
00000140: c0a0 04bd b0d0 debd 9574 1cba 7e25 af3c
00000150: ac7e 393d d048 4c3d 4c59 4c3d 7a80 5b3c
00000160: be39 393d a363 903d 8154 753a 7d80 f4bd
00000170: c9ed 7c3d 7e8c a0bd 63c9 01be 8831 a93d
00000180: 0124 ac3c 1e8a 07bb 5551 87bd eadc c5bc
00000190: ac8a f6bb 2133 81bd 2769 3c3d b669 80bd
000001a0: 73b3 263d 27c6 6fbd 0dea 4d3d e97d 64bb
000001b0: b2e2 e4bc 91a6 083d c317 46bb 144c c2ba
000001c0: 8205 103d f987 5e3d 377c 95bc 4075 55bd
000001d0: 7527 93bd fa22 33bb a915 6b3d ee49 b5bd
000001e0: 1a65 0f3e d723 a8bd a3cf f7bc fd5e 993d
000001f0: d996 5c3d 7986 bfbb 0304 0cbd 4501 35bd
00000200: 9d41 233d 22dd 4fbd 0f94 83bc 2d4e 38bd
00000210: 4b1f b63d 1b26 4abb fcd3 b9bb 8853 1d3c
00000220: e8d6 5bbd f130 123d 358f 483d 8b85 653c
00000230: c643 24bd c66b edbc 86c9 c33d 70a9 ca3d
00000240: 7bd3 69bd 8935 3f3d 7445 2d3d bcdc f1b8
00000250: ca34 7c3a 4d60 13bd a317 18bd 398e 6cbd
00000260: b4e0 afbc 2009 78bd 17ce a13d f236 48bd
00000270: 9b0c 9fbd 9d6b 07bd efb1 13bd bda8 2dbb
00000280: c9a2 5ebd 7757 5dbd 3485 b5bd d3a8 c53c
00000290: a49f dcbc e07f 213d 1d62 073d 46a8 dbbd
000002a0: cb44 0c3e e095 853c f38b 87bb 2f58 823b
000002b0: dfba 493d 1b32 2a3d 8d2b 833c fcf7 9e3d
000002c0: 706b 48bd 4205 7a3c 14a8 d4bc 3c6c dc3c
000002d0: 2635 083d ebfb bbbc fdd4 c5bc 418d ae3d
000002e0: f5ac c23d cb5d 75bd e37b 8b3d 1e17 5ebd
000002f0: 7a6d b9ba 145b 1fbd a497 533d 30c7 22bd
00000300: 3e23 d0bd a5c1 443c da33 e93c e851 04bd
00000310: 6947 eebb d886 f13b 67cb 4b3d 9296 d1bd
00000320: f726 9abd 00e7 91bd f6c2 91bd 5705 b13d
00000330: 3d6a 633d 9828 adbd 55a5 8cbd 6b85 b8bd
00000340: 4a6c 603d 4003 3f3d 015a 9bbd b2f3 9fbd
00000350: 1094 5e3d 9428 0abc ff94 96bd 30b6 b83d
00000360: 6033 183d e2d7 36bd 8ad8 e9bd 9f6d b73d
00000370: bc1e 843d 3239 ebbc ecd8 8f3d 7c3a efbc
00000380: be8a 2d3c dee3 a0bd 46fc 733d ff40 4fbd
00000390: 472f 03be 1837 9a3d 18b4 393d 5f60 e4bc
000003a0: 7171 71bd 3f51 803d 8d30 cebc 87ee 563d
000003b0: d9fc 9c3d 5296 94bd 1274 973d a02a 983d
000003c0: 9d67 0d3d c549 a7bd a416 9f3d 1442 c9bd
000003d0: a0d0 34bd 7d94 f1bc ee5c 78bc 7bf6 8c3d
000003e0: 09ed bf3c dcc4 513d 9191 90bd 5e78 8cbd
000003f0: fdc2 e83c 635d 0a3c e615 26bd e04d 17bd
-0.032710716 -0.02749008 0.010218787 0.018319601 -0.07255048 -0.03773993 -0.06496173 0.028132504
-0.08440657 0.0025329203 -0.014026587 -0.038638826 -0.039020874 -0.039881267 -0.005483245 0.117526196
-0.004679186 -0.038133044 0.020646345 0.007530459 -0.022833234 0.074627936 -0.08009146 0.025418317
-0.041952994 0.11210262 -0.052359816 0.08960845 -0.027098425 -0.02701796 -0.05526985 0.0028626507
-0.10309198 0.03537453 0.0647173 -0.06253867 -0.026350256 0.0147348745 0.07814287 0.0054561477
0.064914644 0.050779626 -0.08062562 0.06345737 -0.055036925 -0.005144537 -0.07433872 0.055427484
0.00090533326 0.029453661 0.011636298 -0.048351053 0.057648737 0.024255084 -0.020454926 -0.131478
-0.016875984 0.047948804 -0.025726577 -0.029077373 0.018897757 0.01210425 -0.08018924 0.08247453
0.005611883 -0.008489031 0.05264679 -0.079655886 0.036829468 0.082150295 -0.025088469 -0.04465611
0.05714849 -0.032055724 -0.0053624427 -0.018012246 -0.08024488 0.0009499692 -0.0001950919 -0.03478954
-0.032379866 -0.10879648 -0.00059683 0.021380182 0.04528682 0.049874127 0.049889848 0.01339733
0.045221083 0.07050254 0.00093586004 -0.1193857 0.061750207 -0.07839297 -0.12674479 0.082614005
0.021013262 -0.002068169 -0.0660731 -0.024153192 -0.007523855 -0.0630858 0.04599872 -0.06270163
0.04069848 -0.058538582 0.050272036 -0.0034865087 -0.027940128 0.033361975 -0.0030226565 -0.0014823698
0.035161503 0.054328892 -0.018247707 -0.05211377 -0.0718526 -0.002733408 0.057393704 -0.088519916
0.14003411 -0.08209961 -0.030250376 0.07488821 0.053854797 -0.005844888 -0.034183513 -0.044190664
0.039857496 -0.050747998 -0.01606181 -0.04499643 0.088926874 -0.0030845467 -0.0056710225 0.009602435
-0.053671747 0.035691205 0.048964698 0.01400889 -0.040103696 -0.028982054 0.09559922 0.09895599
-0.05708645 0.046681914 0.042302564 -0.000115328905 0.00096209033 -0.03598051 -0.037131917 -0.05775282
-0.021469451 -0.060555577 0.07900637 -0.048880525 -0.07766076 -0.033061612 -0.036058363 -0.002649828
-0.054354463 -0.05403849 -0.08863297 0.024128353 -0.026931591 0.03942859 0.033052552 -0.10725455
0.13698117 0.016306818 -0.0041365563 0.0039777975 0.04925048 0.04155169 0.016011978 0.07762143
-0.048930585 0.015260043 -0.025959052 0.026907079 0.03325381 -0.022947272 -0.024149412 0.08523036
0.09505645 -0.0599039 0.06810739 -0.054221265 -0.0014147006 -0.03890522 0.051658288 -0.03974074
-0.10162972 0.012009059 0.028467108 -0.032304674 -0.0072716963 0.007370811 0.049754526 -0.10233797
-0.07526963 -0.07124138 -0.07117264 0.086435966 0.05552124 -0.08455008 -0.06867472 -0.090098225
0.054790772 0.04663396 -0.07585526 -0.07810153 0.054340422 -0.008432526 -0.073526375 0.090191245
0.03715837 -0.044639476 -0.11418255 0.089564554 0.064511746 -0.028713796 0.070237964 -0.029202692
0.010592161 -0.07855962 0.05956676 -0.050599094 -0.12811004 0.075300395 0.045337766 -0.027877985
-0.058946077 0.062654965 -0.025169635 0.05247357 0.07665414 -0.07255234 0.073951855 0.07430005
0.03452264 -0.08168367 0.0776799 -0.098270565 -0.044144273 -0.02948975 -0.015158875 0.0688295
0.023428457 0.05121313 -0.070590146 -0.06858896 0.02841329 0.008445117 -0.040548228 -0.0369395

conv2.0.bias f4 [32]
00000000: cc3f 88bd 78f7 75bc 9502 8dbd 9c79 e03b
00000010: 75ca 233c e10d b0ba 1066 a63d 7056 56bd
00000020: 0816 4c3c d94d c7bc fc1b a4bc a146 403c
00000030: f364 c93c c3fa dabc 95bd d3bd e6fc 753d
00000040: a8f6 823d 96bf 4f3d 6d1a 34bd c28c b8bd
00000050: befa 873d 4c0c d23c 4045 a13d b5dd 5c3c
00000060: c915 e03d 0a9f a1bd 45d0 ca3d 5276 51bd
00000070: 2013 f83c abf1 093d 02a7 f3b8 7d01 833d
-0.06652793 -0.015012614 -0.06885258 0.0068504345 0.009997 -0.0013431871 0.081249356 -0.052328527
0.0124564245 -0.024329113 -0.020032875 0.011735589 0.02458427 -0.0267309 -0.10338894 0.060055636
0.06394702 0.05071982 -0.043970514 -0.090112224 0.06639622 0.02564063 0.078745365 0.013480593
0.10941655 -0.078916624 0.099030055 -0.05113823 0.030282557 0.03367774 -0.000116182506 0.06396768

conv3.0.weight f4 [64, 32, 3, 3]
00000000: 079c 60bd fef0 643d 1054 453c 6041 e93c
00000010: 57aa 1c3d 1c27 66bc 01a1 fc3c cacd a7bc
00000020: d9e4 38bc 908d e1bc 51e1 7b3d 7d08 083d
00000030: 04ef 43bb c457 ae3c fc02 35bd b3a1 75bd
00000040: 26e2 12bd f3d4 65bb e68f 813d 05f8 efbc
00000050: ef58 6dbc 80a2 25bd fa45 2d3d a44a 7d3b
00000060: 3e2b 08bd 2901 2a3d 8c7b f5bd b62b a5bd
00000070: 81c7 39bd 01b7 833d 27c3 5fbd e1ad 83bd
00000080: 1310 c2bb 2b36 edbc 0044 12bc d9cf 08bd
00000090: 32aa 063d c1b3 b1bb 3400 41bd ec01 6b3d
000000a0: 5c09 a1bd eb30 babc 551d f33b ab04 843c
000000b0: a201 f7bd 8d4c 333c e1f5 b1bc 8aa4 003d
000000c0: c289 a03d 4d31 47bd 2cd9 47be 06d1 523c
000000d0: d1fb dbba ed53 973b 9ea2 023d 4e16 0d3b
000000e0: 55d2 b7bb d2bb b53c 55d3 84bd ae27 31bc
000000f0: aaf0 82bd 6e01 f2bd 8e11 a5bd 41e4 55bb
00000100: 7b4e 083c 4502 aa3d 6df6 393d 19f7 81bd
00000110: 5df1 36bd 2d5f 3a3d 9bac 83bb 8a39 92bd
00000120: 59d4 09bd 1cfd 803d 265d 3f3d 8152 bd3c
00000130: 248c babd 26ad 87bd 36d0 813c 0822 3c3d
00000140: d030 94bd 5905 453d f093 90bd 4e9e 1cbd
00000150: 6178 65bc c933 853c 9848 cebd 6f2b 073c
00000160: 3c04 0b3c abb2 e7bd 8eed 623d 32eb 83bc
00000170: fe2e 283d ef49 71bb cfee bdbc b45f c3bd
00000180: 17e2 65bd 04aa 263d 760b 90bc 4544 313d
00000190: 3896 503c ccff 06bd d4ba 25bd c709 53bc
000001a0: 48cd 41bd 97ca 97bb a2bd 193d 7451 213c
000001b0: 4341 97bd 7cf7 773d 10a9 be3b 4657 40bd
000001c0: 3594 1b3c 4169 a6bc 097c 803d 6ae3 2bbd
000001d0: 25be 78bd f952 5c3d f8ac 743c fad8 ac3d
000001e0: ddcf 9f3d 5978 c33c bba6 b6bc bb62 243c
000001f0: 0227 363c 6838 5bbd 3b3e 0fbd 9ccb 7e3d
00000200: 241a 00bd 2d1f 673d ff1c 06bd d5c2 d3bd
00000210: b1f9 f7bb e171 90bd 643b d5bd 6e98 2b3c
00000220: a00d dc3c 1f49 56bd 5640 a4bd 3345 813d
00000230: 9a4f 463d 992a 023d f940 f83c 6e03 693d
00000240: a5c0 54bb 1486 933d 8182 8a3d 0299 90bc
00000250: 3534 c7bc a3a0 f4bb 35fe 353d 2617 fd3c
00000260: 41a2 08bd 6d40 0bbd 8a3d 883d 6c3f 963d
00000270: 9ef2 a63d 3265 4b3d 80c4 543d 4dda 173d
00000280: 716d 803c 88ec b23c f672 923c 34c3 9d3d
00000290: 4dea 2c3d ca39 a2bd bc54 1cbd 647a 85bc
000002a0: 1aac e4bc 230d 53bd b024 f9bc 492b 3a3d
000002b0: ad19 5a3d 81f3 c93c 27aa 043d 95f4 bdbc
000002c0: ceda 9fbc 6a50 a83c e726 95bc d3d2 a33c
000002d0: 7f03 653d 5fd9 023d 2627 2c3d df25 a1bd
000002e0: a390 153d 58f0 493d d7e0 f23c 81df 543c
000002f0: f601 5a3d aa5b d8bc ee00 103d 2721 89bd
00000300: b823 963d f0a7 a63a 1ce1 d83b 574c 103c
00000310: 7188 a03d c3de 07bc a0db 5f3c 02e5 2dbd
00000320: 355c f43c e621 783d 0044 e63c 724a 843d
00000330: a93c 56bb 6167 cf3a 69b1 86bc 750a 2cbb
00000340: bab8 c63b b110 19bd 603c 69bd e5a9 5abd
00000350: 494e 263d 8c06 133c a437 3dbd 7262 f63c
00000360: 6d44 8e3d eb52 fbbb b33b 923d ebfb ddbc
00000370: 11d0 b03d 6576 113d 8470 943d 3b31 463d
00000380: cc6a e13c 264b 193c 3492 8c3c ddb4 953b
00000390: a95e 2f3d 80c8 b7bd 73b6 f13c 4ec4 26bd
000003a0: 610f aebc 59ba 39bd 3df9 2a3c c462 5a3d
000003b0: 49b1 ab3c 3476 363c 6e2d 153b 87e7 6a3d
000003c0: dc78 6e3d 303d a13b dfd1 66bd 8e24 d3bc
000003d0: cf75 c63b 0f40 1c3d 1b62 34bc af5e 333d
000003e0: 9d99 2e3c 65f2 f1bc 8507 a9bc 73c9 88bd
000003f0: 44c3 f53b 8585 a8bd 5402 553d 16ff 913c
-0.0548363 0.05589389 0.012043968 0.028473556 0.038248386 -0.01404741 0.030838491 -0.02048387
-0.01128503 -0.027533323 0.061494175 0.03321122 -0.0029897103 0.021282084 -0.0441923 -0.05996866
-0.035860203 -0.0035069555 0.063262746 -0.02929307 -0.014486535 -0.040438175 0.042303063 0.0038649226
-0.033244364 0.041505013 -0.11986455 -0.08064978 -0.045356277 0.064313896 -0.05462947 -0.06429649
-0.0059223264 -0.028956493 -0.008927345 -0.033401344 0.032877155 -0.0054230397 -0.047119334 0.05737488
-0.07863113 -0.022728404 0.007419268 0.016115507 -0.12060858 0.010943544 -0.02172369 0.031406917
0.07838775 -0.048631 -0.19516438 0.012867218 -0.0016783421 0.004618159 0.031893365 0.0021528187
-0.0056097903 0.022184286 -0.06485621 -0.010812683 -0.06393559 -0.11816679 -0.08059989 -0.003263727
0.008319492 0.08301214 0.045401026 -0.06345958 -0.044663776 0.045500923 -0.004018379 -0.07139881
-0.033649776 0.06298277 0.046719693 0.02311063 -0.09108761 -0.06624822 0.015846353 0.045930892
-0.07235873 0.048100803 -0.07059467 -0.03823691 -0.014005751 0.016260045 -0.1007244 0.0082501015
0.008484896 -0.11313375 0.05540233 -0.01610336 0.04106044 -0.003681775 -0.023185162 -0.09539738
-0.05612382 0.040689483 -0.01758359 0.043277998 0.012731127 -0.03295879 -0.040461376 -0.012880749
-0.047314912 -0.004632305 0.037534364 0.00984608 -0.073854946 0.060538754 0.0058184937 -0.04695823
0.0094957845 -0.02031386 0.06273658 -0.041964926 -0.06072821 0.053790066 0.014933817 0.084398225
0.07803319 0.023861097 -0.0222963 0.010033305 0.011117699 -0.05352059 -0.034971457 0.062205896
-0.03127493 0.056426216 -0.032742497 -0.10339896 -0.0075676073 -0.07052971 -0.104117185 0.010473354
0.026861966 -0.052315827 -0.080200836 0.06312027 0.048415758 0.031778906 0.030304419 0.056888036
-0.0032463458 0.07203308 0.06763173 -0.017651085 -0.024316886 -0.0074654385 0.044431884 0.030894827
-0.033357862 -0.033996988 0.06652363 0.073363155 0.08151744 0.049657054 0.05194521 0.037073422
0.015677186 0.021841303 0.017877083 0.07703248 0.042215634 -0.07921179 -0.038166746 -0.016293712
-0.027914096 -0.0515262 -0.030413002 0.045451436 0.053247143 0.024652245 0.032388832 -0.023187915
-0.019513514 0.020546157 -0.018207027 0.01999799 0.055911537 0.031945582 0.042029522 -0.078685515
0.03651489 0.049301475 0.029648228 0.012992741 0.053224526 -0.026410896 0.035157137 -0.066957764
0.073310316 0.0012714844 0.006618632 0.008807263 0.07838524 -0.008292857 0.0136632025 -0.042454727
0.029829124 0.060579203 0.028108597 0.06459512 -0.0032689965 0.0015823656 -0.016442018 -0.002625135
0.0060645016 -0.037369434 -0.056942344 -0.05338468 0.040602002 0.008973729 -0.04619564 0.03007624
0.06946645 -0.0076697967 0.07140293 -0.027097663 0.086334355 0.0355133 0.07248023 0.048386794
0.027516745 0.009356296 0.017159559 0.0045686797 0.042814884 -0.08973789 0.029505944 -0.040714554
-0.021247568 -0.04534373 0.0104354 0.053316846 0.02095856 0.01113658 0.0022762674 0.057349708
0.05822073 0.004920624 -0.056352492 -0.025774267 0.0060565243 0.03814703 -0.011009718 0.04379147
0.010656741 -0.029534528 -0.020633468 -0.066790484 0.007500084 -0.08228592 0.052004173 0.01782183

conv3.0.bias f4 [64]
00000000: 5f15 7d3d 5613 b53c 378c 1f3c f211 a93d
00000010: 58b1 18bd eafa 923d 375e f33c bb96 40bd
00000020: 5bfe 52bd a10a 71bc b447 86bb deff 833d
00000030: 3aca e6bc 75e8 843d a7b8 a83d b9cf 33bd
00000040: 49f1 643c 1ed8 aeba dee8 ebbc 3f49 a9bd
00000050: c318 6e3d 5fa3 61ba 288c bb3c 0f73 16bd
00000060: fe9e 84bd 9459 c63d b4fc 9d3d 04f8 17bc
00000070: 552a e0bc 4bcc e9bc 1f44 44bd 952d 943d
00000080: 4435 a03d 9dfb 44bd c1d6 3abd 313d 9a3d
00000090: 7009 8dbd 1eaa 933d bdcc 3b3c b0ea 00bd
000000a0: fb3d 4d3d 6be7 653d 88a6 72bd 8b10 823d
000000b0: 20b4 d8bc 1723 5b3d 4af2 293d c949 88bd
000000c0: 5765 cfbc 2fed 83bd 1088 663c c4c2 c13d
000000d0: d39b 833b a1d0 8d3d 5eae 7bbb a282 103d
000000e0: f514 483d d8d4 ddbd c995 613d e3bd 14bc
000000f0: 8748 9e3d c5c3 59bd 3f75 53bc a69e e2bd
0.06178796 0.022103947 0.00973802 0.08255376 -0.037278503 0.07176764 0.029708011 -0.047018748
-0.051512104 -0.014712007 -0.004097903 0.06445287 -0.028172601 0.0648965 0.08238345 -0.04389927
0.0139735425 -0.0013339554 -0.028797563 -0.08265924 0.058129083 -0.0008607413 0.02289398 -0.036730822
-0.06475638 0.096850544 0.07714215 -0.00927544 -0.027363935 -0.028539797 -0.047916528 0.072352566
0.078226596 -0.04809152 -0.04561496 0.075312026 -0.06886566 0.07210182 0.011462388 -0.031473815
0.050107937 0.0561289 -0.059240848 0.063508116 -0.026453078 0.05350026 0.04149083 -0.066546984
-0.025316877 -0.064417236 0.014070526 0.09460977 0.0040163784 0.069245584 -0.0038403491 0.03528083
0.04884811 -0.10831612 0.055074487 -0.009078476 0.07728677 -0.053165216 -0.012906372 -0.11065416

conv4.0.weight f4 [128, 64, 3, 3]
00000000: 6465 c6bd 9a03 09bc 68a9 b73c 76b1 d63d
00000010: ec0b d3bb 4bac 803c 3631 a13b 4ecc 963c
00000020: 754a ac3b ea7c 7a3d 7563 113d 7858 123c
00000030: 6e6e 8c3d a51d 99bd f0ed 073c bab3 0b3c
00000040: 71ea 1a3d 949c 18bc 6098 7fbd 7641 98bd
00000050: b426 a23c feb9 3c3c b1fc efbc 1aa0 bc3b
00000060: ebf7 153d 9317 b73b 873e 2d3c 9a74 26bd
00000070: 27e6 69bd 9723 5bbd 2adb 2f3d 6af9 a3bb
00000080: 885e f0bc 59ac 5e3d 06b2 80bb 969d ca3c
00000090: d8cc a4bd b51e 00bd cf1a 003d 9e9e 5a3d
000000a0: 9a4a 2dbb 73ff 0fbd baf2 473c 04e0 743b
000000b0: 7997 92bc 48e7 a43c 4b28 f73c 8782 9abc
000000c0: c731 793d 0590 083d 5e4d 103d be27 033c
000000d0: 494f 4b3d d31e 06bd 3859 bbbd 9e33 723c
000000e0: 4946 5dbd 0e38 f93c 6bf6 b4bc 52e0 04bb
000000f0: 7c41 803d c46d 883c 25ec 84bd d5c4 8c3c
00000100: 983c 853c 9ff9 0a3c 1f35 22bd 78f4 91bc
00000110: 0d2c 673c 01be 49bc de64 a13a 2ed8 1bbd
00000120: 2c99 06bd ea01 eabc 42ff 12bd c8e7 c13d
00000130: e0f7 84bd 0450 553c 8108 b5bc 277a 9f3b
00000140: d6b1 16bd f1a2 3bbc 7ee0 6dbc f77f 23bd
00000150: c78c 12bd c0aa 823c 845f 13bb e9f5 2cbc
00000160: 69a5 363d 8e47 84bc 65fa c4bb 151c db3b
00000170: d4ad 88bc 0f90 84bd cdf4 54bd bec5 023d
00000180: b91b b2bb 5bc0 9fbc 3db9 ab3b 9579 b9bc
00000190: c7ea 4ebd 63fa ea3c fa89 89bd 054d 83bc
000001a0: 30f4 553c 6896 033b dda6 54bc 9cb7 c73c
000001b0: b37a c2bd ee70 393c 3b18 4cbd 4e89 073e
000001c0: e220 a4bc 0274 5ebd 0499 ba3d c994 91bc
000001d0: 6458 2bbc c6a3 40bd dd22 113d e0c3 8ebb
000001e0: ab4b 773b b9e3 6cbc 0381 96bc a4d0 fb3c
000001f0: 833a 063d 1e5f 49bc 6d10 443d c7be 6dbd
00000200: 0bef 3abd 62a7 0abd 56dd ab3c 21b2 713c
00000210: 36e0 e93d c7f4 f5bc bb57 47bc d49c c03c
00000220: a16b 6b3c c4a9 42bd 58f6 683d c1de 18bd
00000230: ab0c 0fbd c13d c23c dfdd 433c d544 62bd
00000240: b956 78bd 95f3 1ebd e553 ddbc d8db 413d
00000250: c6c0 02bd d457 0b3d 0a9a 02bc f7fd 203d
00000260: 1a6e 41bd d63f 63ba 5a1f 543c b930 833c
00000270: a365 183d fa27 98bc 2c47 97bc 2dd4 da3b
00000280: f98c a4bc 1087 b73c b01b 753c ab98 ea3b
00000290: 61b1 04bd e19b ba3c b93b 07bc 77e8 0cbb
000002a0: db42 b9bc 699f 44bc 370d 9c3c b912 0fbd
000002b0: 4625 38bd a5c5 d43a 8030 2ebd cc74 d3bc
000002c0: 69b2 ef3c d152 81bd fbab 26bd 6d29 923b
000002d0: a3b6 8ebd 4f25 a03b adff 02bc ebd8 033d
000002e0: 755e d23c 95b6 36bd 1222 43bc f56b 1239
000002f0: cbaf ecbc 7838 943b 944b a63c 0434 10bd
00000300: e2fc b43c 70c7 0ebc 3802 cfbc ced0 27bb
00000310: 8ad1 d8bc 31ac 1abd b23d bfbc 1c00 38bd
00000320: 4302 73bc 797b b13b a1a6 09bd 2874 73bd
00000330: 9ef6 443d 20c0 963d 89ea 1cbc 2fd5 f3bc
00000340: 1262 98bc 118b 013d b772 27bd 9d9a 793c
00000350: 6974 fbbc ea93 06bc 9f34 ed3c 2c89 0c3d
00000360: 4e4b 17bd 8802 72bd b198 1fbc 57ba 6bbd
00000370: c098 293c 03a2 8f3c a231 b43d 6ac3 a8bb
00000380: f1a8 6cbd 1093 04bd 00f1 48bc a8cc 05bc
00000390: fbc9 d5bc 2d77 e4bc 00cd d03b 7033 8f3c
000003a0: c0fc 033d 9845 a6bb debe be3c ce17 7abc
000003b0: dba8 2f3c 3b82 6fbd 222e 2c3d 2876 93bc
000003c0: 8893 0a3d 94c0 62bc 92f0 963c 0972 6f3c
000003d0: 82ff 70bd 33ad 1dba b1c6 873d 9f83 543c
000003e0: 1a38 2fbc b01b ec3c 38a8 f6bb d01b 64bd
000003f0: 4fa1 893d 1cd7 cd3c 4c61 363d 741b 293e
-0.096873075 -0.008362675 0.022419646 0.10483067 -0.00644063 0.015707156 0.0049191965 0.018407967
0.0052578994 0.061154284 0.03549524 0.008932225 0.06857 -0.07476357 0.008296475 0.008526737
0.037821237 -0.009314675 -0.062401175 -0.07434361 0.019793846 0.011518953 -0.029295297 0.0057563903
0.036613386 0.005587527 0.01057399 -0.040638544 -0.057104256 -0.053500738 0.04293362 -0.0050040977
-0.029341951 0.054363582 -0.003927472 0.024733346 -0.08046883 -0.031279285 0.031275567 0.053373925
-0.002644217 -0.035155725 0.012203867 0.003736497 -0.017894493 0.020129815 0.03017058 -0.018861068
0.060838487 0.033340473 0.035230033 0.008005081 0.04963616 -0.03274424 -0.091478765 0.014782814
-0.054022107 0.030422237 -0.022090157 -0.0020275307 0.0626249 0.016653903 -0.064903535 0.0171837
0.016264245 0.008482366 -0.03960144 -0.017816767 0.014109624 -0.012313367 0.0012313386 -0.038047962
-0.03286092 -0.028565366 -0.035887964 0.09468037 -0.06492591 0.0130195655 -0.022098782 0.0048668566
-0.03679069 -0.0114524225 -0.014518855 -0.03991696 -0.035778787 0.01595056 -0.0022487352 -0.010556676
0.04459134 -0.016147401 -0.0060112947 0.0066866972 -0.01668445 -0.064727895 -0.051991273 0.031926863
-0.0054354337 -0.019500902 0.005240588 -0.022640983 -0.05051687 0.028683847 -0.0671577 -0.016027937
0.013058707 0.0020078663 -0.012979236 0.024379544 -0.09496059 0.011318428 -0.049827795 0.13235971
-0.020035211 -0.054309852 0.09111217 -0.017771142 -0.010458086 -0.047031187 0.03543364 -0.004356846
0.003773431 -0.01445859 -0.018372064 0.030739136 0.032770645 -0.012290744 0.047867227 -0.058043268
-0.045638125 -0.033851035 0.020979565 0.014751942 0.11419718 -0.030023945 -0.012166913 0.023512281
0.014368922 -0.047525182 0.056875557 -0.03732181 -0.03492419 0.023711087 0.011954754 -0.055241425
-0.06062958 -0.038806517 -0.027017543 0.0473288 -0.031922124 0.034019306 -0.007971296 0.0393047
-0.04722414 -0.0008668875 0.012946928 0.016014444 0.037206303 -0.01857375 -0.018466555 0.0066781254
-0.020086752 0.02240327 0.0149602145 0.0071593127 -0.032395724 0.022779407 -0.008253985 -0.0021500865
-0.022614887 -0.012000897 0.01904927 -0.034929965 -0.04495742 0.0016233219 -0.042526722 -0.025812529
0.029259877 -0.06314624 -0.040691357 0.0044605047 -0.06968429 0.00488726 -0.007995528 0.03218929
0.025679806 -0.044607718 -0.011909978 0.00013963862 -0.028892418 0.004523333 0.02029971 -0.035205856
0.02209324 -0.008714542 -0.025269613 -0.0025606635 -0.026467104 -0.03776187 -0.023344848 -0.04492198
-0.014832082 0.0054163304 -0.033606175 -0.059436947 0.048086755 0.07360864 -0.009577402 -0.02976474
-0.018601451 0.031626765 -0.040880885 0.015234617 -0.030695157 -0.008213976 0.028955756 0.034310505
-0.03693705 -0.059084445 -0.009740994 -0.057550754 0.01035136 0.017533308 0.08798529 -0.0051502483
-0.057778303 -0.032366812 -0.01226449 -0.00816647 -0.026097288 -0.027888859 0.006372094 0.017480582
0.032223463 -0.005074214 0.023284372 -0.015264465 0.010721411 -0.058473807 0.042036183 -0.018000677
0.033832103 -0.0138398595 0.01842526 0.01461459 -0.05883742 -0.00060148834 0.06629694 0.012970834
-0.010694528 0.028821796 -0.0075273775 -0.055690587 0.0672022 0.025126986 0.044526383 0.16514379

conv4.0.bias f4 [128]
00000000: 7288 413d 266a 7f3d 3dc8 a7bc b1f2 263c
00000010: 516b 8f3d 4587 d53c 5aff 583d 2b3b af3c
00000020: 3c7a 5d3d d9a8 d73c 64d7 62bd 736e 763d
00000030: 5c34 8c3d 8927 8dbd 05c1 a23d dcc8 44bc
00000040: 2065 853d e0d4 b73c 6ea1 273d c745 30bd
00000050: 3865 8e3d 84b9 953d 2661 03bd 5773 7f3d
00000060: 1046 9f3d 11d7 343c 7f6c 843d 8f50 293d
00000070: 24d1 1a3c 11c7 2dbd 18dd 84bc 96fb 04bd
00000080: cebb 93bb 1ecb a63d e4b5 2b3c c509 c03b
00000090: f186 903d f097 8ebd 4bf9 2e3d 0209 313d
000000a0: ce7d 85bc 67f2 a13d 9388 953d 488c 77bd
000000b0: d5f7 e9bc a048 3f3d 7b24 44bc c074 613d
000000c0: df62 963d a3af 8f3c c9f5 693d 2829 ac3c
000000d0: 3a9c a63d 5441 9bbd ec0e ac3d 40ba 5c3d
000000e0: f708 96bd 59b6 b0bd 47cf 9e3d 868b 493d
000000f0: b556 843d e403 4abd c23a 043d 6ee2 333d
00000100: 47de 473d e07c 2ebd 1714 733d 1b0e f5bc
00000110: c897 663d 4ada 5f3d 2b79 94bd 28a6 7abc
00000120: 7f56 8a3d c6ea 25bc cdb4 993d c7ec 173d
00000130: 4bf8 863d 038c 4ebd 9d1b 803d b6a5 303d
00000140: 0a2b 5c3d d078 63bc 662c 9c3d 446b b0bc
00000150: 95a6 863d 64e8 9bbc a475 e5bb 05aa 6e3d
00000160: 4b10 923d 88e0 40bd 4a04 27bd 4198 4bbd
00000170: 19ab 823d 18df 75bd dce1 a4bb 3a5f 9cbc
00000180: cfd3 663c 6b47 293d cfce 5c3d f20a 803c
00000190: 6648 3f3d 7f2e b53c a351 313c c5a4 62bd
000001a0: b469 8d3d 77f0 7b3d 5c5e 4a3d 21ee 433c
000001b0: 79d6 5d3c e79e 52bd 534d 4bbd 4116 003b
000001c0: 3fdb a23d 6307 843d b976 1c3d 8bd0 623d
000001d0: 449d bd3c ce6f 963d f23a 453d b6b4 05bd
000001e0: 4466 c2bc e745 013d 626f 693d 583d 72bc
000001f0: 6d17 4a3d c9e9 a83d 883f 9a3d 90cf 3d3b
0.047249265 0.06235709 -0.020481223 0.010189698 0.07002891 0.026065478 0.052977897 0.021390518
0.05407165 0.02632563 -0.055381194 0.060163926 0.06845924 -0.06892306 0.07946972 -0.012010779
0.06513429 0.022440374 0.040925436 -0.043035295 0.069529 0.07310775 -0.03207507 0.062365856
0.07777035 0.011037604 0.064660065 0.041336592 0.009449277 -0.042426173 -0.016218707 -0.032466494
-0.004508472 0.0814421 0.010480378 0.0058605396 0.07056988 -0.069625735 0.042718213 0.04322148
-0.01629534 0.07907563 0.0730144 -0.060436517 -0.028560558 0.04670012 -0.011971588 0.055042982
0.07343077 0.017539805 0.057119165 0.021015719 0.081352666 -0.0758082 0.084012836 0.05388856
-0.07325929 -0.0862853 0.07754379 0.049205326 0.064618506 -0.049320117 0.0322826 0.043917112
0.048795965 -0.04259956 0.05934533 -0.029913953 0.056297094 0.054651536 -0.072496735 -0.015298404
0.06754779 -0.010126775 0.07505188 0.037091043 0.06590327 -0.050426494 0.06255267 0.043126784
0.053751983 -0.013883784 0.07625656 -0.021535523 0.06574742 -0.01903171 -0.0070025492 0.058267612
0.07132014 -0.04708913 -0.040775575 -0.049705748 0.063802905 -0.060027212 -0.0050318073 -0.019088376
0.014088585 0.041327875 0.053908166 0.01563022 0.046699904 0.022116898 0.010822686 -0.055332918
0.06904927 0.061508622 0.049406394 0.01195863 0.013539904 -0.051421072 -0.04963429 0.0019544514
0.07951974 0.064467214 0.03819916 0.055374663 0.02314628 0.07345544 0.048151918 -0.032643043
-0.023730405 0.031560805 0.05699099 -0.014785133 0.049338747 0.08247716 0.07531649 0.0028962828

linear.weight f4 [10, 2560]
00000000: a399 c8bc 554d f1bc f857 b2bc 1590 aabb
00000010: 48cc 09bd 0550 edbc 7d20 0a3c ffc8 e5bb
00000020: fdd0 05bc 7d38 f6bc ad43 f1ba 867a c4bc
00000030: 876f bcbb 90ba 0abd 1f86 a1ba c29e d0bc
00000040: 8a6b ccbc 5155 06bd 02b6 aebc aa9b bdbc
00000050: 98fe 90bc d2d4 5bbc f1d1 e9bc 9395 d1ba
00000060: ff2d febc 2765 d9bc 610c 55bc 9def f4bc
00000070: 405d 40bd f96d f4bc 5ca6 70bc 08e5 0fbd
00000080: 2c8a 05bd e783 f7bc af92 8bbc 245e 82bc
00000090: 1f96 9bbc 4cf2 e5bc 197e 34bd e744 d0bc
000000a0: 9070 cbbb 40ea 9bbc 352e 0ebc 8aab 91bc
000000b0: c859 b7bc 589b 0abd 0797 d6bc 1a84 a7bc
000000c0: 1a3d bd3b 977f e0bc 706b dab9 ff9d bf3b
000000d0: e2d3 e3bc ce2d e5bc 9fbd 383c bd56 29bc
000000e0: 6392 babc a938 09bd 39c5 d7bb 3847 cfbb
000000f0: 9fb1 873c 561f 443c 1579 69bc 611a 08bc
00000100: e4d9 12bc 5011 edbc 12c7 bfba 4b7a a03b
00000110: 47ca 42ba f6e7 96bc 59c0 45bc 0f3d bbbc
00000120: 7270 4cbc c737 7bbc 7c10 52bc 6888 84bc
00000130: 6410 ecb9 204d ddb9 a307 83bc 5c41 80bc
00000140: 5e05 f3bc 319a b9bc 2579 5ebb 2a64 ba3b
00000150: 3bb3 4fbc 33dc c53b a6d7 b0bc 616d 61bc
00000160: 523b b0bc 08bd 7abb 5f93 8bbc 1b5e ff3b
00000170: d96f 3538 caad acbc 8cab b0bb 46b7 ff3b
00000180: d23b 8ebb 3230 7cbc 72cd ea3b 6875 c93b
00000190: 82eb dfbc 4da8 13bd a1e2 2abd 9929 24bc
000001a0: 9ca5 3bbd 1d4b 0fbc abb3 c8bb a0f6 eabb
000001b0: 1a3c e9bc 9908 32bc 993f 03bc 4f0d 84bc
000001c0: b34f 54bd 0bc3 c3bc 5ba3 3fbc 08b4 b7bc
000001d0: 64b9 c4bc 67a2 96bc eaeb 5fbc 97c0 94bc
000001e0: 40f2 4bbc 7280 0cbd d0ca 15bd a843 1d3c
000001f0: 0151 1abd b45b 07bd 37b7 11bb 4784 843b
00000200: 498f 96bc 9c0f 3abd a789 0dbc a47a 38bc
00000210: 93a9 12bd 32da f3bc 2f37 80bb decd a2bc
00000220: 9770 63bc 776c debc 6acc bbbc 15b2 e5bc
00000230: dd21 c9bc 76cc 8fbc 17d4 06bd d24a 07bd
00000240: 79ab 4abd 8762 48bd 629c e23b 4aba 84bb
00000250: 1d36 64bc 93e9 47bc 1e74 b7bc 12f0 16bc
00000260: fba3 4abd f1ae a2bc f644 8ebb 9e6c 83bb
00000270: 4391 6ebc 76c3 5fbc 23c2 adbc 5e37 adbc
00000280: 7394 06bd 53c2 c5bc 55bd ffbc d7e7 e2bc
00000290: f593 9abc 5685 11bd 3c70 38bc f20b 09bd
000002a0: c702 efbc e6c2 27bd dfaf 0ebd 158a 85bc
000002b0: 956a 0fbc d2ca 1fbc 4c36 0cbd 6df6 bcbc
000002c0: e907 efbc 87ec 8abc 73f7 21bd 46e6 aebc
000002d0: 6d4b bbbc 00f7 a13c 7dba c7bc b6f0 a8bb
000002e0: 8fb2 8c3c c761 6bbb 7cd5 04bc e410 8ebc
000002f0: 305d 863b 6d97 f7bb 8628 123b 6a20 e3bc
00000300: 20a3 023c a4b5 98bc 5d58 2e3c a360 c4bb
00000310: e922 943a 3391 31bd 2d3f 03bd 90b9 14bd
00000320: 6bd0 9b3c a6d1 83bb 7624 abbc 0e10 d93a
00000330: 2dfb 92bc eacc 203c 6891 3ebc 0149 e6bc
00000340: dcbc 86bc faad ba3b a08c 543b f2bc 8bbb
00000350: 27e2 83bc 7ef2 25bc d0fb 93bc 1e78 f7bb
00000360: d0b6 3c3b e442 133c 2274 493b 079d a0bb
00000370: d5dc 4cbb 339d 8dbc 744a efbb 3459 3cbb
00000380: 038c 8ebc 726b 9cbc 7601 88bb f85e 8cbb
00000390: 4748 78bc dd3c 15bd 7d5c 1bbb 94b0 c1ba
000003a0: b88c cdbb 6f53 adbc 1d92 c6bc 6c74 0e3c
000003b0: 1428 22bc 6f45 10bd ac1d f0bc 4bb4 8c3b
000003c0: b11e 92bc 1e08 263b 5bdb 61bc 4bb3 d8bc
000003d0: 50ab 0fbd 1885 733b 1405 013a 8db1 c1ba
000003e0: 40ae b2bc 4e0d ae3b f8b3 35ba 59ed 173b
000003f0: 83e3 f6bc 3015 ec3b f89f bebc f8c5 1bbc
-0.024487322 -0.02945582 -0.021770462 -0.005205164 -0.033642083 -0.02896882 0.008430597 -0.007012486
-0.0081675025 -0.030056233 -0.001840701 -0.023984205 -0.0057506 -0.033869326 -0.0012323296 -0.025466327
-0.024953622 -0.032796208 -0.021327022 -0.023145515 -0.017699525 -0.01341744 -0.02854249 -0.0015990011
-0.031027792 -0.026537491 -0.01300344 -0.029899413 -0.04696393 -0.029837595 -0.014688101 -0.03513053
-0.032602474 -0.030214263 -0.017037718 -0.01591403 -0.018992482 -0.028069638 -0.04406557 -0.02542348
-0.006208487 -0.019032598 -0.008678009 -0.017781992 -0.022381678 -0.033839554 -0.026195062 -0.020448733
0.005775106 -0.02740459 -0.00041660247 0.005847692 -0.027810995 -0.027975943 0.011275678 -0.010335621
-0.02277488 -0.0335013 -0.00658479 -0.0063256286 0.016564189 0.011970362 -0.01425006 -0.0083070705
-0.008963082 -0.02893892 -0.0014631471 0.004897391 -0.00074306544 -0.018421154 -0.012069785 -0.022856263
-0.012477981 -0.015333123 -0.012821313 -0.016178325 -0.0004502564 -0.00042209867 -0.015994852 -0.015656166
-0.029665645 -0.022656532 -0.003394672 0.00568821 -0.012677009 0.0060382127 -0.021587204 -0.013758988
-0.021512661 -0.0038259644 -0.017038045 0.0077932007 4.325793e-05 -0.021078963 -0.0053915437 0.0078038303
-0.004340627 -0.01539235 0.0071656043 0.006148029 -0.027333979 -0.036049176 -0.041720036 -0.010019683
-0.045812234 -0.008745936 -0.0061249337 -0.0071705133 -0.028471041 -0.010866308 -0.008010768 -0.016119627
-0.05183382 -0.023896715 -0.011696662 -0.022424713 -0.024014182 -0.018387986 -0.013667086 -0.01815824
-0.012447894 -0.034302182 -0.03657037 0.00959865 -0.037674908 -0.03304644 -0.0022234449 0.004044089
-0.01837887 -0.045425043 -0.008638776 -0.011259709 -0.03580625 -0.02976713 -0.0039128284 -0.019873556
-0.013881824 -0.02715133 -0.02292462 -0.028039018 -0.02455228 -0.01755355 -0.03291711 -0.03303034
-0.049479935 -0.048922088 0.006915615 -0.0040505277 -0.013928917 -0.0122016845 -0.022394236 -0.009212511
-0.04947279 -0.01985881 -0.004341717 -0.004010751 -0.014561 -0.013657441 -0.021210736 -0.021144565
-0.032856416 -0.024140513 -0.03121821 -0.02769844 -0.01886938 -0.03552755 -0.0112572275 -0.033458658
-0.029176129 -0.040957354 -0.034835692 -0.016301194 -0.0087534385 -0.009752946 -0.03423147 -0.023066724
-0.029178577 -0.016958488 -0.039542627 -0.021350037 -0.022863114 0.0197711 -0.024380917 -0.005155648
0.017174987 -0.0035916434 -0.008107539 -0.017342038 0.0041004643 -0.007555893 0.0022301986 -0.027725417
0.007973462 -0.0186413 0.010641185 -0.0059929653 0.0011301908 -0.043351363 -0.03204267 -0.03630978
0.01902028 -0.004022795 -0.02089141 0.0016560571 -0.017942036 0.00981448 -0.011631347 -0.028110983
-0.016447477 0.005697009 0.0032432452 -0.0042644674 -0.016099049 -0.010128615 -0.01806441 -0.007552161
0.0028795488 0.008988116 0.0030739387 -0.0049015316 -0.0031259556 -0.017286872 -0.0073025767 -0.0028739693
-0.017400747 -0.019094203 -0.004150565 -0.004283782 -0.015153951 -0.036434997 -0.002370625 -0.0014777356
-0.0062728785 -0.021157948 -0.024239594 0.008694749 -0.009897251 -0.035222467 -0.029311024 0.0042939535
-0.0178369 0.0025334428 -0.013785209 -0.026452681 -0.035075486 0.0037158187 0.0004921716 -0.0014777646
-0.021811604 0.0053116446 -0.00069314195 0.0023182242 -0.030137783 0.007204674 -0.023269638 -0.009507649

linear.bias f4 [10]
00000000: d32b c8bc 6138 d6bc 3524 1b3d 9b3d e4bc
00000010: f427 303d b8f4 1bbd 8e62 aebc 50b7 8d3c
00000020: 8858 893c cd10 03bd
-0.02443496 -0.02614993 0.037876327 -0.027861407 0.043006852 -0.03807518 -0.021287229 0.017299324
0.016765848 -0.031998444
