project/feedforwardnet.pth (torch, 494811 bytes, 10 tensors)

conv1.0.weight f4 [16, 1, 3, 3]
000000 19 e6 77 bd 56 3e ca bc 16 42 66 bc 2a 9e 62 3e
       -0.060522173 -0.024687927 -0.014053842 0.22130647
000010 d5 a5 bb be 49 ed bf 3e 41 bf f2 bd 10 70 21 be
       -0.36649957 0.37485722 -0.11852885 -0.15765405
000020 72 3d a7 bc b8 f7 46 bd ec d1 2d be b2 c0 b0 be
       -0.020415042 -0.048576087 -0.1697461 -0.34522015
000030 60 11 38 be 33 9d cc 3d b5 dc a7 bc 01 bc c4 be
       -0.17975378 0.09990921 -0.020490984 -0.38424686
000040 ef f1 0f 3d e4 6d a1 3e ec f9 c9 3d d1 15 87 3e
       0.035142835 0.31529152 0.09862122 0.26383832
000050 7f ca ab 3e 7c 12 8d be 45 eb 48 3e 09 90 ab bd
       0.3355293 -0.27553165 0.19620998 -0.08377082
000060 a3 d5 87 3e 0d 90 7e 3e 47 81 c9 3d 1e de c8 bd
       0.2653018 0.24859639 0.09839111 -0.098079905
000070 e8 ae bb 3e 42 ba af 3e 0b 1f 7d 3e c4 47 d7 bd
       0.3665688 0.3432179 0.24718873 -0.10511735
000080 53 1f b7 bd 42 9b a1 3e 05 82 8b be 20 58 b9 be
       -0.089415215 0.31563765 -0.27247635 -0.36200047
000090 69 2b 8d 3e 59 5f 53 3e 37 b2 5e 3e cc 7a 8a 3c
       0.27572182 0.20641841 0.21747671 0.016904257
0000a0 d4 6f 80 3e 99 32 f9 bd 82 1d 77 be 2b 69 23 3e
       0.25085318 -0.12167854 -0.2413235 0.15958087
0000b0 6f d4 45 bd 10 ad bd bc e8 5a a2 be 0e d2 74 be
       -0.048298296 -0.023153812 -0.3170998 -0.23908255
0000c0 00 a5 d2 3c 34 e3 15 be 87 40 b5 3e ed 87 b3 be
       0.025713444 -0.14637452 0.35400793 -0.3506464
0000d0 de e0 a8 3e 6c 65 c9 bd 0e 0c 12 bd 2a 7d 6c 3d
       0.3298406 -0.09833798 -0.035656027 0.057736553
0000e0 4f 58 ff bd b1 78 b3 bb 87 ec 27 be c8 c3 bd 3e
       -0.124680154 -0.005477034 -0.16398822 0.37063432
0000f0 35 32 a4 3e 23 ec ac be 05 16 83 3e 82 a4 d3 3c
       0.32069555 -0.33773908 0.25602737 0.02583528
000100 46 50 91 3e 56 a7 b5 bd 09 e1 b8 3d 37 53 d1 bb
       0.28381556 -0.088698074 0.09027297 -0.006388094
000110 42 b0 a1 be 46 91 7f 3e cc 26 12 3d 98 57 2e be
       -0.31579787 0.24957761 0.03568153 -0.17025602
000120 30 31 2d be 93 b2 83 3d 7b 0d 2c be 8e 90 02 be
       -0.16913295 0.06430545 -0.16802017 -0.12750456
000130 7a fa 84 be 6d 71 f9 3c db 99 a7 be d9 03 9d 3e
       -0.25972348 0.030449593 -0.3273457 0.30666998
000140 7e 5b 90 3e 13 ee 10 bd 13 56 b1 be 0c 7e 72 3e
       0.28194803 -0.035383295 -0.34635982 0.23680896
000150 ca 5e a6 3e 82 f5 a2 be bd 02 a5 be 40 d3 6f 3e
       0.32494193 -0.31827933 -0.32228652 0.23420429
000160 69 75 79 be 4e 98 ad bd 7d df 9d be 17 4b 96 3e
       -0.24361195 -0.084763154 -0.3083457 0.29354164
000170 25 cd 55 3e 79 fc 60 3e a1 1c 83 3e 52 6f 14 3e
       0.20879038 0.2197131 0.2560778 0.1449559
000180 75 ec 06 be 7e 6d a4 3e 64 5e 4f 3e 3c 94 e5 3d
       -0.13176139 0.32114786 0.20250851 0.11209914
000190 e1 8b a3 be d2 b3 7a 3e 12 1d 9a 3e 9c 1b 91 3e
       -0.31942657 0.24482659 0.30100304 0.28341377
0001a0 dd d8 b9 3e 67 4a 4b 3c 37 7e 68 be 1b a1 9d bc
       0.36298266 0.012407876 -0.22704397 -0.01924186
0001b0 19 43 e7 3d 4f 49 22 3d 9d 5c 5b 3e d2 eb b8 bd
       0.11292095 0.039620694 0.21422048 -0.09029354
0001c0 d2 88 60 3d 8c b7 66 3e 6c f6 41 3c 09 ca 33 3e
       0.054817982 0.22530955 0.011838537 0.17557539
0001d0 cb 8c 9a be 2a bd 65 3d 3e ca 9f be 04 e1 b4 be
       -0.30185542 0.056088604 -0.31208986 -0.35327923
0001e0 df 90 f7 3d 74 64 32 be 87 2b 46 3e 05 f9 a0 3e
       0.12088179 -0.17421132 0.19352542 0.31439987
0001f0 dd 72 8b 3e a5 9c b4 bd 8e aa ae 3e ae 47 27 bd
       0.2723607 -0.0881894 0.34114498 -0.040839843
000200 8c 9f 8a 3e bf e7 19 bd d6 94 9f 3e 15 da 40 be
       0.2707485 -0.037574526 0.3116824 -0.18833192
000210 5e 0f 81 be 74 ae 37 3e 3b 2d 40 be 80 10 b7 be
       -0.25207037 0.17937642 -0.18767254 -0.35754776
000220 7f 5b 72 3e 37 7d c5 bd 00 e9 2e 3e 1f 8e ab bc
       0.23667715 -0.096430235 0.1708107 -0.020941792
000230 1c 97 e7 3d 10 db 2c 3e d0 4b 7f bd 53 1f 4f be
       0.11308119 0.1688044 -0.06232816 -0.20226793

conv1.0.bias f4 [16]
000000 aa 5e 6a 3e ba 01 b1 bd 49 7e 03 be 3e 61 ce 3b
       0.22887674 -0.086429074 -0.12841143 0.0062982133
000010 58 78 9f 3e df 1e 40 bd 5d df ce 3d 9a e5 44 3b
       0.31146502 -0.04690444 0.10101197 0.003004408
000020 6d 6e 36 be ac d4 fb bd 4a 3b 94 3a 3c 2a 85 be
       -0.17815562 -0.12296423 0.0011309173 -0.26008785
000030 f8 91 3f 3e 9a 3c 8f 3c 63 19 98 3e a3 36 ed 3d
       0.18708026 0.017484952 0.2970687 0.11582687

conv2.0.weight f4 [32, 16, 3, 3]
000000 9b df c1 bc 31 eb e8 bc eb 8c 16 be a7 73 ba 3d
       -0.023666194 -0.02843246 -0.14702193 0.0910409
000010 33 a7 82 bd cd 3a b9 3c c9 53 ab 3d e2 12 89 bd
       -0.06379547 0.022611046 0.0836559 -0.06693055
000020 64 67 84 3d 4b dc 04 3d be d6 9a 3d 04 3b 8c bd
       0.06465033 0.03243665 0.0756049 -0.06847194
000030 5d e8 98 bd 40 82 67 3d 36 f2 c3 bc ab af 4b bb
       -0.07466195 0.0565207 -0.023919206 -0.0031080048
000040 fb 48 37 3d 16 10 8a bc 41 82 84 bd 36 09 e9 bc
       0.044747334 -0.016853373 -0.064701565 -0.028446775
000050 70 1e 8e 3d f7 4b 71 bd c9 29 aa 3d cb 32 01 bd
       0.06939399 -0.058910336 0.08308751 -0.03154258
000060 8f ff e1 bd 4d 5d 83 3d db 36 2b bd a3 da 61 3d
       -0.11035072 0.0641428 -0.04180036 0.05514015
000070 ed 64 c2 bc e6 27 56 3d fa c7 58 bd fc a1 64 3c
       -0.023729766 0.052284144 -0.052925088 0.013954636
000080 b6 a0 b5 3d 58 c6 82 bd a4 a8 d8 3d ee 5f 88 bd
       0.08868544 -0.06385487 0.10579041 -0.06658922
000090 58 58 24 bd f7 95 73 bd 6d 01 7f 3c 0a a9 ba bd
       -0.040123314 -0.05946919 0.015564305 -0.09114273
0000a0 7e 80 1f 3e f1 b3 28 3d 80 9e 01 3d 27 60 30 bd
       0.1557636 0.04118723 0.031645298 -0.043060448
0000b0 d0 31 90 3d 41 d3 6f bd 58 2f 38 bd a9 41 70 3d
       0.07040751 -0.058551077 -0.044967026 0.05865637
0000c0 ae ea c4 b9 f9 2c 3d 3d 8f 95 ac bd ca 4c e5 3c
       -0.00037558883 0.046185467 -0.084269635 0.027990717
0000d0 bf 25 23 3d b1 08 19 3e 84 ba b5 bb b3 d0 cb 3d
       0.03983092 0.14944722 -0.005545916 0.099519156
0000e0 dd 1e 00 3c 7a d6 a2 3d 8b d3 d6 3c c2 28 c0 3d
       0.007819858 0.079510644 0.026223918 0.09382774
0000f0 9a 2e 09 bd 04 93 52 3d 30 6e 95 3d 50 dd 1c 3d
       -0.03349171 0.051409736 0.07296407 0.038296998
000100 32 da 71 bd 69 8f 92 3b 53 d6 c0 bd 7d aa ea bd
       -0.059045978 0.004472662 -0.09415879 -0.11458299
000110 f5 7d 0b 3e 61 9a 04 bd 7a e2 05 3d b1 5d 5b 3c
       0.13622268 -0.03237379 0.032686688 0.013389037
000120 5e 76 b5 b8 27 d8 bb 3d 36 ac 42 3c 60 d3 77 bc
       -8.6528e-05 0.09172087 0.011881879 -0.015126079
000130 e7 d1 e6 3d 6d 81 ce ba c5 be 34 3c 2c d1 a4 bd
       0.112705044 -0.0015755125 0.011031811 -0.08047709
000140 a8 77 1e bd 59 f1 17 3d 1a 96 d0 3c aa 78 b4 bd
       -0.03868833 0.0370954 0.025462199 -0.08812077
000150 df 24 81 3d 4d d2 86 bc 3a 1b bd 3d 0b b0 90 bd
       0.06305861 -0.016457701 0.09233709 -0.070648275
000160 39 d5 87 3d 84 7c 95 3d 44 80 d9 3c fe 3e a7 bc
       0.06632466 0.0729914 0.02655042 -0.02041578
000170 bd 4e 5d 3d 2a 2a c8 bd f0 b4 1d 3b 92 1f 53 3d
       0.05403017 -0.09773667 0.0024064146 0.05154378
000180 7a 59 42 bd bc 20 47 3d 63 c7 ab bd 6f 1c 6b 3c
       -0.047448613 0.048615202 -0.083876394 0.014350041
000190 dd 63 f1 bc 3d 6d e1 ba 21 72 ba bd 39 d5 7a bc
       -0.029466564 -0.0017198693 -0.091037996 -0.015309625
0001a0 7c 8d bd 3c df 6f 92 3c 5e 75 e6 bb 29 51 a5 3c
       0.023138754 0.01787561 -0.007033034 0.020180302
0001b0 ba ec d3 bd 52 56 f1 bb 8a 86 1e bd 9d 03 c2 3c
       -0.103478864 -0.0073650265 -0.038702525 0.023683364
0001c0 b4 c9 3f bc 70 5e e9 3b fb ea 4a 3d d0 94 e2 3c
       -0.011705805 0.0071218535 0.0495405 0.02765885
0001d0 00 18 56 3d aa 48 bc bd b6 25 b7 3d f5 5a e2 3d
       0.052268982 -0.09193547 0.0894274 0.11052505
0001e0 f3 ef 7d bd b0 8d a0 bc d5 02 ad 3c 4f 9d 57 3d
       -0.06199641 -0.019598812 0.021119514 0.052640256
0001f0 b9 47 b6 bd 40 5e b4 3d c2 bc b8 bd 20 c5 d9 3c
       -0.08900399 0.08807039 -0.09020378 0.026583254
000200 34 a8 69 bd de 8b 1b 3d c8 a7 1b 3e 35 4a 8a bc
       -0.057045177 0.037975185 0.15200722 -0.016881088
000210 50 13 82 bd 17 5f 4f bd 10 9d 37 3c 83 ec db 3c
       -0.0635134 -0.050627794 0.01120688 0.026846176
000220 d4 16 8b bd 79 9e 19 bd 35 7c df 3c e2 cf d3 3c
       -0.067914635 -0.037504647 0.027280906 0.025855962
000230 18 05 e6 3c 6e c6 32 3c a7 f6 fe 3d 39 a3 d1 bc
       0.0280786 0.010911567 0.12449389 -0.025590526
000240 04 54 80 bd 50 6a a6 3d b4 97 3d 3b 9f 3e b3 bc
       -0.06266025 0.08125746 0.0028929533 -0.021880446
000250 c2 2f b2 bc c5 c6 b3 3d 12 2e 99 bd 52 aa bb bd
       -0.021751288 0.08778147 -0.0747949 -0.091633454
000260 1a f8 b3 bd 31 e6 5f bd 6c a7 dd 3c 57 a1 a3 bd
       -0.08787556 -0.054662887 0.027057372 -0.079897575
000270 5f f3 86 bd 16 bf 2f 3d 77 af 6a bc a6 ce 41 bd
       -0.06589388 0.042906843 -0.014324061 -0.047316216
000280 6c 01 10 3d 35 b5 56 3d 33 fe 3b bc a6 1a b7 bd
       0.035157606 0.052418906 -0.01147418 -0.0894063
000290 91 1a a7 bc 8e ea ea bc d9 72 04 3d a8 06 20 3d
       -0.02039841 -0.028676298 0.03233609 0.039068848
0002a0 9b c8 32 bc db 43 36 3d 20 5d 53 3c 92 4f 4a 3d
       -0.010912086 0.044498306 0.012900621 0.04939229
0002b0 3a 7d 7f 3d bb 98 c9 bd 85 15 c7 3d 03 42 65 bd
       0.062375285 -0.09843584 0.097209014 -0.055971157
0002c0 1d fe 8b bd a6 88 ed bd 2a ce 1c 3d 75 bf d1 3d
       -0.06835578 -0.11598329 0.03828255 0.10241596
0002d0 64 b1 8f 3d 0a 6d c2 3c d0 ce d6 bc 56 70 47 bd
       0.070162565 0.023733635 -0.026221663 -0.048691116
0002e0 4d 7a c9 bc 5e 17 17 3d f3 a1 6c 3d 67 f3 14 bd
       -0.02459445 0.03688752 0.057771634 -0.03636494
0002f0 9c 08 35 3d db c7 6e 3a 67 96 90 3c b4 3d ed bc
       0.044197664 0.000910876 0.017649842 -0.028960086
000300 df 0d 12 bd d5 fd 5c 3d ca 4e e8 3d 97 fa 62 3d
       -0.03565776 0.05395301 0.11343153 0.055414762
000310 41 99 fa bd e0 52 5a bb c3 12 67 bd 88 06 8a bd
       -0.12236262 -0.0033313558 -0.056414377 -0.06739527
000320 9b 70 2a bd a4 1c 89 3c 7e 77 5a 3d db 58 71 3c
       -0.041611295 0.01673729 0.053336613 0.014730657
000330 ad e5 d5 bc 30 58 d7 bd d4 c3 e4 3d 2e bb a3 3d
       -0.026110495 -0.10514867 0.11170164 0.07994686
000340 3b 52 11 bd 20 92 8b bd 10 7d 89 3d aa 51 af bd
       -0.03547881 -0.068149805 0.06713307 -0.08560498
000350 4e 46 2f bb 12 5d 02 bd c5 0e 34 3d e4 cc 42 bc
       -0.0026744786 -0.03182704 0.043959398 -0.01188967
000360 26 91 84 bd 4e c4 2f 3c 7b c5 eb bc 8b 91 e6 bc
       -0.06472997 0.010727955 -0.02878069 -0.028145572
000370 87 7c c9 3d d7 26 a4 3d b7 fe 67 3d 54 0a 85 bc
       0.09838205 0.080152206 0.0566394 -0.016240276
000380 06 0e 3b bc ac 7e b5 3c dc dd 02 bd ae ea 70 3d
       -0.011416918 0.022155128 -0.031949863 0.058817558
000390 e8 33 03 3d 89 36 e1 bc 41 98 b7 3d 49 21 0c bd
       0.032031924 -0.027491825 0.08964587 -0.03421143
0003a0 a1 23 cf 3d 4d ac df bd 50 0f 5d bd 08 92 7c bd
       0.101142175 -0.10921536 -0.05396968 -0.061662704
0003b0 67 d9 d1 bd a6 13 b9 3b d9 2a 1e bd 0c 68 d8 3c
       -0.10246544 0.005648094 -0.03861508 0.0264168
0003c0 82 74 cf bd 46 66 23 3d 6a 5a 08 3e 54 56 1d 3b
       -0.10129644 0.039892457 0.1331574 0.0024007754
0003d0 2c df c9 bd 27 12 06 3d 81 0f 9f 3d da 55 43 bd
       -0.0985702 0.032732155 0.07766629 -0.047689296
0003e0 90 2a 1b bd 9c 37 eb bd d2 15 98 bd e2 70 cf 3d
       -0.037882388 -0.11485216 -0.07426037 0.101289526
0003f0 99 52 32 3c 7d 34 44 3c e0 cf cf 3c dd 0a 6a bc
       0.010883951 0.011975405 0.025367677 -0.014284817

conv2.0.bias f4 [32]
000000 b1 23 b6 3d dd 89 98 bd 55 77 be bc 3c b9 30 3d
       0.08893526 -0.0744817 -0.023250261 0.043145403
000010 3b c5 43 bc d1 58 a3 3d d6 fa 8e bc 65 35 cf 3d
       -0.011948879 0.07975925 -0.017453592 0.10117606
000020 81 32 b4 3d 74 8e dc 3d 68 75 a5 3d 9d fe ea 3d
       0.08798695 0.10769358 0.08079034 0.11474345
000030 95 e0 ce bb f0 e7 44 3d 04 72 a2 3c 7d 42 f6 bd
       -0.0063133934 0.048072755 0.019829758 -0.120244004
000040 e1 14 04 3d e1 ea 12 bd 31 27 6c 3d 78 f0 42 3d
       0.032246474 -0.03586853 0.057654563 0.04759261
000050 24 c5 81 bb ac a3 82 bd 0b 9d 2b 3d f9 a7 b7 bd
       -0.0039602686 -0.06378874 0.041897815 -0.08967585
000060 d7 1f e8 3d 03 78 b7 3d 1c e1 8f bc 40 91 e6 3c
       0.11334198 0.08958437 -0.017563395 0.028145432
000070 c2 16 e6 bb da df 82 bd 9d 97 4d bc d1 9f ae 3d
       -0.007021756 -0.063903525 -0.012548354 0.08526576

conv3.0.weight f4 [64, 32, 3, 3]
000000 3f 21 dd bc 55 04 55 bd 70 18 74 3d d9 7d 04 3d
       -0.026993392 -0.052006084 0.059593618 0.03234658
000010 57 cf b7 3b 3b 0b a8 3d b2 b0 75 bd f5 27 1f bd
       0.0056094336 0.08205267 -0.059982963 -0.038856465
000020 8d e6 a1 3b 18 88 98 bc fc 82 2a 3c 4f 30 d0 bd
       0.004940814 -0.018619582 0.010407206 -0.10165464
000030 2f 78 de bc 3e 1e 9d 3d 60 5a 68 bd 98 7d 10 3c
       -0.027156917 0.07671784 -0.056726813 0.008819006
000040 26 c3 77 bc 0c 61 47 bd 6a 13 92 3d a3 42 51 bc
       -0.015122211 -0.048676535 0.07132609 -0.012772235
000050 d1 a7 16 bd 1d 46 5a bd 4d 05 8d bd 82 e7 68 3b
       -0.036781136 -0.05328952 -0.06885777 0.003553838
000060 f1 49 e1 3c 08 3f d7 3c 8b fd a2 bd f5 f1 fc 3c
       0.027501078 0.026275173 -0.07958516 0.030877093
000070 3b 0e de bd c6 1a 13 bd 9b 9a 48 bd 81 f4 a2 3c
       -0.10842558 -0.035914205 -0.04897557 0.01989198
000080 24 36 b7 bb 63 eb 10 3d 74 9d 8f 39 22 9a ec 3c
       -0.005591171 0.035380732 0.00027392397 0.02888209
000090 9a 39 14 3b 6e 08 70 bd 81 c0 04 3d f4 ad ac bb
       0.002261734 -0.05860179 0.03241015 -0.0052697603
0000a0 32 06 b4 bc 0e 35 d7 3c 5a 94 02 bd cb ce 53 bd
       -0.02197561 0.026270416 -0.03187976 -0.051710885
0000b0 18 70 f0 bc b3 d8 38 3c 97 cd 90 3c fc 81 c3 3c
       -0.029350325 0.011282134 0.017676158 0.023865692
0000c0 3a f3 17 3c 8e 96 eb 3c 4f 48 a2 bc 68 e1 4a 3d
       0.009274298 0.028758314 -0.01980987 0.04953137
0000d0 02 0f 93 3c 68 3d 4e bd 2b 0c 9c bd 6c 8e ec bc
       0.017951492 -0.05035153 -0.07619508 -0.028876506
0000e0 71 0c 36 bc e9 52 74 3d 07 4f 09 bd fb ea 84 bc
       -0.011111365 0.05964938 -0.033522632 -0.016225329
0000f0 8c 76 51 bc 90 08 08 3d f7 cf 0e bd bb 6b 2a bc
       -0.012784611 0.03321129 -0.0348663 -0.0104016615
000100 88 0b 30 bc c1 05 6f 3c 87 ba 2e 3c f3 86 2d 3d
       -0.010744937 0.014588774 0.010664589 0.042365026
000110 05 06 d2 3d 71 98 bc bc 58 0a af bd b0 dd 8f bd
       0.102550544 -0.023021908 -0.08546895 -0.070247054
000120 03 65 84 3d a4 94 50 3c aa cd 2f bc 93 21 4b 3d
       0.06464579 0.012730751 -0.0107301865 0.049592566
000130 97 04 bf 3c 44 05 bf 3c 99 57 71 ba b2 22 74 3d
       0.023317618 0.02331794 -0.00092064735 0.0596034
000140 a6 73 18 bd 54 95 96 bd 5a 51 9d bd 2e fe 99 bd
       -0.037219666 -0.07352701 -0.07681532 -0.07519184
000150 03 6e 97 bc 63 2f ee bb 1c 16 c0 bc 35 cb 23 3d
       -0.018485075 -0.0072688325 -0.023448043 0.039988715
000160 ae d7 95 3d b1 d8 10 3d 75 cb b3 bd 6c 05 29 3d
       0.07316528 0.035362903 -0.08779041 0.041264936
000170 8a 24 b6 bd 1a b5 a8 bd 00 2f 7b 3d 98 80 3b 3d
       -0.08893688 -0.082376674 0.06132412 0.045776933
000180 aa 72 e7 bc 0c f7 a8 3b 31 90 9b 3d 3b b4 72 bc
       -0.028252918 0.0051564034 0.07595862 -0.014813478
000190 59 96 97 38 34 90 48 3d 0e 77 87 3c 0d 00 97 3d
       7.2282455e-05 0.048965648 0.016536262 0.073730566
0001a0 45 64 24 3b 45 d6 e5 bc e8 bd 2a 3d 70 2c 43 3d
       0.002508418 -0.028056273 0.041685015 0.0476498
0001b0 f6 3f 2e bc 87 7e 2a bb 09 3a 8e bd e8 9d 4a 3d
       -0.010635367 -0.0026015358 -0.06944663 0.049466997
0001c0 41 7d 90 3d 47 1d fb bc e8 9d 98 bd 09 7c f3 39
       0.0705514 -0.030653609 -0.07451993 0.00046440985
0001d0 cd 98 b5 bd 20 18 a5 bc 38 f0 f6 3c 3d 01 93 bc
       -0.08867035 -0.020153105 0.030143842 -0.017944926
0001e0 dc a2 a8 3d 5c 86 b7 3d 5c f7 67 3d 1b e3 f0 bc
       0.08234188 0.08961174 0.056632385 -0.029405167
0001f0 b5 78 bf bc 7f 5e 27 3c de 8a f1 3c 39 76 86 bd
       -0.023372987 0.010215401 0.029485162 -0.06565518
000200 77 37 12 bd 16 52 c6 3c 62 df ce bd f5 8f 2e 3b
       -0.035697427 0.024209064 -0.10101201 0.0026636098
000210 60 53 83 bd 10 bb 9f bd 7e 33 10 3d f4 67 d1 3c
       -0.06412387 -0.07799351 0.035205357 0.025562264
000220 80 b1 91 bd 9f 11 1a bd 62 52 09 3c cc db 64 bc
       -0.071139336 -0.03761446 0.008381458 -0.013968419
000230 da 28 c6 bc df 66 a1 3c 39 e2 49 bd 61 81 3e 3d
       -0.024189401 0.019702373 -0.04928801 0.046510104
000240 21 a2 fb 3c f0 93 13 3d 18 65 57 3c b3 ad 96 3b
       0.030716958 0.036029756 0.013146661 0.0045983433
000250 f4 7f 04 3d 8b b8 70 3d 80 84 46 3d 5f 43 a3 3d
       0.032348588 0.058769744 0.048466206 0.079718344
000260 a0 e1 9d bc 46 4e 12 bd 33 62 60 3d 86 a6 57 3d
       -0.019272625 -0.03571918 0.05478115 0.052649044
000270 da 56 1d 3b d3 aa e6 bb cd 3a c2 3c fb 2d 79 bd
       0.0024008066 -0.007039407 0.023709679 -0.060834866
000280 7b 48 c0 bd 83 76 3c 3c 94 e0 94 3d a0 bb d4 3c
       -0.093888246 0.011502865 0.072693974 0.025968373
000290 24 9c 6b 3c 48 80 80 bb 1a 86 dd 3d 11 f7 09 bd
       0.014380489 -0.0039215423 0.108165935 -0.033682887
0002a0 85 61 66 3d c0 28 a9 bc a8 5d 92 3d e7 d6 4d bc
       0.056245346 -0.020649314 0.0714677 -0.012563444
0002b0 fa 3a 5d bd e1 16 51 3d 1a 1c 35 3c 34 5e a6 3b
       -0.054011323 0.05104721 0.011054063 0.005077148
0002c0 9f 3b 18 3d ff 05 4b bd 5f 22 85 3d 8f ee bb 3c
       0.037166234 -0.049566265 0.065006964 0.022940902
0002d0 c4 ea fe bb c2 1c 03 bd 10 a6 74 3d 6d 75 5e bd
       -0.007779451 -0.032009847 0.059728682 -0.054311205
0002e0 31 74 6a bd 26 07 37 3d 95 4b a5 bb 2e e9 d8 bd
       -0.057239715 0.04468455 -0.0050444105 -0.105913505
0002f0 13 60 0f 3c 00 6c 0a 3c 99 87 1f bd b9 29 39 bd
       0.008750933 0.008448601 -0.038947675 -0.045205805
000300 ea c6 67 3c 56 f3 33 bc 72 b9 c2 3c c1 d3 24 3d
       0.014146546 -0.010983309 0.023770068 0.040241007
000310 44 a3 b9 3c 26 93 44 bd 2d dd 0a bd 06 d7 3b bd
       0.022660859 -0.047991894 -0.033902336 -0.04585936
000320 99 fe 07 3d 04 d5 21 bc bf 73 44 bd 6c f6 b5 bb
       0.033201788 -0.009877447 -0.047961947 -0.0055530574
000330 9e e5 a7 3c bb ed db 3c 96 11 37 bd 69 8b e6 bc
       0.020495232 0.026846757 -0.044694506 -0.028142648
000340 d7 19 be 3b 27 b6 01 be 62 e8 52 3d 72 06 89 3d
       0.00580142 -0.12667142 0.05149115 0.066906825
000350 1e ab af bd ab 69 8e bd 3d 9e a7 bd da cd 8f bc
       -0.0857756 -0.06953748 -0.081844784 -0.017554212
000360 a8 f8 84 3c 97 c8 1d 3d 81 7d 03 3d 34 fb 87 3d
       0.01623185 0.038521376 0.03210211 0.0663971
000370 b5 5d f6 3d dc 2e ac 3d fe 15 2a 3d ab 84 be 3c
       0.12029592 0.08407375 0.04152488 0.02325662
000380 c7 77 19 bd de de e7 3c cc d1 99 bd 21 24 7b 3d
       -0.037467744 0.028304514 -0.07510719 0.061313752
000390 c6 21 8d 3d be 24 3b bd d1 be 13 3b 5d af 45 bb
       0.068912074 -0.045689337 0.0022544155 -0.003016434
0003a0 db d4 24 3d 7e ed b5 3a 37 ef fc bc b4 fc f6 3c
       0.040242057 0.0013879982 -0.030875785 0.030149795
0003b0 1d d2 65 bd 71 1e a3 3d 2c 83 75 3c af 68 55 3d
       -0.056108583 0.079647906 0.014984887 0.052101787
0003c0 6e a4 bf bc 97 ba 5a bd 35 1b 9c bd fb 78 02 3c
       -0.023393836 -0.053400602 -0.07622377 0.007963414
0003d0 81 6f 5a bd 5e d0 c4 3c 0b 17 a3 3d 6a 9f ed 3c
       -0.053328995 0.024025138 0.079633795 0.029006679
0003e0 65 c9 32 bc 58 47 b1 3b d3 55 c1 3d f9 46 42 3d
       -0.010912274 0.005410116 0.09440198 0.047430966
0003f0 d1 95 c8 bc 57 b2 27 bc 22 0f c7 bd 8e d5 43 3d
       -0.0244855 -0.010235391 -0.09719683 0.047811083

conv3.0.bias f4 [64]
000000 ca ba a1 3d 0a 85 cf 3d 5e 8e d1 bd 0a 4d 47 3d
       0.07896955 0.10132797 -0.102322325 0.048657455
000010 9c 3d 50 bd 7f f0 49 bd a9 0f 3f bd 00 23 d2 3d
       -0.050840005 -0.04930162 -0.046645794 0.10260582
000020 11 5f 0f 3d 98 a3 e4 3c b9 68 a3 3d 85 68 18 bd
       0.03500277 0.027910039 0.07978959 -0.037209053
000030 e6 32 c4 3c 3c e5 74 3c 07 de 67 3d cc 4b 30 bd
       0.023950052 0.014947232 0.056608226 -0.043041036
000040 65 2e 3a bd dd 49 b0 bd 2e 7f bb 3b a4 6b 9e bd
       -0.0454544 -0.08607838 0.005721948 -0.077353746
000050 fe 64 aa 3d c8 b9 0e 3d 9e 42 61 3d e2 40 24 3d
       0.08320044 0.034845144 0.05499517 0.04010094
000060 d2 61 e4 3c 4d cf 0e 3d 39 52 a0 bd d7 6c 2c 3c
       0.027878676 0.034865666 -0.07828183 0.010523996
000070 2d b5 e0 3d 02 bf d8 bd f3 c8 b3 bc 08 21 30 3d
       0.109720565 -0.10583307 -0.021946406 0.04300025
000080 7b 9f 2a bd bd 92 bd 3b ce 40 54 3d 18 11 7e 3d
       -0.041656 0.005785315 0.051819615 0.06202802
000090 ed a1 d4 3c 98 02 38 bd bc 53 16 bb a8 86 b4 3d
       0.025956118 -0.04492435 -0.0022938093 0.08814746
0000a0 46 b0 9e bd 84 3c 7b 3d d9 d6 a6 bb 53 59 8e 3d
       -0.07748465 0.06133701 -0.00509153 0.06950631
0000b0 77 de 3c 3d 00 bb a2 3b c8 00 16 bd df 47 cb 3d
       0.046110597 0.00496614 -0.03662184 0.09925818
0000c0 37 b4 af bd 12 3d 94 3d 9d 99 72 3d f3 75 88 3d
       -0.08579295 0.07238211 0.05922853 0.06663122
0000d0 02 95 46 3d d3 54 7e 3d f3 cb bb 3d f0 56 b5 3c
       0.04848195 0.062092613 0.091697596 0.022136182
0000e0 25 2b 35 3c 9d 42 77 bd 5a 32 a5 bc 1a f9 dc 3d
       0.01105765 -0.06036626 -0.020165611 0.107897
0000f0 5d 31 dd 3d d6 22 45 bd 23 0b 8d 3d 20 0c 8a 3d
       0.10800431 -0.048128925 0.0688689 0.06740594

conv4.0.weight f4 [128, 64, 3, 3]
000000 ce 72 04 3e 15 e8 8d 3d df 56 e9 3d 56 39 5d 3d
       0.1293442 0.06929032 0.113935225 0.054009758
000010 5f 2c 8f 3d ed d7 4f 3d 1e 26 62 3d 58 6d 32 bd
       0.06990885 0.050743032 0.055212133 -0.04356131
000020 7a e4 19 3c 0b 58 c1 bd c9 4f 00 bd e6 f9 af 3c
       0.009392852 -0.09440621 -0.03132609 0.021481466
000030 55 f8 14 3d 0d 14 87 3d 85 aa 81 3d 65 cb d0 3c
       0.03636964 0.06595621 0.06331352 0.025487611
000040 50 e5 05 bd fa 30 94 3d 75 73 6b 3d bd 21 3d bd
       -0.032689393 0.07235904 0.057483155 -0.046174753
000050 68 3a 24 bd 01 1b 4a bd b3 7b a8 bd a4 e3 71 3d
       -0.040094763 -0.04934216 -0.08226719 0.059054986
000060 03 93 bc 3c 36 c4 58 bc d6 e8 6c bd fe bf af bc
       0.02301932 -0.013230374 -0.057839237 -0.021453854
000070 b6 7c 3d 3d 98 89 c2 ba 53 61 31 3d 39 d0 98 bd
       0.04626151 -0.0014842032 0.043305706 -0.0746159
000080 2a 07 28 3d c1 af e8 bd ff 2b ae bc ee d0 05 bb
       0.041022457 -0.113616474 -0.021261213 -0.0020418721
000090 ac c8 52 bc 5a f8 f1 bb 22 6a 2c 3d 60 87 9f 3b
       -0.012865227 -0.007384342 0.042093404 0.004868433
0000a0 94 07 ed ba b8 77 98 3c 00 cc 92 3c 09 00 c6 3c
       -0.0018083923 0.018611774 0.01791954 0.024169939
0000b0 9d 17 0f bd 10 fb 57 bd 12 81 07 3b 27 cb d1 3c
       -0.03493463 -0.052729666 0.0020676297 0.025609566
0000c0 2c 70 91 bc fa 63 41 bb 4b 9a 0a bc 59 0a 80 bd
       -0.017753683 -0.0029509054 -0.008459638 -0.06251974
0000d0 2b 14 0b 3d 86 4c 6d bd 1c 6b 98 bc 43 3e bb 3c
       0.03395478 -0.057934307 -0.018605761 0.022856837
0000e0 c0 07 50 bd b8 14 a7 bd 2b 99 15 3b c8 34 47 bd
       -0.05078864 -0.08158249 0.002282689 -0.04863432
0000f0 67 bd 97 bd ec f1 d9 3b 6b 20 3b bd 56 37 5a 3c
       -0.074091725 0.006651154 -0.045685213 0.013318857
000100 3b 18 c7 3c e3 fc ec bc 5d b1 1b 3d f6 17 0e bd
       0.024303546 -0.02892918 0.038010944 -0.03469082
000110 b5 b8 a1 bc 25 59 f0 3b 5f 1e 2c bd 39 47 e5 bb
       -0.019741395 0.0073348456 -0.04202115 -0.006997016
000120 bb 48 22 bd 57 75 24 bd bd f5 22 3d 63 a1 e6 bc
       -0.039620142 -0.040150966 0.039785136 -0.028153127
000130 d6 7a a1 bc 24 31 cc bb d7 32 4c bd 31 ae a1 bd
       -0.019711893 -0.006231444 -0.049853172 -0.078945525
000140 9d 91 02 bc 74 e5 1d 3d e6 1f 61 3c fa 1f 3e 3d
       -0.007969287 0.0385489 0.013740515 0.046417214
000150 e8 f7 5b bd 45 41 65 bc 1b ce 19 3d 0c 08 63 bd
       -0.05370322 -0.013992612 0.037550073 -0.055427596
000160 7a 28 1c bd 9f 68 bc bb 20 89 7e 3d 0a bb e3 3d
       -0.03812454 -0.0057497765 0.06214249 0.11119659
000170 3b b6 86 3d c8 86 09 bc e8 56 1f 3d a6 90 81 3d
       0.065777265 -0.008393951 0.03890124 0.063264176
000180 ab 40 69 bd 1c f4 5c 3d 88 f9 88 3c e2 a9 b5 bc
       -0.056946438 0.05394374 0.016720548 -0.022175733
000190 63 f2 d8 bc 18 55 dc 3d b5 99 4d bc 95 ad 04 bd
       -0.026482766 0.10758418 -0.012548854 -0.032392103
0001a0 0d d9 b1 bc 80 80 9c bd 4d 4d df bb af 59 1e 3c
       -0.021709943 -0.07641697 -0.006814635 0.009664937
0001b0 b0 ff 9d 3c d1 6d 21 bd 43 05 5e 3d 8e 4c 51 bd
       0.01928696 -0.03941137 0.054204237 -0.0510984
0001c0 a6 b5 78 3d f6 6b b8 3c e0 99 1b 3d 0a b7 5e bd
       0.06072011 0.022512417 0.037988544 -0.05437378
0001d0 7f 86 ea bc 1d 32 02 3b 7e 51 02 3c a9 2f 46 bd
       -0.028628586 0.0019866296 0.007954 -0.048385296
0001e0 d4 9f 6c 37 b9 e7 05 bd 40 3d f9 3d b0 9f 20 3c
       1.4103909e-05 -0.03269169 0.12169886 0.0098036975
0001f0 05 a2 68 bd d8 7c 8a 3d 72 13 79 3c 9b a3 de 3c
       -0.05679514 0.06762093 0.01520239 0.027177623
000200 d1 a6 88 3d c4 f5 6b 3d a9 f9 bd bc 29 21 ec 3d
       0.06672443 0.057607427 -0.023190336 0.11529762
000210 14 a6 eb bc 59 98 71 bc d2 93 10 3e f2 79 62 bc
       -0.028765716 -0.014745795 0.14118889 -0.013823019
000220 5a 37 5d bc 36 51 c6 3c 10 f3 23 bd c9 aa f2 bc
       -0.013501966 0.024208646 -0.040026724 -0.029622452
000230 34 c4 23 3a 68 a1 2b bd a8 b3 d3 bc 9e 21 12 bd
       0.0006247193 -0.041901976 -0.025842503 -0.03567659
000240 ba bc 15 3c 3c 70 84 bd 44 3a f0 bc b4 75 29 bd
       0.009139234 -0.064667195 -0.029324658 -0.041372016
000250 92 96 bc 3c 0e f1 35 bd 11 f6 09 bc 61 1d 68 3d
       0.023021016 -0.04441934 -0.008420483 0.056668643
000260 d9 be 27 bd 2b cc 1e 3d 7b e8 ad bc 12 a1 cd bb
       -0.04095349 0.03876893 -0.02122902 -0.0062753046
000270 67 da 1c bd b1 2b 01 bc a7 ae 99 bd f1 e1 ab bc
       -0.038294222 -0.007883952 -0.075040154 -0.02098176
000280 e0 63 ff bc c9 bb a6 3d f4 d5 1d bd 04 93 82 bc
       -0.031175554 0.08141286 -0.03853412 -0.015939243
000290 e6 89 43 bb f3 1b 2a bd 07 10 de 3c 52 c1 67 bd
       -0.0029836833 -0.04153056 0.027107252 -0.05658085
0002a0 ad e9 29 bc c6 cf b9 bd c6 9c 8a bc 6b 02 d5 3c
       -0.010370654 -0.09072833 -0.016920459 0.02600213
0002b0 3a b3 0a bd 21 99 20 bc dc e1 af bc 6b 27 6f 3c
       -0.03386233 -0.009802134 -0.021470003 0.0145968
0002c0 f0 a0 2d bd c3 05 5a bd 9d 14 5c bd cc 22 38 bd
       -0.04238981 -0.05322815 -0.053730596 -0.04495506
0002d0 d1 72 92 bd fe c3 96 3c f4 63 14 bd 81 e9 8e 3d
       -0.07150806 0.018404003 -0.036228135 0.06978131
0002e0 a2 1a 2a bd 4c e6 a9 3b bc bc 1e bd 59 4a 0a 3d
       -0.041529305 0.005184924 -0.03875421 0.03376231
0002f0 13 0d 60 bd 34 07 b3 3c 32 13 69 3d 27 a6 8a 3c
       -0.05469997 0.02185402 0.05690307 0.01692493
000300 cb 8c f6 bb bb ce 24 bd c8 aa 4e 3c 17 38 ba bc
       -0.007524108 -0.040236216 0.01261396 -0.022731824
000310 f3 9b 81 bc 97 09 9f bd ad 75 b5 3a 63 bd ec ba
       -0.015821433 -0.07765501 0.0013844274 -0.0018061813
000320 10 81 2b 3d 60 07 0a bd 51 bc 38 bd e5 08 25 3d
       0.04187113 -0.03369844 -0.045101468 0.040291686
000330 aa 96 89 bc 5f 85 00 3d db 93 7c bc 84 0b 49 3d
       -0.016795475 0.031377193 -0.015416111 0.049083248
000340 6b 9c 0c 3d 8e d5 46 bc 69 a7 d1 3c 75 a7 37 3d
       0.03432886 -0.012135876 0.025592523 0.044837434
000350 37 72 9e 3c 42 7c 95 3c 3f 06 88 3c 9c 81 9b 3d
       0.019341571 0.018247727 0.01660454 0.075930804
000360 46 b8 da 3d 3b 45 ba bb 4a 31 a7 bc 85 d7 68 3c
       0.106796786 -0.0056845224 -0.020409245 0.01421154
000370 21 39 93 3b ef aa 06 3d 07 66 27 3d f5 f1 0c bd
       0.0044928943 0.03287786 0.040868785 -0.034410436
000380 70 ed 1a bd ef 5b d5 bc 70 b7 2f 3c e9 47 87 3c
       -0.037824094 -0.026044814 0.010724887 0.016513782
000390 da 96 97 3b 45 3c 21 3d 50 17 dd bb e3 04 a6 bd
       0.004626137 0.039364118 -0.006747164 -0.08106401
0003a0 c0 75 b5 3c 70 c4 b6 bc 2a 6a 52 ba 14 ed 2d 3c
       0.022150874 -0.022310466 -0.0008026684 0.010615606
0003b0 f4 10 27 bc 6e ca cf 3c 8e 49 a3 bd 3a ad a9 3b
       -0.010196913 0.02536508 -0.07973014 0.005178121
0003c0 ff d8 2a 3d 3c e7 94 bb 34 e2 c6 bc 79 dc bc bc
       0.04171085 -0.004544167 -0.024277784 -0.023054348
0003d0 ef d6 f8 3c fe 81 9c 3d 16 05 d2 bc 15 f3 f6 bc
       0.030375926 0.076419815 -0.02563719 -0.030145207
0003e0 72 e2 df bb 6a 69 94 bd 43 2d 8b bc 65 fd 05 3d
       -0.0068324143 -0.07246669 -0.016989356 0.03271236
0003f0 e5 a8 83 3d 5e 89 d7 3c 01 b0 06 3e 03 b9 6b 3c
       0.064286985 0.026310619 0.13153078 0.014387372

conv4.0.bias f4 [128]
000000 e1 7f b5 3d 39 68 1f 3d 98 cd f5 3b 6f a2 42 3d
       0.088622816 0.038917754 0.0075013153 0.04751819
000010 78 f7 a4 3d c1 cb 4f bd 31 b1 1e 3d b7 6c a9 3d
       0.080550134 -0.050731424 0.0387432 0.08272689
000020 d4 64 ba 3d 4a 5a 96 3b 13 d8 30 bd 47 f1 80 bd
       0.09101263 0.0045884 -0.043174814 -0.0629602
000030 9e 8c 58 3d b4 ff bc bc 2b 86 7c bd e8 85 5c 3d
       0.052868478 -0.023071148 -0.06165139 0.05383864
000040 97 0c 49 3d 48 38 ab bd 23 62 ab 3d 1a 56 92 3d
       0.049084272 -0.08360344 0.083683275 0.07145329
000050 44 3c 93 bd ca f0 69 3d f9 39 2f 3d 9e b9 9b 3d
       -0.07189229 0.0571144 0.042779896 0.07603763
000060 5f 40 b9 3d bd c0 fc bc 62 07 b0 3d 2c ee 6d 3d
       0.09045481 -0.030853624 0.08595158 0.058088467
000070 38 63 5b 3d a7 4e 30 bd c9 a0 b5 bd 32 fb b1 bd
       0.05356142 -0.04304376 -0.08868558 -0.0869049
000080 fa 90 4a 3b a7 7d 3e 3d c7 5f 19 bd dc 0c c3 bd
       0.0030909167 0.04650655 -0.037444856 -0.09523937
000090 82 ea 86 3d a2 fd 9a 3d 00 22 9a 3d 66 ad 5b 3d
       0.065876976 0.07567908 0.07526016 0.053632163
0000a0 d4 f6 84 3d 02 ba 85 bd 09 5f ca bc f0 73 10 bd
       0.06492391 -0.06529619 -0.02470352 -0.035266817
0000b0 ec 66 85 bd 0f a5 fc 3b 40 0e fc bc a0 8a a9 bd
       -0.065137714 0.007710106 -0.030768514 -0.08278394
0000c0 3d 35 9e 3d 98 96 23 3d fe 99 84 3d 22 50 ae 3d
       0.07724998 0.03993854 0.06474684 0.08511378
0000d0 f9 42 ab 3d 74 fd ac 3d 82 03 49 bd 94 98 a4 bc
       0.083623834 0.0844678 -0.04907561 -0.020092286
0000e0 f5 34 91 bd 81 c1 c6 bc 08 f6 b4 3d 26 25 e9 bc
       -0.07090179 -0.024262192 0.08835989 -0.028460097
0000f0 e7 03 53 3d 50 78 6a 3d 72 01 5b 3d 7e 5e 8f bd
       0.051517393 0.057243645 0.053468175 -0.07000445
000100 3d f3 09 3d d3 c0 3a bd 72 bf 38 3d 44 4e b8 3d
       0.033679236 -0.045594048 0.04510445 0.08999303
000110 f2 4e 86 bd bd 2c 47 bc b7 7a a4 bd a6 55 26 bd
       -0.065580264 -0.0121566625 -0.080312185 -0.040609024
000120 7f 48 3a 3d e9 87 44 bb 60 b9 ce 3c 34 ba b2 3d
       0.045479294 -0.0029988235 0.025234878 0.08726922
000130 ed 19 0a bc 8b a8 1e bd ee 77 0e bd 86 c2 d8 bc
       -0.008429033 -0.038734954 -0.034782343 -0.026459944
000140 c0 3a 7f 3d 65 f3 90 3d 8e e5 85 3d 1a 89 8f 3d
       0.062311888 0.07077674 0.06537925 0.07008572
000150 5b 40 8f 3d 64 ef ae 3d c1 76 9c bd 4d db 64 3d
       0.06994697 0.08541754 -0.07639838 0.055873204
000160 38 3c ac bd 71 f8 12 3d 60 69 77 bd 6a 9a aa 3d
       -0.08409923 0.035881463 -0.060403228 0.083302334
000170 78 87 92 3d eb 91 8b 3d 5e da 11 3d ed fe 33 bd
       0.07154745 0.06814941 0.03560864 -0.043944288
000180 3d a7 45 bc b4 c9 8a 3d ba 65 77 3d 17 ff 87 3d
       -0.0120637985 0.06776753 0.06039975 0.066404514
000190 99 c4 28 3d 92 e0 c9 3d 79 ca 50 3d f4 81 14 bd
       0.041203115 0.098572865 0.050974343 -0.036256745
0001a0 22 d4 b4 3d 36 c0 73 3d 32 de bc 3d 2b 14 ad 3d
       0.088295236 0.05950948 0.09222068 0.08451112
0001b0 7c 91 c3 3d 99 13 22 3d aa 66 ac 3d aa ea 60 bd
       0.09549233 0.03956947 0.08418019 -0.054911293
0001c0 b0 d7 1e 3d 5e b7 1b 3d cc f1 a6 3d a8 78 20 3d
       0.038779914 0.03801667 0.08151588 0.039177567
0001d0 14 a1 9a 3d 4b 7f 85 3d c2 14 3a bd 10 6e 73 3d
       0.075502545 0.0651842 -0.045429952 0.059431136
0001e0 42 88 2f bd 86 8c 53 bd ae f0 96 bd f5 4c 51 bd
       -0.042854555 -0.051647685 -0.07370125 -0.051098783
0001f0 78 19 80 3d 80 26 8a 3d 7a 46 6d 3d 5a 83 b4 bb
       0.06254858 0.067456245 0.05792854 -0.0055088224

linear.weight f4 [10, 2560]
000000 39 0b 2d bc 00 d4 87 bc d3 1e 99 bc 54 75 0a bb
       -0.010561758 -0.016580582 -0.018691456 -0.0021127062
000010 96 1f c0 bc d0 f2 20 3c 59 b8 2a bd 4f d2 f3 39
       -0.023452561 0.009823516 -0.041679714 0.00046505264
000020 46 3e db bc ee 48 18 bc 4e cd 7a bc 68 56 4e bb
       -0.026763093 -0.009294732 -0.0153077375 -0.0031484608
000030 56 91 84 bc e7 20 c0 bc 28 2d d8 bc a1 05 32 ba
       -0.016182583 -0.023453189 -0.02638872 -0.0006791
000040 23 99 c0 bb 92 1f 0d bd df 02 06 bc b8 0f 30 bd
       -0.0058776303 -0.034453936 -0.008179395 -0.04298374
000050 cf b2 c1 bc d7 fb 1d bd 60 10 06 3b 04 2b 1a 39
       -0.023644833 -0.03857025 0.0020456538 0.00014702609
000060 c4 77 d3 bc cc 88 14 bd e6 fe c6 bc ff 0c 06 bd
       -0.025813945 -0.036263272 -0.024291467 -0.032727238
000070 fd 0d 18 bd f5 88 13 bd 7d 55 5d bb 70 a4 f0 bc
       -0.037122715 -0.036019284 -0.0033772879 -0.029375285
000080 d9 35 43 bd fc b5 49 bd 97 a3 ad bc a9 a6 83 bb
       -0.047658775 -0.04924582 -0.02119617 -0.00401767
000090 d8 d7 4d bd 2b 69 5c bd 30 0b 7e bb ff 03 1e bd
       -0.050254673 -0.053811233 -0.0038763992 -0.03857803
0000a0 51 d6 63 bb 81 47 c8 bc c6 91 2f bc b1 35 c9 bc
       -0.0034765194 -0.024448158 -0.010715907 -0.024561735
0000b0 2c a1 a3 bc 07 5f 33 bd 83 32 94 3a 2f 75 6d bc
       -0.019974314 -0.043791797 0.0011306558 -0.014493271
0000c0 ad 65 8f bc 4a 79 f9 bb 3f ad 5c bb 33 a8 fa bc
       -0.017504537 -0.0076133357 -0.0033672599 -0.030597782
0000d0 86 89 c1 bb df ad 8b bc 3d d6 db 3b 9a b9 86 3b
       -0.0059062866 -0.017050682 0.006708889 0.004111481
0000e0 0d 68 80 bb ee ea ad bc df f1 01 bd 04 0f de bb
       -0.003918654 -0.021230187 -0.031724807 -0.0067766923
0000f0 57 f1 7f bc 55 29 a4 bc 81 5a 54 bd f9 93 43 bd
       -0.015621505 -0.02003924 -0.051844124 -0.04774854
000100 2a 0a 02 bd 6d 9c 33 bd e7 d6 80 bc f5 a0 1a bc
       -0.031747974 -0.04385035 -0.015727473 -0.009437789
000110 4d af 51 bd f3 55 29 bd 0e d5 9f bc f1 0f 3c bd
       -0.05119257 -0.041341733 -0.019510772 -0.04591364
000120 5d 85 58 bd f0 e6 a5 bc d7 2d 25 bd fd 63 8d bc
       -0.05286156 -0.020251721 -0.04032692 -0.017259592
000130 84 fc e8 bc b3 43 ce bc 0b 97 12 bd 86 c1 19 bd
       -0.028440721 -0.025178766 -0.035788577 -0.037538074
000140 b1 47 fe bc 47 c5 6c bc c2 1a d4 bc 83 57 f8 bc
       -0.031040045 -0.014451331 -0.025891665 -0.030315166
000150 61 fd a1 bc da 0c 2d bd 16 77 e7 bc 6f e3 a6 bc
       -0.01977414 -0.042248584 -0.028255027 -0.02037212
000160 99 1e 20 bc 34 76 16 bd 65 d3 54 bc ea d9 cf bb
       -0.00977292 -0.03673382 -0.0129898535 -0.006343116
000170 f5 85 61 bc 0d 42 2b bd ed ad 49 3c 56 a9 57 bc
       -0.013764848 -0.041811038 0.012309534 -0.013162931
000180 41 98 34 bc ef e0 b9 bc fc bb dc bc 5b 20 30 bc
       -0.011022628 -0.022690265 -0.026945107 -0.010749902
000190 e8 4d 33 bc 58 75 f4 3a 1a d6 29 3c d8 bb b3 bc
       -0.010943867 0.0018650694 0.010365987 -0.021940157
0001a0 07 1f 51 bb ae 3f 0a 3c 35 8b a0 bc d0 ea eb bc
       -0.0031909363 0.008438034 -0.01959763 -0.02879849
0001b0 b2 68 86 bc 1f 37 12 bc b9 cd 6b 3c bd 8d 69 bc
       -0.016407344 -0.008924275 0.01439231 -0.014254984
0001c0 1e 56 88 bb 56 35 70 bc 49 d9 83 bc 2c 43 29 bb
       -0.0041606566 -0.014661154 -0.01609482 -0.002582739
0001d0 a5 84 08 bc 53 c3 57 3c 87 21 a0 bc 15 0e 50 bc
       -0.008332406 0.0131691275 -0.019547237 -0.01269867
0001e0 19 33 dd bc fa 2f 63 3c ec 4e 39 3c b0 3b a4 3b
       -0.027001904 0.013866419 0.01131032 0.005011998
0001f0 7c fb 74 bc d8 5f c1 3b 9d ef 04 bc 0e 00 1c 3c
       -0.014952537 0.005901318 -0.008113769 0.009521497
000200 63 53 7c bc f4 8e 8e bc 77 f0 90 ba ca 76 38 3c
       -0.01540074 -0.01740215 -0.0011057992 0.01125879
000210 ec 57 3e bc 46 09 15 bb 8a 8c 82 bc 55 40 70 bc
       -0.011617642 -0.0022741123 -0.015936155 -0.014663775
000220 7e db d6 bc d2 6c 92 bb 6c 37 ef 3b ae 8a 2c 3b
       -0.026227709 -0.004468539 0.007300308 0.0026327777
000230 51 52 fe bc 6a 0b a5 bc 18 04 7c bc e3 cd 91 bc
       -0.03104511 -0.020147044 -0.015381835 -0.01779837
000240 7b 88 2f bd ce 1e 35 bd 10 13 a6 bc 24 f8 1d bd
       -0.042854767 -0.04421883 -0.020272762 -0.038566723
000250 45 45 18 bd e3 3f 8f bc 36 da 17 bd 20 9f d3 bc
       -0.037175436 -0.017486518 -0.037073337 -0.025832713
000260 f0 ad 97 bc 3c cf 8a bc da 82 28 bd 9c 43 b8 bb
       -0.018515557 -0.01694452 -0.041140415 -0.005623294
000270 f4 ee 3b bd b5 cd b9 bc d1 c9 f7 bc 35 f6 93 bc
       -0.04588218 -0.022681097 -0.0302476 -0.018061737
000280 0c 2d 18 bd ae cc 8e bb 3f a4 2c bd 5f b6 fe bc
       -0.037152335 -0.004357896 -0.042148825 -0.03109282
000290 31 13 f2 bc 24 bb 2f bc c5 7d db bb 3d 06 8e 3b
       -0.029550167 -0.01072577 -0.0066983425 0.0043342398
0002a0 2b f4 04 bd b9 f9 fb bc 77 8c 01 bd 74 da 1e bc
       -0.03245942 -0.030758725 -0.0316281 -0.009695638
0002b0 96 76 00 bd 1c 6c a2 bc 58 c8 f8 bb 99 ea 4f bb
       -0.031363092 -0.019826941 -0.007592242 -0.0031725524
0002c0 e8 b7 cc bb 70 d9 85 bc fc 77 98 bc 16 8c a9 ba
       -0.0062475093 -0.016339034 -0.0186119 -0.0012935426
0002d0 21 1d 0e 3c 3a 28 0f 3c 84 e8 09 bc e8 c2 45 3b
       0.008673937 0.008737618 -0.008417252 0.0030175988
0002e0 1b 4f 2f 3c 10 d5 93 bc 2f 9e 36 bc be e5 c6 3b
       0.010700013 -0.018045932 -0.011146112 0.006069868
0002f0 c5 a6 82 3c b1 c5 b5 3c 5b f8 7d 3c 47 c2 18 3c
       0.015948663 0.022188993 0.015501107 0.009323663
000300 99 74 99 3c e8 5e 8d 3b f5 39 1b bc fd f1 79 3a
       0.018732356 0.004314292 -0.009474267 0.0009534655
000310 df 21 90 bc 4c ab 84 bc 79 2c 9a bc 0b d3 22 bc
       -0.017594276 -0.016194962 -0.018820034 -0.009938012
000320 59 3b 9c bc 31 0b 9f bc d8 b4 b2 bc 6e 7a ae bc
       -0.019071268 -0.019414516 -0.021814749 -0.021298613
000330 41 a6 c3 bc 8b 55 ab bc 92 28 33 bd 77 7c 10 bd
       -0.023882987 -0.020914814 -0.043739863 -0.03527495
000340 83 10 08 bd 9b 4e 47 bd de de 8e bc e1 a8 c7 bb
       -0.03321887 -0.04865895 -0.017440256 -0.00609313
000350 04 15 3b bd 88 9a fc bc 8b 7b 58 3b 65 9b 36 ba
       -0.04567434 -0.030835405 0.0033032622 -0.00069659046
000360 33 2e 96 bc b9 ff 1f bd ab 58 27 bd 40 05 2a bc
       -0.018332576 -0.039062236 -0.040856045 -0.010377228
000370 6e 00 8e bc b7 7a 47 bd e6 9a 8f bc a2 ad 85 bc
       -0.01733419 -0.048701014 -0.017529916 -0.016318146
000380 ba 7c 94 bc 42 16 8e bc b3 e6 74 bc 3e 4d 8f bc
       -0.01812588 -0.017344598 -0.014947581 -0.017492887
000390 b2 2e da bb fa f1 12 3b 8e 34 b7 3c 4d 85 f7 ba
       -0.0066583985 0.0022422061 0.022363927 -0.0018884331
0003a0 c9 e1 99 3c f7 5c 88 b9 a0 59 3d 3a 20 27 58 bc
       0.01878442 -0.00026009206 0.0007223133 -0.013192922
0003b0 7c 53 48 bc 8b 4a 99 bc 34 5b 65 3b 31 ea 37 3c
       -0.0122269355 -0.018712303 0.0034996988 0.011225269
0003c0 75 ad 10 bd 4b c2 1d bc 28 68 74 bc 00 fd e8 bc
       -0.03532167 -0.009628843 -0.014917411 -0.028440952
0003d0 89 39 d9 bc cf 2f cc bc db ba a9 b8 c5 bc 04 bc
       -0.026516693 -0.02492514 -8.0933525e-05 -0.008101647
0003e0 5f ff b6 bb 46 c6 ef bc 0d ac a7 bc 28 98 54 bc
       -0.005584642 -0.029269349 -0.020467782 -0.01297573
0003f0 66 17 f8 bc d9 da 2b bd 50 f7 02 3b 7f e6 c5 bc
       -0.030284595 -0.041956756 0.0019983836 -0.02415776

linear.bias f4 [10]
000000 e8 4a b2 bc 9d d2 b1 bc 96 50 f8 3c ec 33 00 bd
       -0.021764234 -0.021706874 0.030311864 -0.031299517
000010 26 5c 19 3d 83 4d 45 bd b5 a1 1d bd 37 d5 b7 3c
       0.037441395 -0.048169624 -0.038484294 0.022440536
000020 67 46 64 bc 03 2c 17 bd
       -0.013932801 -0.036907207
